models/persondetect/persondetect_160_128_npu64.tflite (tflite, 505392 bytes, 2 tensors)

NeutronMicrocode u1 [4688]
0	0x6e	110
1	0x4d	77
2	0x43	67
3	0x64	100
4	0x6d	109
5	0x0a	10
6	0x71	113
7	0x6f	111
8	0xfe	254
9	0x11	17
10	0x00	0
11	0x00	0
12	0x00	0
13	0x00	0
14	0x00	0
15	0x00	0
16	0xfe	254
17	0x11	17
18	0x00	0
19	0x00	0
20	0x10	16
21	0x00	0
22	0x00	0
23	0x00	0
24	0x50	80
25	0x12	18
26	0x00	0
27	0x00	0
28	0x80	128
29	0x9e	158
30	0x07	7
31	0x00	0
32	0x01	1
33	0x00	0
34	0x00	0
35	0x00	0
36	0x00	0
37	0x80	128
38	0x02	2
39	0x00	0
40	0x00	0
41	0x00	0
42	0x00	0
43	0x00	0
44	0x01	1
45	0x00	0
46	0x00	0
47	0x00	0
48	0x03	3
49	0x00	0
50	0x00	0
51	0x00	0
52	0x2c	44
53	0x00	0
54	0x00	0
55	0x00	0
56	0x77	119
57	0x08	8
58	0x00	0
59	0x00	0
60	0x00	0
61	0x00	0
62	0x00	0
63	0x00	0
64	0x03	3
65	0x05	5
66	0x06	6
67	0x00	0
68	0x01	1
69	0x01	1
70	0x0b	11
71	0x00	0
72	0x02	2
73	0x07	7
74	0x00	0
75	0x40	64
76	0x01	1
77	0x00	0
78	0x00	0
79	0x00	0
80	0x00	0
81	0x00	0
82	0x40	64
83	0x00	0
84	0x00	0
85	0x00	0
86	0x00	0
87	0x00	0
88	0x00	0
89	0x00	0
90	0x00	0
91	0x00	0
92	0x00	0
93	0x00	0
94	0x01	1
95	0x00	0
96	0x00	0
97	0x00	0
98	0x40	64
99	0x00	0
100	0x00	0
101	0x00	0
102	0x50	80
103	0x00	0
104	0x00	0
105	0x00	0
106	0x10	16
107	0x00	0
108	0x00	0
109	0x00	0
110	0x10	16
111	0x00	0
112	0x00	0
113	0x00	0
114	0x01	1
115	0x00	0
116	0x00	0
117	0x00	0
118	0x80	128
119	0x00	0
120	0x00	0
121	0x00	0
122	0xa0	160
123	0x00	0
124	0x00	0
125	0x00	0
126	0x03	3
127	0x00	0
128	0x00	0
129	0x00	0
130	0x03	3
131	0x00	0
132	0x00	0
133	0x00	0
134	0x03	3
135	0x00	0
136	0x00	0
137	0x00	0
138	0x02	2
139	0x00	0
140	0x00	0
141	0x00	0
142	0x02	2
143	0x00	0
144	0x00	0
145	0x00	0
146	0x00	0
147	0x00	0
148	0x00	0
149	0x00	0
150	0x00	0
151	0x00	0
152	0x00	0
153	0x00	0
154	0x01	1
155	0x00	0
156	0x00	0
157	0x00	0
158	0x01	1
159	0x00	0
160	0x00	0
161	0x00	0
162	0x01	1
163	0x00	0
164	0x00	0
165	0x00	0
166	0x08	8
167	0x02	2
168	0x00	0
169	0x01	1
170	0x20	32
171	0x00	0
172	0x0f	15
173	0x07	7
174	0x00	0
175	0x00	0
176	0x00	0
177	0x00	0
178	0x00	0
179	0x00	0
180	0x00	0
181	0x00	0
182	0x01	1
183	0x00	0
184	0x00	0
185	0x00	0
186	0x01	1
187	0x00	0
188	0x00	0
189	0x00	0
190	0x80	128
191	0xff	255
192	0xff	255
193	0xff	255
194	0x98	152
195	0x80	128
196	0xef	239
197	0xb4	180
198	0x00	0
199	0x00	0
200	0x00	0
201	0x00	0
202	0x00	0
203	0x00	0
204	0x00	0
205	0x00	0
206	0x00	0
207	0x00	0
208	0x00	0
209	0x00	0
210	0x00	0
211	0x00	0
212	0x00	0
213	0x00	0
214	0x05	5
215	0x07	7
216	0x03	3
217	0x05	5
218	0x06	6
219	0x06	6
220	0x01	1
221	0x01	1
222	0x0b	11
223	0x00	0
224	0x02	2
225	0x1b	27
226	0x00	0
227	0x00	0
228	0x00	0
229	0x00	0
230	0x00	0
231	0x40	64
232	0x01	1
233	0x00	0
234	0x00	0
235	0x03	3
236	0x00	0
237	0x00	0
238	0x40	64
239	0x02	2
240	0x00	0
241	0x00	0
242	0x00	0
243	0x00	0
244	0x00	0
245	0x00	0
246	0x01	1
247	0x00	0
248	0x00	0
249	0x00	0
250	0x40	64
251	0x00	0
252	0x00	0
253	0x00	0
254	0x50	80
255	0x00	0

NeutronWeights u1 [499328]
0	0xa7	167
1	0x33	51
2	0x00	0
3	0x00	0
4	0xb1	177
5	0xfe	254
6	0xff	255
7	0xff	255
8	0xce	206
9	0x15	21
10	0x00	0
11	0x00	0
12	0x54	84
13	0xc3	195
14	0xff	255
15	0xff	255
16	0x32	50
17	0xfb	251
18	0xff	255
19	0xff	255
20	0x97	151
21	0x01	1
22	0x00	0
23	0x00	0
24	0xda	218
25	0x02	2
26	0x00	0
27	0x00	0
28	0x28	40
29	0x1f	31
30	0x00	0
31	0x00	0
32	0x16	22
33	0x1c	28
34	0x00	0
35	0x00	0
36	0xc5	197
37	0x01	1
38	0x00	0
39	0x00	0
40	0x74	116
41	0x18	24
42	0x00	0
43	0x00	0
44	0x4a	74
45	0x28	40
46	0x00	0
47	0x00	0
48	0x66	102
49	0xef	239
50	0xff	255
51	0xff	255
52	0xdd	221
53	0x35	53
54	0x00	0
55	0x00	0
56	0x68	104
57	0x34	52
58	0x00	0
59	0x00	0
60	0xe0	224
61	0x16	22
62	0x00	0
63	0x00	0
64	0x05	5
65	0x05	5
66	0x07	7
67	0x0a	10
68	0x08	8
69	0x0d	13
70	0x0b	11
71	0x07	7
72	0x27	39
73	0x1c	28
74	0x2b	43
75	0x4f	79
76	0x3a	58
77	0x4b	75
78	0x1f	31
79	0x14	20
80	0xc7	199
81	0xcf	207
82	0x5f	95
83	0xda	218
84	0xf0	240
85	0x37	55
86	0xf0	240
87	0x07	7
88	0x14	20
89	0xfa	250
90	0xfc	252
91	0x0f	15
92	0xf8	248
93	0x05	5
94	0x08	8
95	0xef	239
96	0x01	1
97	0xf4	244
98	0x03	3
99	0x06	6
100	0xfc	252
101	0xfb	251
102	0xff	255
103	0x05	5
104	0xdc	220
105	0xd9	217
106	0xad	173
107	0xe3	227
108	0xe4	228
109	0xb6	182
110	0xfd	253
111	0xf5	245
112	0xf7	247
113	0xf3	243
114	0x06	6
115	0xf0	240
116	0xec	236
117	0x02	2
118	0xf2	242
119	0xf5	245
120	0xf9	249
121	0xf6	246
122	0xf7	247
123	0xfe	254
124	0xfb	251
125	0x00	0
126	0x02	2
127	0xfd	253
128	0xf1	241
129	0xcb	203
130	0xe3	227
131	0x0c	12
132	0x11	17
133	0x13	19
134	0xfc	252
135	0x11	17
136	0xfd	253
137	0x09	9
138	0xf1	241
139	0x09	9
140	0x17	23
141	0x00	0
142	0x05	5
143	0x17	23
144	0xf9	249
145	0xfc	252
146	0x14	20
147	0xfb	251
148	0x03	3
149	0x19	25
150	0x02	2
151	0xfc	252
152	0xfb	251
153	0x00	0
154	0x0b	11
155	0xfc	252
156	0xef	239
157	0xe7	231
158	0x06	6
159	0x09	9
160	0xfc	252
161	0xea	234
162	0x13	19
163	0xe4	228
164	0xd4	212
165	0x03	3
166	0xeb	235
167	0xd7	215
168	0xe8	232
169	0xd2	210
170	0xd5	213
171	0x2d	45
172	0x31	49
173	0x3e	62
174	0xe4	228
175	0xfd	253
176	0x18	24
177	0xd3	211
178	0x15	21
179	0x22	34
180	0xb8	184
181	0x24	36
182	0x0e	14
183	0xe8	232
184	0x0a	10
185	0xbb	187
186	0x30	48
187	0x30	48
188	0xbf	191
189	0x0b	11
190	0x12	18
191	0xe7	231
192	0xf5	245
193	0xf6	246
194	0xea	234
195	0xee	238
196	0xee	238
197	0xda	218
198	0xf9	249
199	0xf6	246
200	0xfd	253
201	0xf7	247
202	0xfc	252
203	0xf9	249
204	0xf4	244
205	0xf5	245
206	0xf7	247
207	0xf5	245
208	0xdc	220
209	0xf5	245
210	0x2d	45
211	0xf2	242
212	0x0b	11
213	0x0b	11
214	0xf2	242
215	0x11	17
216	0x10	16
217	0xf5	245
218	0xf0	240
219	0x07	7
220	0xe3	227
221	0xe3	227
222	0x07	7
223	0xed	237
224	0xb0	176
225	0xbc	188
226	0xb0	176
227	0x02	2
228	0xf3	243
229	0xed	237
230	0x56	86
231	0x4f	79
232	0xfa	250
233	0x01	1
234	0x05	5
235	0xf0	240
236	0xf1	241
237	0xfa	250
238	0xfa	250
239	0xf4	244
240	0xf9	249
241	0x00	0
242	0x07	7
243	0xea	234
244	0xf8	248
245	0xfa	250
246	0xee	238
247	0xf9	249
248	0xfd	253
249	0xf9	249
250	0xf6	246
251	0xfe	254
252	0xfe	254
253	0xfd	253
254	0xff	255
255	0xfe	254
