models/persondetect/persondetect_160_128_npu16.tflite (tflite, 475056 bytes, 2 tensors)

NeutronMicrocode u1 [4656]
0	0x6e	110
1	0x4d	77
2	0x43	67
3	0x64	100
4	0x6d	109
5	0x0a	10
6	0x71	113
7	0x6f	111
8	0xdc	220
9	0x11	17
10	0x00	0
11	0x00	0
12	0x00	0
13	0x00	0
14	0x00	0
15	0x00	0
16	0xdc	220
17	0x11	17
18	0x00	0
19	0x00	0
20	0x10	16
21	0x00	0
22	0x00	0
23	0x00	0
24	0x30	48
25	0x12	18
26	0x00	0
27	0x00	0
28	0x24	36
29	0x28	40
30	0x07	7
31	0x00	0
32	0x01	1
33	0x00	0
34	0x00	0
35	0x00	0
36	0x00	0
37	0x80	128
38	0x02	2
39	0x00	0
40	0x00	0
41	0x00	0
42	0x00	0
43	0x00	0
44	0x01	1
45	0x00	0
46	0x00	0
47	0x00	0
48	0x03	3
49	0x00	0
50	0x00	0
51	0x00	0
52	0x2b	43
53	0x00	0
54	0x00	0
55	0x00	0
56	0xe2	226
57	0x1c	28
58	0x00	0
59	0x00	0
60	0x00	0
61	0x00	0
62	0x00	0
63	0x00	0
64	0x03	3
65	0x05	5
66	0x06	6
67	0x00	0
68	0x01	1
69	0x01	1
70	0x0b	11
71	0x00	0
72	0x02	2
73	0x07	7
74	0x00	0
75	0x40	64
76	0x01	1
77	0x00	0
78	0x00	0
79	0x00	0
80	0x00	0
81	0x00	0
82	0x20	32
83	0x00	0
84	0x00	0
85	0x00	0
86	0x00	0
87	0x00	0
88	0x00	0
89	0x00	0
90	0x00	0
91	0x00	0
92	0x00	0
93	0x00	0
94	0x01	1
95	0x00	0
96	0x00	0
97	0x00	0
98	0x40	64
99	0x00	0
100	0x00	0
101	0x00	0
102	0x50	80
103	0x00	0
104	0x00	0
105	0x00	0
106	0x10	16
107	0x00	0
108	0x00	0
109	0x00	0
110	0x10	16
111	0x00	0
112	0x00	0
113	0x00	0
114	0x01	1
115	0x00	0
116	0x00	0
117	0x00	0
118	0x80	128
119	0x00	0
120	0x00	0
121	0x00	0
122	0xa0	160
123	0x00	0
124	0x00	0
125	0x00	0
126	0x03	3
127	0x00	0
128	0x00	0
129	0x00	0
130	0x03	3
131	0x00	0
132	0x00	0
133	0x00	0
134	0x03	3
135	0x00	0
136	0x00	0
137	0x00	0
138	0x02	2
139	0x00	0
140	0x00	0
141	0x00	0
142	0x02	2
143	0x00	0
144	0x00	0
145	0x00	0
146	0x00	0
147	0x00	0
148	0x00	0
149	0x00	0
150	0x00	0
151	0x00	0
152	0x00	0
153	0x00	0
154	0x01	1
155	0x00	0
156	0x00	0
157	0x00	0
158	0x01	1
159	0x00	0
160	0x00	0
161	0x00	0
162	0x01	1
163	0x00	0
164	0x00	0
165	0x00	0
166	0x08	8
167	0x02	2
168	0xc0	192
169	0x01	1
170	0x10	16
171	0x01	1
172	0x0f	15
173	0x07	7
174	0x00	0
175	0x00	0
176	0x00	0
177	0x00	0
178	0x00	0
179	0x00	0
180	0x00	0
181	0x00	0
182	0x01	1
183	0x00	0
184	0x00	0
185	0x00	0
186	0x01	1
187	0x00	0
188	0x00	0
189	0x00	0
190	0x80	128
191	0xff	255
192	0xff	255
193	0xff	255
194	0x30	48
195	0x80	128
196	0xd4	212
197	0x4a	74
198	0x00	0
199	0x00	0
200	0x00	0
201	0x00	0
202	0x00	0
203	0x00	0
204	0x00	0
205	0x00	0
206	0x00	0
207	0x00	0
208	0x00	0
209	0x00	0
210	0x00	0
211	0x00	0
212	0x00	0
213	0x00	0
214	0x05	5
215	0x07	7
216	0x03	3
217	0x05	5
218	0x06	6
219	0x06	6
220	0x01	1
221	0x01	1
222	0x0b	11
223	0x00	0
224	0x02	2
225	0x1b	27
226	0x00	0
227	0x00	0
228	0x00	0
229	0x00	0
230	0x00	0
231	0x40	64
232	0x01	1
233	0x00	0
234	0x40	64
235	0x02	2
236	0x00	0
237	0x00	0
238	0xe0	224
239	0x01	1
240	0x00	0
241	0x00	0
242	0x00	0
243	0x00	0
244	0x00	0
245	0x00	0
246	0x01	1
247	0x00	0
248	0x00	0
249	0x00	0
250	0x40	64
251	0x00	0
252	0x00	0
253	0x00	0
254	0x50	80
255	0x00	0

NeutronWeights u1 [469028]
0	0x3a	58
1	0x13	19
2	0x4f	79
3	0x81	129
4	0xba	186
5	0x0e	14
6	0xcb	203
7	0x93	147
8	0x67	103
9	0x86	134
10	0x97	151
11	0x01	1
12	0xda	218
13	0x02	2
14	0xe5	229
15	0x0f	15
16	0x83	131
17	0x0f	15
18	0xc5	197
19	0x01	1
20	0x0f	15
21	0x0f	15
22	0x85	133
23	0x12	18
24	0x13	19
25	0x8e	142
26	0x5e	94
27	0x13	19
28	0x47	71
29	0x13	19
30	0xdc	220
31	0x0e	14
32	0x05	5
33	0x05	5
34	0x07	7
35	0x0a	10
36	0x27	39
37	0x1c	28
38	0x2b	43
39	0x4f	79
40	0xc7	199
41	0xcf	207
42	0x5f	95
43	0xda	218
44	0x14	20
45	0xfa	250
46	0xfc	252
47	0x0f	15
48	0x01	1
49	0xf4	244
50	0x03	3
51	0x06	6
52	0xdc	220
53	0xd9	217
54	0xad	173
55	0xe3	227
56	0xf7	247
57	0xf3	243
58	0x06	6
59	0xf0	240
60	0xf9	249
61	0xf6	246
62	0xf7	247
63	0xfe	254
64	0xf5	245
65	0xf6	246
66	0xea	234
67	0xee	238
68	0xfd	253
69	0xf7	247
70	0xfc	252
71	0xf9	249
72	0xdc	220
73	0xf5	245
74	0x2d	45
75	0xf2	242
76	0x10	16
77	0xf5	245
78	0xf0	240
79	0x07	7
80	0xb0	176
81	0xbc	188
82	0xb0	176
83	0x02	2
84	0xfa	250
85	0x01	1
86	0x05	5
87	0xf0	240
88	0xf9	249
89	0x00	0
90	0x07	7
91	0xea	234
92	0xfd	253
93	0xf9	249
94	0xf6	246
95	0xfe	254
96	0x00	0
97	0x01	1
98	0x0f	15
99	0x04	4
100	0xdd	221
101	0xea	234
102	0xde	222
103	0xb5	181
104	0xf6	246
105	0x08	8
106	0x06	6
107	0x02	2
108	0x01	1
109	0xed	237
110	0xf3	243
111	0xf7	247
112	0xb1	177
113	0xcb	203
114	0xac	172
115	0xf2	242
116	0x2c	44
117	0x27	39
118	0x48	72
119	0x26	38
120	0x04	4
121	0x06	6
122	0xfc	252
123	0x00	0
124	0xff	255
125	0x00	0
126	0xff	255
127	0x00	0
128	0x08	8
129	0x0d	13
130	0x0b	11
131	0x07	7
132	0x3a	58
133	0x4b	75
134	0x1f	31
135	0x14	20
136	0xf0	240
137	0x37	55
138	0xf0	240
139	0x07	7
140	0xf8	248
141	0x05	5
142	0x08	8
143	0xef	239
144	0xfc	252
145	0xfb	251
146	0xff	255
147	0x05	5
148	0xe4	228
149	0xb6	182
150	0xfd	253
151	0xf5	245
152	0xec	236
153	0x02	2
154	0xf2	242
155	0xf5	245
156	0xfb	251
157	0x00	0
158	0x02	2
159	0xfd	253
160	0xee	238
161	0xda	218
162	0xf9	249
163	0xf6	246
164	0xf4	244
165	0xf5	245
166	0xf7	247
167	0xf5	245
168	0x0b	11
169	0x0b	11
170	0xf2	242
171	0x11	17
172	0xe3	227
173	0xe3	227
174	0x07	7
175	0xed	237
176	0xf3	243
177	0xed	237
178	0x56	86
179	0x4f	79
180	0xf1	241
181	0xfa	250
182	0xfa	250
183	0xf4	244
184	0xf8	248
185	0xfa	250
186	0xee	238
187	0xf9	249
188	0xfe	254
189	0xfd	253
190	0xff	255
191	0xfe	254
192	0x03	3
193	0x17	23
194	0x07	7
195	0x02	2
196	0xd0	208
197	0xbb	187
198	0xe4	228
199	0xfc	252
200	0x06	6
201	0xf8	248
202	0xf2	242
203	0x0c	12
204	0xd9	217
205	0xdc	220
206	0x05	5
207	0xf7	247
208	0xf4	244
209	0xf5	245
210	0x4f	79
211	0x45	69
212	0x24	36
213	0x58	88
214	0x0a	10
215	0x06	6
216	0x0b	11
217	0xf9	249
218	0xfd	253
219	0x0f	15
220	0x02	2
221	0x00	0
222	0x00	0
223	0x01	1
224	0x09	9
225	0xec	236
226	0x0c	12
227	0x00	0
228	0x1c	28
229	0xf6	246
230	0xef	239
231	0x00	0
232	0x0a	10
233	0xfc	252
234	0x02	2
235	0x00	0
236	0xfb	251
237	0xfd	253
238	0x07	7
239	0x00	0
240	0x06	6
241	0x5f	95
242	0x5f	95
243	0x00	0
244	0xe3	227
245	0x05	5
246	0x34	52
247	0x00	0
248	0x01	1
249	0xf3	243
250	0x01	1
251	0x00	0
252	0x02	2
253	0x02	2
254	0xff	255
255	0x00	0
