models/persondetect/persondetect_160_128_npu64.tflite (tflite, 521952 bytes, 4 tensors)

NeutronMicrocode u1 [2416]
00000000: 6e4d 4364 912c 7b91 1809 0000 0000 0000
00000010: 1809 0000 1000 0000 7009 0000 58b1 0000
00000020: 0100 0000 0080 0200 0000 0000 0100 0000
00000030: 0300 0000 1100 0000 bd01 0000 0000 0000
00000040: 0305 0600 0101 0100 0207 0040 0100 0000
00000050: 0000 8000 0000 0000 0000 4000 0000 0100
00000060: 0000 4000 0000 5000 0000 1000 0000 1000
00000070: 0000 0100 0000 8000 0000 a000 0000 0300
00000080: 0000 0300 0000 0300 0000 0200 0000 0200
00000090: 0000 0000 0000 0000 0000 0100 0000 0100
000000a0: 0000 0100 0000 0100 0000 2000 0f07 0000
000000b0: 0000 0000 0000 0100 0000 0100 0000 80ff
000000c0: ffff 0080 0000 0000 0000 0000 0000 0000
000000d0: 0000 0000 0000 0507 0305 0606 0101 0100
000000e0: 0219 0000 0000 0040 0100 3003 0000 3002
000000f0: 0000 f002 0000 0100 0000 4000 0000 5000
110 77 67 100 145 44 123 145
24 9 0 0 0 0 0 0
24 9 0 0 16 0 0 0
112 9 0 0 88 177 0 0
1 0 0 0 0 128 2 0
0 0 0 0 1 0 0 0
3 0 0 0 17 0 0 0
189 1 0 0 0 0 0 0
3 5 6 0 1 1 1 0
2 7 0 64 1 0 0 0
0 0 128 0 0 0 0 0
0 0 64 0 0 0 1 0
0 0 64 0 0 0 80 0
0 0 16 0 0 0 16 0
0 0 1 0 0 0 128 0
0 0 160 0 0 0 3 0
0 0 3 0 0 0 3 0
0 0 2 0 0 0 2 0
0 0 0 0 0 0 0 0
0 0 1 0 0 0 1 0
0 0 1 0 0 0 1 0
0 0 32 0 15 7 0 0
0 0 0 0 0 0 1 0
0 0 1 0 0 0 128 255
255 255 0 128 0 0 0 0
0 0 0 0 0 0 0 0
0 0 0 0 0 0 5 7
3 5 6 6 1 1 1 0
2 25 0 0 0 0 0 64
1 0 48 3 0 0 48 2
0 0 240 2 0 0 1 0
0 0 64 0 0 0 80 0

NeutronWeights u1 [45400]
00000000: b3ad 0000 06ff ffff a61d 0000 6638 ffff
00000010: 18fa ffff a101 0000 ba10 0000 cd8e 0100
00000020: 4d44 0000 c509 0000 a97c 0000 9b6b 0000
00000030: 29d0 ffff ee6d 0000 c054 0000 e016 0000
00000040: dbd6 1a00 19e1 1900 eb10 1500 83dc 1a00
00000050: eb10 1500 5f7d 1800 191f 1800 1571 1b00
00000060: eb4a 1800 8941 1900 778e 1a00 b387 1900
00000070: 191f 1700 a9b0 1900 1571 1800 efb4 1800
00000080: 1111 1822 1b2c 2518 3f2d 457f 5d79 3220
00000090: b4be 7fcd eb4a eb09 42ec f331 e610 1ac8
000000a0: 01f0 0408 fbf9 ff07 ccc8 88d6 d895 fcf0
000000b0: ccb4 23a3 8c0c afc0 a680 8de6 c000 1ada
000000c0: dc80 ba1d 292e f629 ef32 ad32 7f00 1c7f
000000d0: dcec 66e7 0f7f 0aec f300 1df5 d3bd 1018
000000e0: f4c0 37af 8009 c389 cfa2 a85c 647f c7fa
000000f0: 26b8 2236 8d3a 16da 0abb 3030 bf0b 12e7
179 173 0 0 6 255 255 255
166 29 0 0 102 56 255 255
24 250 255 255 161 1 0 0
186 16 0 0 205 142 1 0
77 68 0 0 197 9 0 0
169 124 0 0 155 107 0 0
41 208 255 255 238 109 0 0
192 84 0 0 224 22 0 0
219 214 26 0 25 225 25 0
235 16 21 0 131 220 26 0
235 16 21 0 95 125 24 0
25 31 24 0 21 113 27 0
235 74 24 0 137 65 25 0
119 142 26 0 179 135 25 0
25 31 23 0 169 176 25 0
21 113 24 0 239 180 24 0
17 17 24 34 27 44 37 24
63 45 69 127 93 121 50 32
180 190 127 205 235 74 235 9
66 236 243 49 230 16 26 200
1 240 4 8 251 249 255 7
204 200 136 214 216 149 252 240
204 180 35 163 140 12 175 192
166 128 141 230 192 0 26 218
220 128 186 29 41 46 246 41
239 50 173 50 127 0 28 127
220 236 102 231 15 127 10 236
243 0 29 245 211 189 16 24
244 192 55 175 128 9 195 137
207 162 168 92 100 127 199 250
38 184 34 54 141 58 22 218
10 187 48 48 191 11 18 231

NeutronMicrocode u1 [2280]
00000000: 6e4d 4364 912c 7b91 8808 0000 0000 0000
00000010: 8808 0000 1800 0000 e808 0000 d829 0700
00000020: 0100 0000 0030 0200 0000 0000 0300 0000
00000030: 0300 0000 1900 0000 7508 0000 0000 0000
00000040: 0303 0800 0300 0255 0000 0000 0000 0000
00000050: 0000 0000 5000 0000 4000 0000 4001 0000
00000060: 2000 0140 8000 0100 0555 0303 0801 0300
00000070: 0255 4000 0000 0000 0000 0000 0000 5000
00000080: 0000 8000 0000 4001 0000 2000 0140 8000
00000090: 0100 0555 0303 0802 0300 0255 c000 0000
000000a0: 0000 0000 0000 0000 5000 0000 8000 0000
000000b0: 4001 0000 2000 0140 8000 0100 0555 0305
000000c0: 0808 0303 0300 0225 00f0 0000 0000 0000
000000d0: 0808 0000 0800 0000 0804 0000 0100 0000
000000e0: 0800 0000 0a00 0000 0001 0000 0001 0000
000000f0: 0100 0000 0800 0000 0a00 0000 4001 0000
110 77 67 100 145 44 123 145
136 8 0 0 0 0 0 0
136 8 0 0 24 0 0 0
232 8 0 0 216 41 7 0
1 0 0 0 0 48 2 0
0 0 0 0 3 0 0 0
3 0 0 0 25 0 0 0
117 8 0 0 0 0 0 0
3 3 8 0 3 0 2 85
0 0 0 0 0 0 0 0
0 0 0 0 80 0 0 0
64 0 0 0 64 1 0 0
32 0 1 64 128 0 1 0
5 85 3 3 8 1 3 0
2 85 64 0 0 0 0 0
0 0 0 0 0 0 80 0
0 0 128 0 0 0 64 1
0 0 32 0 1 64 128 0
1 0 5 85 3 3 8 2
3 0 2 85 192 0 0 0
0 0 0 0 0 0 0 0
80 0 0 0 128 0 0 0
64 1 0 0 32 0 1 64
128 0 1 0 5 85 3 5
8 8 3 3 3 0 2 37
0 240 0 0 0 0 0 0
8 8 0 0 8 0 0 0
8 4 0 0 1 0 0 0
8 0 0 0 10 0 0 0
0 1 0 0 0 1 0 0
1 0 0 0 8 0 0 0
10 0 0 0 64 1 0 0

NeutronWeights u1 [469464]
00000000: 0101 0101 0101 0101 37f1 feff 98cc feff
00000010: f09b ffff 257f ffff 8328 fbff d918 feff
00000020: 56fe feff 2d72 feff a1e0 faff 129a fdff
00000030: 9a03 feff 2740 ffff 1dfa feff 3c3a fcff
00000040: b2ec 0100 ece2 fcff cfb6 fdff d18d fcff
00000050: 2157 ffff 354a feff 95fb fcff 9441 0000
00000060: ce8a ffff 2b9a faff c5ea feff e93b feff
00000070: 7199 feff 86e8 ffff f2a1 0000 a98d fdff
00000080: 6aae feff 14fb 0300 eb98 fcff fd00 ffff
00000090: 3003 ffff 116d 0000 8094 fcff f07a fbff
000000a0: 2948 fbff b5b3 fcff 7b1a ffff f9cd fdff
000000b0: 4d25 feff 3559 feff 1d6e feff 7f8c ffff
000000c0: 9f2a ffff 5b25 fcff 479a fdff 7281 0100
000000d0: 0973 feff c584 fdff 79fd fcff 81a7 ffff
000000e0: 3896 ffff 1e8b feff 5d80 ffff 9387 feff
000000f0: f4fd ffff bcd7 fdff 0089 faff edd2 fcff
1 1 1 1 1 1 1 1
55 241 254 255 152 204 254 255
240 155 255 255 37 127 255 255
131 40 251 255 217 24 254 255
86 254 254 255 45 114 254 255
161 224 250 255 18 154 253 255
154 3 254 255 39 64 255 255
29 250 254 255 60 58 252 255
178 236 1 0 236 226 252 255
207 182 253 255 209 141 252 255
33 87 255 255 53 74 254 255
149 251 252 255 148 65 0 0
206 138 255 255 43 154 250 255
197 234 254 255 233 59 254 255
113 153 254 255 134 232 255 255
242 161 0 0 169 141 253 255
106 174 254 255 20 251 3 0
235 152 252 255 253 0 255 255
48 3 255 255 17 109 0 0
128 148 252 255 240 122 251 255
41 72 251 255 181 179 252 255
123 26 255 255 249 205 253 255
77 37 254 255 53 89 254 255
29 110 254 255 127 140 255 255
159 42 255 255 91 37 252 255
71 154 253 255 114 129 1 0
9 115 254 255 197 132 253 255
121 253 252 255 129 167 255 255
56 150 255 255 30 139 254 255
93 128 255 255 147 135 254 255
244 253 255 255 188 215 253 255
0 137 250 255 237 210 252 255
