models/persondetect/persondetect_220x220_npu64.tflite (tflite, 233296 bytes, 32 tensors)

NeutronMicrocode u1 [1096]
0	0x6e	110
1	0x4d	77
2	0x43	67
3	0x64	100
4	0x6d	109
5	0x0a	10
6	0x71	113
7	0x6f	111
8	0xf2	242
9	0x03	3
10	0x00	0
11	0x00	0
12	0x00	0
13	0x00	0
14	0x00	0
15	0x00	0
16	0xf2	242
17	0x03	3
18	0x00	0
19	0x00	0
20	0x08	8
21	0x00	0
22	0x00	0
23	0x00	0
24	0x48	72
25	0x04	4
26	0x00	0
27	0x00	0
28	0x10	16
29	0x14	20
30	0x00	0
31	0x00	0
32	0x01	1
33	0x00	0
34	0x00	0
35	0x00	0
36	0x00	0
37	0xa9	169
38	0x06	6
39	0x00	0
40	0x00	0
41	0x00	0
42	0x00	0
43	0x00	0
44	0x01	1
45	0x00	0
46	0x00	0
47	0x00	0
48	0x01	1
49	0x00	0
50	0x00	0
51	0x00	0
52	0x0a	10
53	0x00	0
54	0x00	0
55	0x00	0
56	0x5b	91
57	0x01	1
58	0x00	0
59	0x00	0
60	0x00	0
61	0x00	0
62	0x00	0
63	0x00	0
64	0x03	3
65	0x03	3
66	0x04	4
67	0x00	0
68	0x01	1
69	0x00	0
70	0x02	2
71	0x4e	78
72	0x60	96
73	0x6e	110
74	0x04	4
75	0x00	0
76	0x00	0
77	0x00	0
78	0x00	0
79	0x00	0
80	0x00	0
81	0x00	0
82	0x00	0
83	0x00	0
84	0xdc	220
85	0x00	0
86	0x00	0
87	0x00	0
88	0x94	148
89	0x02	2
90	0x00	0
91	0x00	0
92	0x98	152
93	0x02	2
94	0x00	0
95	0x00	0
96	0xf1	241
97	0xff	255
98	0xff	255
99	0xff	255
100	0x20	32
101	0x00	0
102	0x09	9
103	0x40	64
104	0x00	0
105	0x00	0
106	0x00	0
107	0x00	0
108	0x05	5
109	0x4e	78
110	0x03	3
111	0x05	5
112	0x04	4
113	0x04	4
114	0x01	1
115	0x01	1
116	0x01	1
117	0x00	0
118	0x02	2
119	0x07	7
120	0x00	0
121	0x00	0
122	0x00	0
123	0x00	0
124	0x60	96
125	0x6e	110
126	0x04	4
127	0x00	0
128	0x58	88
129	0x03	3
130	0x00	0
131	0x00	0
132	0x98	152
133	0x02	2
134	0x00	0
135	0x00	0
136	0xf8	248
137	0x02	2
138	0x00	0
139	0x00	0
140	0x01	1
141	0x00	0
142	0x00	0
143	0x00	0
144	0x6e	110
145	0x00	0
146	0x00	0
147	0x00	0
148	0x6e	110
149	0x00	0
150	0x00	0
151	0x00	0
152	0x18	24
153	0x00	0
154	0x00	0
155	0x00	0
156	0x18	24
157	0x00	0
158	0x00	0
159	0x00	0
160	0x01	1
161	0x00	0
162	0x00	0
163	0x00	0
164	0xdc	220
165	0x00	0
166	0x00	0
167	0x00	0
168	0xdc	220
169	0x00	0
170	0x00	0
171	0x00	0
172	0x03	3
173	0x00	0
174	0x00	0
175	0x00	0
176	0x03	3
177	0x00	0
178	0x00	0
179	0x00	0
180	0x03	3
181	0x00	0
182	0x00	0
183	0x00	0
184	0x02	2
185	0x00	0
186	0x00	0
187	0x00	0
188	0x02	2
189	0x00	0
190	0x00	0
191	0x00	0
192	0x01	1
193	0x00	0
194	0x00	0
195	0x00	0
196	0x01	1
197	0x00	0
198	0x00	0
199	0x00	0
200	0x00	0
201	0x00	0
202	0x00	0
203	0x00	0
204	0x00	0
205	0x00	0
206	0x00	0
207	0x00	0
208	0x01	1
209	0x00	0
210	0x00	0
211	0x00	0
212	0x08	8
213	0x02	2
214	0x00	0
215	0x01	1
216	0x20	32
217	0x00	0
218	0x0f	15
219	0x07	7
220	0x00	0
221	0x00	0
222	0x00	0
223	0x00	0
224	0x00	0
225	0x00	0
226	0x00	0
227	0x00	0
228	0x01	1
229	0x00	0
230	0x00	0
231	0x00	0
232	0x01	1
233	0x00	0
234	0x00	0
235	0x00	0
236	0xf1	241
237	0xff	255
238	0xff	255
239	0xff	255
240	0x00	0
241	0x80	128
242	0x00	0
243	0x00	0
244	0x00	0
245	0x00	0
246	0x00	0
247	0x00	0
248	0x00	0
249	0x00	0
250	0x00	0
251	0x00	0
252	0x00	0
253	0x00	0
254	0x00	0
255	0x00	0

NeutronWeights u1 [5136]
0	0x01	1
1	0x01	1
2	0x01	1
3	0x01	1
4	0x01	1
5	0x01	1
6	0x01	1
7	0x01	1
8	0x01	1
9	0x01	1
10	0x01	1
11	0x01	1
12	0x01	1
13	0x01	1
14	0x01	1
15	0x01	1
16	0x01	1
17	0x01	1
18	0x01	1
19	0x01	1
20	0x01	1
21	0x01	1
22	0x01	1
23	0x01	1
24	0x01	1
25	0x01	1
26	0x01	1
27	0x01	1
28	0x01	1
29	0x01	1
30	0x01	1
31	0x01	1
32	0x01	1
33	0x01	1
34	0x01	1
35	0x01	1
36	0x01	1
37	0x01	1
38	0x01	1
39	0x01	1
40	0x01	1
41	0x01	1
42	0x01	1
43	0x01	1
44	0x01	1
45	0x01	1
46	0x01	1
47	0x01	1
48	0x01	1
49	0x01	1
50	0x01	1
51	0x01	1
52	0x01	1
53	0x01	1
54	0x01	1
55	0x01	1
56	0x01	1
57	0x01	1
58	0x01	1
59	0x01	1
60	0x01	1
61	0x01	1
62	0x01	1
63	0x01	1
64	0x01	1
65	0x01	1
66	0x01	1
67	0x01	1
68	0x01	1
69	0x01	1
70	0x01	1
71	0x01	1
72	0x01	1
73	0x01	1
74	0x01	1
75	0x01	1
76	0x01	1
77	0x01	1
78	0x01	1
79	0x01	1
80	0x01	1
81	0x01	1
82	0x01	1
83	0x01	1
84	0x01	1
85	0x01	1
86	0x01	1
87	0x01	1
88	0x01	1
89	0x01	1
90	0x01	1
91	0x01	1
92	0x01	1
93	0x01	1
94	0x01	1
95	0x01	1
96	0x01	1
97	0x01	1
98	0x01	1
99	0x01	1
100	0x01	1
101	0x01	1
102	0x01	1
103	0x01	1
104	0x01	1
105	0x01	1
106	0x01	1
107	0x01	1
108	0x01	1
109	0x01	1
110	0x01	1
111	0x01	1
112	0x01	1
113	0x01	1
114	0x01	1
115	0x01	1
116	0x01	1
117	0x01	1
118	0x01	1
119	0x01	1
120	0x01	1
121	0x01	1
122	0x01	1
123	0x01	1
124	0x01	1
125	0x01	1
126	0x01	1
127	0x01	1
128	0x01	1
129	0x01	1
130	0x01	1
131	0x01	1
132	0x01	1
133	0x01	1
134	0x01	1
135	0x01	1
136	0x01	1
137	0x01	1
138	0x01	1
139	0x01	1
140	0x01	1
141	0x01	1
142	0x01	1
143	0x01	1
144	0x01	1
145	0x01	1
146	0x01	1
147	0x01	1
148	0x01	1
149	0x01	1
150	0x01	1
151	0x01	1
152	0x01	1
153	0x01	1
154	0x01	1
155	0x01	1
156	0x01	1
157	0x01	1
158	0x01	1
159	0x01	1
160	0x01	1
161	0x01	1
162	0x01	1
163	0x01	1
164	0x01	1
165	0x01	1
166	0x01	1
167	0x01	1
168	0x01	1
169	0x01	1
170	0x01	1
171	0x01	1
172	0x01	1
173	0x01	1
174	0x01	1
175	0x01	1
176	0x01	1
177	0x01	1
178	0x01	1
179	0x01	1
180	0x01	1
181	0x01	1
182	0x01	1
183	0x01	1
184	0x01	1
185	0x01	1
186	0x01	1
187	0x01	1
188	0x01	1
189	0x01	1
190	0x01	1
191	0x01	1
192	0x01	1
193	0x01	1
194	0x01	1
195	0x01	1
196	0x01	1
197	0x01	1
198	0x01	1
199	0x01	1
200	0x01	1
201	0x01	1
202	0x01	1
203	0x01	1
204	0x01	1
205	0x01	1
206	0x01	1
207	0x01	1
208	0x01	1
209	0x01	1
210	0x01	1
211	0x01	1
212	0x01	1
213	0x01	1
214	0x01	1
215	0x01	1
216	0x01	1
217	0x01	1
218	0x01	1
219	0x01	1
220	0x01	1
221	0x01	1
222	0x01	1
223	0x01	1
224	0x01	1
225	0x01	1
226	0x01	1
227	0x01	1
228	0x01	1
229	0x01	1
230	0x01	1
231	0x01	1
232	0x01	1
233	0x01	1
234	0x01	1
235	0x01	1
236	0x01	1
237	0x01	1
238	0x01	1
239	0x01	1
240	0x01	1
241	0x01	1
242	0x01	1
243	0x01	1
244	0x01	1
245	0x01	1
246	0x01	1
247	0x01	1
248	0x01	1
249	0x01	1
250	0x01	1
251	0x01	1
252	0x01	1
253	0x01	1
254	0x01	1
255	0x01	1

NeutronMicrocode u1 [620]
0	0x6e	110
1	0x4d	77
2	0x43	67
3	0x64	100
4	0x6d	109
5	0x0a	10
6	0x71	113
7	0x6f	111
8	0x16	22
9	0x02	2
10	0x00	0
11	0x00	0
12	0x00	0
13	0x00	0
14	0x00	0
15	0x00	0
16	0x16	22
17	0x02	2
18	0x00	0
19	0x00	0
20	0x0c	12
21	0x00	0
22	0x00	0
23	0x00	0
24	0x6c	108
25	0x02	2
26	0x00	0
27	0x00	0
28	0x60	96
29	0x08	8
30	0x00	0
31	0x00	0
32	0x01	1
33	0x00	0
34	0x00	0
35	0x00	0
36	0x00	0
37	0x93	147
38	0x00	0
39	0x00	0
40	0x00	0
41	0x00	0
42	0x00	0
43	0x00	0
44	0x02	2
45	0x00	0
46	0x00	0
47	0x00	0
48	0x01	1
49	0x00	0
50	0x00	0
51	0x00	0
52	0x05	5
53	0x00	0
54	0x00	0
55	0x00	0
56	0x47	71
57	0x02	2
58	0x00	0
59	0x00	0
60	0x00	0
61	0x00	0
62	0x00	0
63	0x00	0
64	0x03	3
65	0x05	5
66	0x05	5
67	0x00	0
68	0x02	2
69	0x02	2
70	0x02	2
71	0x00	0
72	0x02	2
73	0x27	39
74	0x80	128
75	0x49	73
76	0x00	0
77	0x00	0
78	0x00	0
79	0x00	0
80	0x00	0
81	0x00	0
82	0xc0	192
83	0x00	0
84	0x00	0
85	0x00	0
86	0x00	0
87	0x00	0
88	0x00	0
89	0x00	0
90	0x60	96
91	0x00	0
92	0x00	0
93	0x00	0
94	0x01	1
95	0x00	0
96	0x00	0
97	0x00	0
98	0x1c	28
99	0x00	0
100	0x00	0
101	0x00	0
102	0x1c	28
103	0x00	0
104	0x00	0
105	0x00	0
106	0x18	24
107	0x00	0
108	0x00	0
109	0x00	0
110	0x18	24
111	0x00	0
112	0x00	0
113	0x00	0
114	0x01	1
115	0x00	0
116	0x00	0
117	0x00	0
118	0x1c	28
119	0x00	0
120	0x00	0
121	0x00	0
122	0x1c	28
123	0x00	0
124	0x00	0
125	0x00	0
126	0x18	24
127	0x00	0
128	0x00	0
129	0x00	0
130	0x01	1
131	0x00	0
132	0x00	0
133	0x00	0
134	0x01	1
135	0x00	0
136	0x00	0
137	0x00	0
138	0x01	1
139	0x00	0
140	0x00	0
141	0x00	0
142	0x01	1
143	0x00	0
144	0x00	0
145	0x00	0
146	0x00	0
147	0x00	0
148	0x00	0
149	0x00	0
150	0x00	0
151	0x00	0
152	0x00	0
153	0x00	0
154	0x00	0
155	0x00	0
156	0x00	0
157	0x00	0
158	0x00	0
159	0x00	0
160	0x00	0
161	0x00	0
162	0x01	1
163	0x00	0
164	0x00	0
165	0x00	0
166	0x01	1
167	0x00	0
168	0x00	0
169	0x00	0
170	0x20	32
171	0x00	0
172	0x0f	15
173	0x07	7
174	0x00	0
175	0x00	0
176	0x00	0
177	0x00	0
178	0x00	0
179	0x00	0
180	0x00	0
181	0x00	0
182	0x01	1
183	0x00	0
184	0x00	0
185	0x00	0
186	0x01	1
187	0x00	0
188	0x00	0
189	0x00	0
190	0x80	128
191	0xff	255
192	0xff	255
193	0xff	255
194	0x00	0
195	0x80	128
196	0x00	0
197	0x00	0
198	0x00	0
199	0x00	0
200	0x00	0
201	0x00	0
202	0x00	0
203	0x00	0
204	0x00	0
205	0x00	0
206	0x00	0
207	0x00	0
208	0x00	0
209	0x00	0
210	0x00	0
211	0x00	0
212	0x00	0
213	0x00	0
214	0x05	5
215	0x27	39
216	0x03	3
217	0x05	5
218	0x05	5
219	0x05	5
220	0x02	2
221	0x02	2
222	0x02	2
223	0x00	0
224	0x02	2
225	0x1b	27
226	0x00	0
227	0x00	0
228	0x00	0
229	0x00	0
230	0x80	128
231	0x49	73
232	0x00	0
233	0x00	0
234	0x80	128
235	0x04	4
236	0x00	0
237	0x00	0
238	0x00	0
239	0x03	3
240	0x00	0
241	0x00	0
242	0x20	32
243	0x04	4
244	0x00	0
245	0x00	0
246	0x01	1
247	0x00	0
248	0x00	0
249	0x00	0
250	0x1c	28
251	0x00	0
252	0x00	0
253	0x00	0
254	0x1c	28
255	0x00	0

NeutronWeights u1 [2144]
0	0x1a	26
1	0xbc	188
2	0x00	0
3	0x00	0
4	0xf1	241
5	0x86	134
6	0xff	255
7	0xff	255
8	0xe0	224
9	0xf7	247
10	0xff	255
11	0xff	255
12	0xb9	185
13	0x85	133
14	0xff	255
15	0xff	255
16	0xdc	220
17	0xe0	224
18	0xff	255
19	0xff	255
20	0xad	173
21	0x3a	58
22	0x00	0
23	0x00	0
24	0xa1	161
25	0xaf	175
26	0xff	255
27	0xff	255
28	0xaf	175
29	0xd0	208
30	0xff	255
31	0xff	255
32	0xbf	191
33	0x94	148
34	0x00	0
35	0x00	0
36	0x4c	76
37	0x6e	110
38	0xff	255
39	0xff	255
40	0xb4	180
41	0xc4	196
42	0xff	255
43	0xff	255
44	0xe9	233
45	0x04	4
46	0x00	0
47	0x00	0
48	0x37	55
49	0xa0	160
50	0xff	255
51	0xff	255
52	0xed	237
53	0x53	83
54	0x00	0
55	0x00	0
56	0x32	50
57	0x11	17
58	0x00	0
59	0x00	0
60	0x48	72
61	0x90	144
62	0xff	255
63	0xff	255
64	0xfb	251
65	0xcc	204
66	0xff	255
67	0xff	255
68	0x1b	27
69	0xb7	183
70	0xff	255
71	0xff	255
72	0x70	112
73	0xf3	243
74	0xff	255
75	0xff	255
76	0xf9	249
77	0x45	69
78	0x00	0
79	0x00	0
80	0x88	136
81	0xf1	241
82	0xff	255
83	0xff	255
84	0x2f	47
85	0xfc	252
86	0xfe	254
87	0xff	255
88	0x99	153
89	0x99	153
90	0xff	255
91	0xff	255
92	0x89	137
93	0xbc	188
94	0xff	255
95	0xff	255
96	0xf9	249
97	0x85	133
98	0x18	24
99	0x00	0
100	0xb3	179
101	0xd8	216
102	0x17	23
103	0x00	0
104	0x87	135
105	0x18	24
106	0x15	21
107	0x00	0
108	0x5b	91
109	0x25	37
110	0x16	22
111	0x00	0
112	0x45	69
113	0xc5	197
114	0x17	23
115	0x00	0
116	0x05	5
117	0x82	130
118	0x17	23
119	0x00	0
120	0x4d	77
121	0x71	113
122	0x17	23
123	0x00	0
124	0xdf	223
125	0xa6	166
126	0x17	23
127	0x00	0
128	0x2b	43
129	0xc1	193
130	0x18	24
131	0x00	0
132	0xc1	193
133	0x0c	12
134	0x14	20
135	0x00	0
136	0x75	117
137	0xe8	232
138	0x19	25
139	0x00	0
140	0xa9	169
141	0x33	51
142	0x16	22
143	0x00	0
144	0x43	67
145	0x54	84
146	0x16	22
147	0x00	0
148	0x6b	107
149	0xb8	184
150	0x17	23
151	0x00	0
152	0xe5	229
153	0x1b	27
154	0x15	21
155	0x00	0
156	0xaf	175
157	0x77	119
158	0x17	23
159	0x00	0
160	0x55	85
161	0x4a	74
162	0x16	22
163	0x00	0
164	0x43	67
165	0x6e	110
166	0x17	23
167	0x00	0
168	0x51	81
169	0x52	82
170	0x16	22
171	0x00	0
172	0xd7	215
173	0x75	117
174	0x18	24
175	0x00	0
176	0x2f	47
177	0x04	4
178	0x13	19
179	0x00	0
180	0x0b	11
181	0x67	103
182	0x17	23
183	0x00	0
184	0x19	25
185	0x5d	93
186	0x16	22
187	0x00	0
188	0x19	25
189	0x88	136
190	0x16	22
191	0x00	0
192	0x29	41
193	0x17	23
194	0xff	255
195	0x06	6
196	0x21	33
197	0x10	16
198	0x04	4
199	0x06	6
200	0xf2	242
201	0xec	236
202	0xc5	197
203	0x15	21
204	0xc5	197
205	0x08	8
206	0x81	129
207	0xe7	231
208	0x6a	106
209	0x09	9
210	0x01	1
211	0xf6	246
212	0x25	37
213	0xfc	252
214	0xe5	229
215	0x81	129
216	0xe8	232
217	0xd2	210
218	0x11	17
219	0x41	65
220	0xe6	230
221	0xf9	249
222	0xf9	249
223	0xe8	232
224	0x03	3
225	0x81	129
226	0xf2	242
227	0xcd	205
228	0x03	3
229	0x16	22
230	0x0d	13
231	0x2e	46
232	0xae	174
233	0x0a	10
234	0x0d	13
235	0x0c	12
236	0x08	8
237	0xee	238
238	0x1c	28
239	0x7f	127
240	0x0e	14
241	0x11	17
242	0x1c	28
243	0xd1	209
244	0x0a	10
245	0x47	71
246	0xee	238
247	0x0e	14
248	0xc4	196
249	0xf1	241
250	0x35	53
251	0x0f	15
252	0x19	25
253	0xce	206
254	0xf4	244
255	0x08	8

NeutronMicrocode u1 [620]
0	0x6e	110
1	0x4d	77
2	0x43	67
3	0x64	100
4	0x6d	109
5	0x0a	10
6	0x71	113
7	0x6f	111
8	0x16	22
9	0x02	2
10	0x00	0
11	0x00	0
12	0x00	0
13	0x00	0
14	0x00	0
15	0x00	0
16	0x16	22
17	0x02	2
18	0x00	0
19	0x00	0
20	0x0c	12
21	0x00	0
22	0x00	0
23	0x00	0
24	0x6c	108
25	0x02	2
26	0x00	0
27	0x00	0
28	0x60	96
29	0x08	8
30	0x00	0
31	0x00	0
32	0x01	1
33	0x00	0
34	0x00	0
35	0x00	0
36	0x00	0
37	0x93	147
38	0x00	0
39	0x00	0
40	0x00	0
41	0x00	0
42	0x00	0
43	0x00	0
44	0x02	2
45	0x00	0
46	0x00	0
47	0x00	0
48	0x01	1
49	0x00	0
50	0x00	0
51	0x00	0
52	0x05	5
53	0x00	0
54	0x00	0
55	0x00	0
56	0x33	51
57	0x03	3
58	0x00	0
59	0x00	0
60	0x00	0
61	0x00	0
62	0x00	0
63	0x00	0
64	0x03	3
65	0x05	5
66	0x05	5
67	0x00	0
68	0x02	2
69	0x02	2
70	0x02	2
71	0x00	0
72	0x02	2
73	0x27	39
74	0x80	128
75	0x49	73
76	0x00	0
77	0x00	0
78	0x00	0
79	0x00	0
80	0x00	0
81	0x00	0
82	0xc0	192
83	0x00	0
84	0x00	0
85	0x00	0
86	0x00	0
87	0x00	0
88	0x00	0
89	0x00	0
90	0x60	96
91	0x00	0
92	0x00	0
93	0x00	0
94	0x01	1
95	0x00	0
96	0x00	0
97	0x00	0
98	0x1c	28
99	0x00	0
100	0x00	0
101	0x00	0
102	0x1c	28
103	0x00	0
104	0x00	0
105	0x00	0
106	0x18	24
107	0x00	0
108	0x00	0
109	0x00	0
110	0x18	24
111	0x00	0
112	0x00	0
113	0x00	0
114	0x01	1
115	0x00	0
116	0x00	0
117	0x00	0
118	0x1c	28
119	0x00	0
120	0x00	0
121	0x00	0
122	0x1c	28
123	0x00	0
124	0x00	0
125	0x00	0
126	0x18	24
127	0x00	0
128	0x00	0
129	0x00	0
130	0x01	1
131	0x00	0
132	0x00	0
133	0x00	0
134	0x01	1
135	0x00	0
136	0x00	0
137	0x00	0
138	0x01	1
139	0x00	0
140	0x00	0
141	0x00	0
142	0x01	1
143	0x00	0
144	0x00	0
145	0x00	0
146	0x00	0
147	0x00	0
148	0x00	0
149	0x00	0
150	0x00	0
151	0x00	0
152	0x00	0
153	0x00	0
154	0x00	0
155	0x00	0
156	0x00	0
157	0x00	0
158	0x00	0
159	0x00	0
160	0x00	0
161	0x00	0
162	0x01	1
163	0x00	0
164	0x00	0
165	0x00	0
166	0x01	1
167	0x00	0
168	0x00	0
169	0x00	0
170	0x20	32
171	0x00	0
172	0x0f	15
173	0x07	7
174	0x00	0
175	0x00	0
176	0x00	0
177	0x00	0
178	0x00	0
179	0x00	0
180	0x00	0
181	0x00	0
182	0x01	1
183	0x00	0
184	0x00	0
185	0x00	0
186	0x01	1
187	0x00	0
188	0x00	0
189	0x00	0
190	0x80	128
191	0xff	255
192	0xff	255
193	0xff	255
194	0x00	0
195	0x80	128
196	0x00	0
197	0x00	0
198	0x00	0
199	0x00	0
200	0x00	0
201	0x00	0
202	0x00	0
203	0x00	0
204	0x00	0
205	0x00	0
206	0x00	0
207	0x00	0
208	0x00	0
209	0x00	0
210	0x00	0
211	0x00	0
212	0x00	0
213	0x00	0
214	0x05	5
215	0x27	39
216	0x03	3
217	0x05	5
218	0x05	5
219	0x05	5
220	0x02	2
221	0x02	2
222	0x02	2
223	0x00	0
224	0x02	2
225	0x1b	27
226	0x00	0
227	0x00	0
228	0x00	0
229	0x00	0
230	0x80	128
231	0x49	73
232	0x00	0
233	0x00	0
234	0x80	128
235	0x04	4
236	0x00	0
237	0x00	0
238	0x00	0
239	0x03	3
240	0x00	0
241	0x00	0
242	0x20	32
243	0x04	4
244	0x00	0
245	0x00	0
246	0x01	1
247	0x00	0
248	0x00	0
249	0x00	0
250	0x1c	28
251	0x00	0
252	0x00	0
253	0x00	0
254	0x1c	28
255	0x00	0

NeutronWeights u1 [2144]
0	0x58	88
1	0x63	99
2	0x01	1
3	0x00	0
4	0xd2	210
5	0xdc	220
6	0xff	255
7	0xff	255
8	0x75	117
9	0x00	0
10	0x00	0
11	0x00	0
12	0xdd	221
13	0x08	8
14	0x00	0
15	0x00	0
16	0x24	36
17	0x05	5
18	0x00	0
19	0x00	0
20	0x76	118
21	0xe6	230
22	0xff	255
23	0xff	255
24	0x53	83
25	0xe3	227
26	0xff	255
27	0xff	255
28	0xb4	180
29	0xd7	215
30	0xff	255
31	0xff	255
32	0x0a	10
33	0x5e	94
34	0x00	0
35	0x00	0
36	0x16	22
37	0x22	34
38	0x00	0
39	0x00	0
40	0x3e	62
41	0x39	57
42	0x00	0
43	0x00	0
44	0x98	152
45	0x25	37
46	0xff	255
47	0xff	255
48	0x8f	143
49	0x0b	11
50	0x00	0
51	0x00	0
52	0x19	25
53	0x86	134
54	0x00	0
55	0x00	0
56	0x21	33
57	0x45	69
58	0x00	0
59	0x00	0
60	0xa1	161
61	0x0d	13
62	0x00	0
63	0x00	0
64	0xab	171
65	0xfa	250
66	0xff	255
67	0xff	255
68	0xae	174
69	0xaf	175
70	0xff	255
71	0xff	255
72	0x7f	127
73	0xb7	183
74	0xff	255
75	0xff	255
76	0xd4	212
77	0x5d	93
78	0x00	0
79	0x00	0
80	0x2f	47
81	0xa9	169
82	0xff	255
83	0xff	255
84	0xe8	232
85	0xe3	227
86	0xff	255
87	0xff	255
88	0x94	148
89	0x1d	29
90	0x00	0
91	0x00	0
92	0x00	0
93	0xe4	228
94	0xff	255
95	0xff	255
96	0x93	147
97	0xdc	220
98	0x18	24
99	0x00	0
100	0xed	237
101	0x7e	126
102	0x17	23
103	0x00	0
104	0xb5	181
105	0x77	119
106	0x16	22
107	0x00	0
108	0x5f	95
109	0x9a	154
110	0x18	24
111	0x00	0
112	0x67	103
113	0x28	40
114	0x16	22
115	0x00	0
116	0xab	171
117	0xa6	166
118	0x17	23
119	0x00	0
120	0x1b	27
121	0xc3	195
122	0x18	24
123	0x00	0
124	0x9b	155
125	0x8f	143
126	0x17	23
127	0x00	0
128	0x1f	31
129	0xf2	242
130	0x17	23
131	0x00	0
132	0x13	19
133	0x2a	42
134	0x16	22
135	0x00	0
136	0x51	81
137	0xf7	247
138	0x17	23
139	0x00	0
140	0x75	117
141	0x36	54
142	0x15	21
143	0x00	0
144	0x17	23
145	0xb4	180
146	0x17	23
147	0x00	0
148	0x5b	91
149	0x84	132
150	0x18	24
151	0x00	0
152	0x6b	107
153	0x40	64
154	0x16	22
155	0x00	0
156	0xf5	245
157	0x02	2
158	0x12	18
159	0x00	0
160	0xcd	205
161	0x8c	140
162	0x18	24
163	0x00	0
164	0x45	69
165	0x46	70
166	0x15	21
167	0x00	0
168	0xa7	167
169	0x57	87
170	0x17	23
171	0x00	0
172	0x1f	31
173	0x62	98
174	0x17	23
175	0x00	0
176	0x45	69
177	0x87	135
178	0x17	23
179	0x00	0
180	0x19	25
181	0x97	151
182	0x17	23
183	0x00	0
184	0x4b	75
185	0x08	8
186	0x14	20
187	0x00	0
188	0x0f	15
189	0x4c	76
190	0x17	23
191	0x00	0
192	0xef	239
193	0x4b	75
194	0x7f	127
195	0x46	70
196	0x27	39
197	0x27	39
198	0x0b	11
199	0x1e	30
200	0x26	38
201	0x81	129
202	0x43	67
203	0x0d	13
204	0xc1	193
205	0x0c	12
206	0x9f	159
207	0x2d	45
208	0xff	255
209	0xf8	248
210	0xec	236
211	0xf1	241
212	0x16	22
213	0x06	6
214	0x7f	127
215	0xc8	200
216	0xe3	227
217	0x08	8
218	0x03	3
219	0xf0	240
220	0xf4	244
221	0xfa	250
222	0x1e	30
223	0xde	222
224	0xe4	228
225	0xf4	244
226	0xea	234
227	0x03	3
228	0xcc	204
229	0xfb	251
230	0x0e	14
231	0x10	16
232	0xf6	246
233	0xe7	231
234	0x0c	12
235	0xf5	245
236	0x02	2
237	0xe3	227
238	0x05	5
239	0x7f	127
240	0xf8	248
241	0xfa	250
242	0x1e	30
243	0x16	22
244	0xe6	230
245	0x08	8
246	0xe4	228
247	0xf1	241
248	0x13	19
249	0x10	16
250	0xfd	253
251	0xfb	251
252	0xe2	226
253	0x0b	11
254	0xf3	243
255	0x01	1

NeutronMicrocode u1 [1552]
0	0x6e	110
1	0x4d	77
2	0x43	67
3	0x64	100
4	0x6d	109
5	0x0a	10
6	0x71	113
7	0x6f	111
8	0xc0	192
9	0x05	5
10	0x00	0
11	0x00	0
12	0x00	0
13	0x00	0
14	0x00	0
15	0x00	0
16	0xc0	192
17	0x05	5
18	0x00	0
19	0x00	0
20	0x10	16
21	0x00	0
22	0x00	0
23	0x00	0
24	0x10	16
25	0x06	6
26	0x00	0
27	0x00	0
28	0x70	112
29	0x31	49
30	0x00	0
31	0x00	0
32	0x01	1
33	0x00	0
34	0x00	0
35	0x00	0
36	0x80	128
37	0x6f	111
38	0x01	1
39	0x00	0
40	0x00	0
41	0x00	0
42	0x00	0
43	0x00	0
44	0x02	2
45	0x00	0
46	0x00	0
47	0x00	0
48	0x02	2
49	0x00	0
50	0x00	0
51	0x00	0
52	0x0e	14
53	0x00	0
54	0x00	0
55	0x00	0
56	0x9e	158
57	0x04	4
58	0x00	0
59	0x00	0
60	0x00	0
61	0x00	0
62	0x00	0
63	0x00	0
64	0x03	3
65	0x05	5
66	0x06	6
67	0x00	0
68	0x02	2
69	0x02	2
70	0x02	2
71	0x00	0
72	0x02	2
73	0x27	39
74	0x80	128
75	0x49	73
76	0x00	0
77	0x00	0
78	0x00	0
79	0x00	0
80	0x00	0
81	0x00	0
82	0xc0	192
83	0x00	0
84	0x00	0
85	0x00	0
86	0x00	0
87	0x00	0
88	0x00	0
89	0x00	0
90	0x60	96
91	0x00	0
92	0x00	0
93	0x00	0
94	0x01	1
95	0x00	0
96	0x00	0
97	0x00	0
98	0x1c	28
99	0x00	0
100	0x00	0
101	0x00	0
102	0x1c	28
103	0x00	0
104	0x00	0
105	0x00	0
106	0x18	24
107	0x00	0
108	0x00	0
109	0x00	0
110	0x18	24
111	0x00	0
112	0x00	0
113	0x00	0
114	0x01	1
115	0x00	0
116	0x00	0
117	0x00	0
118	0x1c	28
119	0x00	0
120	0x00	0
121	0x00	0
122	0x1c	28
123	0x00	0
124	0x00	0
125	0x00	0
126	0x18	24
127	0x00	0
128	0x00	0
129	0x00	0
130	0x01	1
131	0x00	0
132	0x00	0
133	0x00	0
134	0x01	1
135	0x00	0
136	0x00	0
137	0x00	0
138	0x01	1
139	0x00	0
140	0x00	0
141	0x00	0
142	0x01	1
143	0x00	0
144	0x00	0
145	0x00	0
146	0x00	0
147	0x00	0
148	0x00	0
149	0x00	0
150	0x00	0
151	0x00	0
152	0x00	0
153	0x00	0
154	0x00	0
155	0x00	0
156	0x00	0
157	0x00	0
158	0x00	0
159	0x00	0
160	0x00	0
161	0x00	0
162	0x01	1
163	0x00	0
164	0x00	0
165	0x00	0
166	0x01	1
167	0x00	0
168	0x00	0
169	0x00	0
170	0x20	32
171	0x00	0
172	0x0f	15
173	0x07	7
174	0x00	0
175	0x00	0
176	0x00	0
177	0x00	0
178	0x00	0
179	0x00	0
180	0x00	0
181	0x00	0
182	0x01	1
183	0x00	0
184	0x00	0
185	0x00	0
186	0x01	1
187	0x00	0
188	0x00	0
189	0x00	0
190	0x80	128
191	0xff	255
192	0xff	255
193	0xff	255
194	0x00	0
195	0x80	128
196	0x00	0
197	0x00	0
198	0x00	0
199	0x00	0
200	0x00	0
201	0x00	0
202	0x00	0
203	0x00	0
204	0x00	0
205	0x00	0
206	0x00	0
207	0x00	0
208	0x00	0
209	0x00	0
210	0x00	0
211	0x00	0
212	0x00	0
213	0x00	0
214	0x05	5
215	0x27	39
216	0x03	3
217	0x05	5
218	0x06	6
219	0x06	6
220	0x02	2
221	0x02	2
222	0x02	2
223	0x00	0
224	0x02	2
225	0x1b	27
226	0x00	0
227	0x00	0
228	0x00	0
229	0x00	0
230	0x80	128
231	0x49	73
232	0x00	0
233	0x00	0
234	0x80	128
235	0x04	4
236	0x00	0
237	0x00	0
238	0x00	0
239	0x03	3
240	0x00	0
241	0x00	0
242	0x20	32
243	0x04	4
244	0x00	0
245	0x00	0
246	0x01	1
247	0x00	0
248	0x00	0
249	0x00	0
250	0x1c	28
251	0x00	0
252	0x00	0
253	0x00	0
254	0x1c	28
255	0x00	0

NeutronWeights u1 [12656]
0	0x82	130
1	0x53	83
2	0xff	255
3	0xff	255
4	0xdf	223
5	0xcc	204
6	0xff	255
7	0xff	255
8	0x0b	11
9	0x22	34
10	0x00	0
11	0x00	0
12	0x7c	124
13	0xde	222
14	0xff	255
15	0xff	255
16	0xde	222
17	0x58	88
18	0x00	0
19	0x00	0
20	0x3c	60
21	0x06	6
22	0x00	0
23	0x00	0
24	0x46	70
25	0xb0	176
26	0x00	0
27	0x00	0
28	0x9d	157
29	0x1a	26
30	0x00	0
31	0x00	0
32	0x48	72
33	0x8d	141
34	0xff	255
35	0xff	255
36	0x0a	10
37	0xf5	245
38	0xff	255
39	0xff	255
40	0x8e	142
41	0xa9	169
42	0xff	255
43	0xff	255
44	0xf4	244
45	0xba	186
46	0xff	255
47	0xff	255
48	0x46	70
49	0xa7	167
50	0xff	255
51	0xff	255
52	0x27	39
53	0x4a	74
54	0x00	0
55	0x00	0
56	0x00	0
57	0xfa	250
58	0xfe	254
59	0xff	255
60	0xd5	213
61	0x22	34
62	0x00	0
63	0x00	0
64	0x72	114
65	0x82	130
66	0x00	0
67	0x00	0
68	0xbb	187
69	0x67	103
70	0x00	0
71	0x00	0
72	0x1d	29
73	0x50	80
74	0x00	0
75	0x00	0
76	0x21	33
77	0xcf	207
78	0xff	255
79	0xff	255
80	0x10	16
81	0x66	102
82	0xff	255
83	0xff	255
84	0x74	116
85	0xdf	223
86	0xff	255
87	0xff	255
88	0x78	120
89	0xba	186
90	0xff	255
91	0xff	255
92	0xf4	244
93	0x64	100
94	0x00	0
95	0x00	0
96	0x51	81
97	0x00	0
98	0x10	16
99	0x00	0
100	0xb7	183
101	0x6d	109
102	0x16	22
103	0x00	0
104	0xb5	181
105	0xe6	230
106	0x18	24
107	0x00	0
108	0xb9	185
109	0x73	115
110	0x18	24
111	0x00	0
112	0x9f	159
113	0x08	8
114	0x14	20
115	0x00	0
116	0xdf	223
117	0x27	39
118	0x16	22
119	0x00	0
120	0x85	133
121	0xa7	167
122	0x18	24
123	0x00	0
124	0x55	85
125	0x6d	109
126	0x17	23
127	0x00	0
128	0x73	115
129	0x54	84
130	0x17	23
131	0x00	0
132	0xe5	229
133	0xc6	198
134	0x19	25
135	0x00	0
136	0xa7	167
137	0x09	9
138	0x14	20
139	0x00	0
140	0xb5	181
141	0x84	132
142	0x18	24
143	0x00	0
144	0x67	103
145	0x58	88
146	0x17	23
147	0x00	0
148	0x25	37
149	0x38	56
150	0x17	23
151	0x00	0
152	0x51	81
153	0x03	3
154	0x13	19
155	0x00	0
156	0x2d	45
157	0x0d	13
158	0x14	20
159	0x00	0
160	0x69	105
161	0x13	19
162	0x14	20
163	0x00	0
164	0xb9	185
165	0x47	71
166	0x16	22
167	0x00	0
168	0xf9	249
169	0xd0	208
170	0x19	25
171	0x00	0
172	0x6d	109
173	0xbb	187
174	0x18	24
175	0x00	0
176	0x1f	31
177	0x22	34
178	0x16	22
179	0x00	0
180	0x87	135
181	0xe1	225
182	0x19	25
183	0x00	0
184	0x27	39
185	0x50	80
186	0x17	23
187	0x00	0
188	0x2d	45
189	0xb6	182
190	0x18	24
191	0x00	0
192	0x13	19
193	0x9a	154
194	0x16	22
195	0xc5	197
196	0xe0	224
197	0x7f	127
198	0x0e	14
199	0xf5	245
200	0x81	129
201	0x04	4
202	0xfa	250
203	0xff	255
204	0x02	2
205	0x0a	10
206	0xf1	241
207	0xff	255
208	0x7f	127
209	0x07	7
210	0x0c	12
211	0xfd	253
212	0xfb	251
213	0x02	2
214	0xf7	247
215	0x07	7
216	0x04	4
217	0x58	88
218	0x47	71
219	0x43	67
220	0x5d	93
221	0x81	129
222	0x55	85
223	0x24	36
224	0x0b	11
225	0x06	6
226	0x05	5
227	0xe6	230
228	0xd3	211
229	0x37	55
230	0xf2	242
231	0xfb	251
232	0x03	3
233	0xb2	178
234	0xd7	215
235	0xe2	226
236	0xe0	224
237	0x66	102
238	0xe6	230
239	0xeb	235
240	0xfc	252
241	0xd1	209
242	0x4c	76
243	0x03	3
244	0xee	238
245	0x1c	28
246	0x7f	127
247	0x1d	29
248	0x02	2
249	0xfb	251
250	0xfc	252
251	0x7f	127
252	0xb2	178
253	0x17	23
254	0xf4	244
255	0x06	6

NeutronMicrocode u1 [620]
0	0x6e	110
1	0x4d	77
2	0x43	67
3	0x64	100
4	0x6d	109
5	0x0a	10
6	0x71	113
7	0x6f	111
8	0x16	22
9	0x02	2
10	0x00	0
11	0x00	0
12	0x00	0
13	0x00	0
14	0x00	0
15	0x00	0
16	0x16	22
17	0x02	2
18	0x00	0
19	0x00	0
20	0x0c	12
21	0x00	0
22	0x00	0
23	0x00	0
24	0x6c	108
25	0x02	2
26	0x00	0
27	0x00	0
28	0xb8	184
29	0x19	25
30	0x00	0
31	0x00	0
32	0x01	1
33	0x00	0
34	0x00	0
35	0x00	0
36	0x80	128
37	0x49	73
38	0x00	0
39	0x00	0
40	0x00	0
41	0x00	0
42	0x00	0
43	0x00	0
44	0x02	2
45	0x00	0
46	0x00	0
47	0x00	0
48	0x01	1
49	0x00	0
50	0x00	0
51	0x00	0
52	0x05	5
53	0x00	0
54	0x00	0
55	0x00	0
56	0x00	0
57	0x05	5
58	0x00	0
59	0x00	0
60	0x00	0
61	0x00	0
62	0x00	0
63	0x00	0
64	0x03	3
65	0x05	5
66	0x05	5
67	0x00	0
68	0x02	2
69	0x02	2
70	0x02	2
71	0x00	0
72	0x02	2
73	0x27	39
74	0xc0	192
75	0x24	36
76	0x00	0
77	0x00	0
78	0x00	0
79	0x00	0
80	0x00	0
81	0x00	0
82	0x80	128
83	0x01	1
84	0x00	0
85	0x00	0
86	0x00	0
87	0x00	0
88	0x00	0
89	0x00	0
90	0xc0	192
91	0x00	0
92	0x00	0
93	0x00	0
94	0x01	1
95	0x00	0
96	0x00	0
97	0x00	0
98	0x0e	14
99	0x00	0
100	0x00	0
101	0x00	0
102	0x0e	14
103	0x00	0
104	0x00	0
105	0x00	0
106	0x30	48
107	0x00	0
108	0x00	0
109	0x00	0
110	0x30	48
111	0x00	0
112	0x00	0
113	0x00	0
114	0x01	1
115	0x00	0
116	0x00	0
117	0x00	0
118	0x0e	14
119	0x00	0
120	0x00	0
121	0x00	0
122	0x0e	14
123	0x00	0
124	0x00	0
125	0x00	0
126	0x30	48
127	0x00	0
128	0x00	0
129	0x00	0
130	0x01	1
131	0x00	0
132	0x00	0
133	0x00	0
134	0x01	1
135	0x00	0
136	0x00	0
137	0x00	0
138	0x01	1
139	0x00	0
140	0x00	0
141	0x00	0
142	0x01	1
143	0x00	0
144	0x00	0
145	0x00	0
146	0x00	0
147	0x00	0
148	0x00	0
149	0x00	0
150	0x00	0
151	0x00	0
152	0x00	0
153	0x00	0
154	0x00	0
155	0x00	0
156	0x00	0
157	0x00	0
158	0x00	0
159	0x00	0
160	0x00	0
161	0x00	0
162	0x01	1
163	0x00	0
164	0x00	0
165	0x00	0
166	0x01	1
167	0x00	0
168	0x00	0
169	0x00	0
170	0x20	32
171	0x00	0
172	0x0f	15
173	0x07	7
174	0x00	0
175	0x00	0
176	0x00	0
177	0x00	0
178	0x00	0
179	0x00	0
180	0x00	0
181	0x00	0
182	0x01	1
183	0x00	0
184	0x00	0
185	0x00	0
186	0x01	1
187	0x00	0
188	0x00	0
189	0x00	0
190	0x80	128
191	0xff	255
192	0xff	255
193	0xff	255
194	0x00	0
195	0x80	128
196	0x00	0
197	0x00	0
198	0x00	0
199	0x00	0
200	0x00	0
201	0x00	0
202	0x00	0
203	0x00	0
204	0x00	0
205	0x00	0
206	0x00	0
207	0x00	0
208	0x00	0
209	0x00	0
210	0x00	0
211	0x00	0
212	0x00	0
213	0x00	0
214	0x05	5
215	0x27	39
216	0x03	3
217	0x05	5
218	0x05	5
219	0x05	5
220	0x02	2
221	0x02	2
222	0x02	2
223	0x00	0
224	0x02	2
225	0x1b	27
226	0x00	0
227	0x00	0
228	0x00	0
229	0x00	0
230	0xc0	192
231	0x24	36
232	0x00	0
233	0x00	0
234	0x80	128
235	0x0d	13
236	0x00	0
237	0x00	0
238	0x80	128
239	0x0a	10
240	0x00	0
241	0x00	0
242	0xc0	192
243	0x0c	12
244	0x00	0
245	0x00	0
246	0x01	1
247	0x00	0
248	0x00	0
249	0x00	0
250	0x0e	14
251	0x00	0
252	0x00	0
253	0x00	0
254	0x0e	14
255	0x00	0

NeutronWeights u1 [6584]
0	0x80	128
1	0x21	33
2	0x00	0
3	0x00	0
4	0x58	88
5	0x84	132
6	0x00	0
7	0x00	0
8	0x5a	90
9	0x83	131
10	0x00	0
11	0x00	0
12	0x33	51
13	0xb7	183
14	0x00	0
15	0x00	0
16	0x67	103
17	0x93	147
18	0xff	255
19	0xff	255
20	0xce	206
21	0x9f	159
22	0xff	255
23	0xff	255
24	0x58	88
25	0x65	101
26	0xff	255
27	0xff	255
28	0x33	51
29	0x18	24
30	0xff	255
31	0xff	255
32	0x0b	11
33	0x0b	11
34	0x00	0
35	0x00	0
36	0xb9	185
37	0x70	112
38	0xff	255
39	0xff	255
40	0x65	101
41	0x46	70
42	0x00	0
43	0x00	0
44	0x3b	59
45	0xf7	247
46	0x00	0
47	0x00	0
48	0x61	97
49	0x51	81
50	0xff	255
51	0xff	255
52	0xd7	215
53	0x60	96
54	0xff	255
55	0xff	255
56	0xf7	247
57	0xb9	185
58	0xff	255
59	0xff	255
60	0xdd	221
61	0xc9	201
62	0xff	255
63	0xff	255
64	0xd0	208
65	0x36	54
66	0x01	1
67	0x00	0
68	0xb9	185
69	0xe1	225
70	0x00	0
71	0x00	0
72	0xfb	251
73	0x80	128
74	0xff	255
75	0xff	255
76	0xdf	223
77	0x65	101
78	0xff	255
79	0xff	255
80	0xa0	160
81	0x41	65
82	0xff	255
83	0xff	255
84	0x8e	142
85	0x06	6
86	0x00	0
87	0x00	0
88	0x36	54
89	0x02	2
90	0x00	0
91	0x00	0
92	0xbb	187
93	0xad	173
94	0x01	1
95	0x00	0
96	0x79	121
97	0x2d	45
98	0xfd	253
99	0xff	255
100	0xfd	253
101	0x5f	95
102	0xff	255
103	0xff	255
104	0x06	6
105	0x09	9
106	0xff	255
107	0xff	255
108	0xad	173
109	0xd5	213
110	0xff	255
111	0xff	255
112	0x89	137
113	0x16	22
114	0x00	0
115	0x00	0
116	0x1c	28
117	0x0b	11
118	0x00	0
119	0x00	0
120	0x39	57
121	0x2b	43
122	0x01	1
123	0x00	0
124	0x53	83
125	0xdf	223
126	0xfe	254
127	0xff	255
128	0x55	85
129	0xb3	179
130	0xfe	254
131	0xff	255
132	0xf8	248
133	0xf3	243
134	0x00	0
135	0x00	0
136	0x0e	14
137	0x28	40
138	0x00	0
139	0x00	0
140	0xf6	246
141	0xbc	188
142	0xff	255
143	0xff	255
144	0x81	129
145	0x82	130
146	0x00	0
147	0x00	0
148	0x48	72
149	0x92	146
150	0xff	255
151	0xff	255
152	0xbe	190
153	0xc9	201
154	0x00	0
155	0x00	0
156	0x32	50
157	0x69	105
158	0x01	1
159	0x00	0
160	0xfc	252
161	0x25	37
162	0x00	0
163	0x00	0
164	0xba	186
165	0x19	25
166	0xff	255
167	0xff	255
168	0x2f	47
169	0xe5	229
170	0x01	1
171	0x00	0
172	0xe5	229
173	0x4f	79
174	0x00	0
175	0x00	0
176	0xc8	200
177	0xbb	187
178	0x00	0
179	0x00	0
180	0x05	5
181	0xbd	189
182	0xff	255
183	0xff	255
184	0x5d	93
185	0x63	99
186	0xfe	254
187	0xff	255
188	0xd7	215
189	0x33	51
190	0xff	255
191	0xff	255
192	0x8b	139
193	0x32	50
194	0x16	22
195	0x00	0
196	0x93	147
197	0x51	81
198	0x17	23
199	0x00	0
200	0xbd	189
201	0x89	137
202	0x17	23
203	0x00	0
204	0x9d	157
205	0x05	5
206	0x13	19
207	0x00	0
208	0x93	147
209	0x20	32
210	0x15	21
211	0x00	0
212	0x91	145
213	0x62	98
214	0x16	22
215	0x00	0
216	0x85	133
217	0x7d	125
218	0x17	23
219	0x00	0
220	0x0d	13
221	0xc1	193
222	0x18	24
223	0x00	0
224	0xcd	205
225	0x9c	156
226	0x18	24
227	0x00	0
228	0x43	67
229	0xbc	188
230	0x17	23
231	0x00	0
232	0x99	153
233	0xbd	189
234	0x17	23
235	0x00	0
236	0x2d	45
237	0x5d	93
238	0x17	23
239	0x00	0
240	0x3b	59
241	0x6f	111
242	0x16	22
243	0x00	0
244	0xef	239
245	0x46	70
246	0x16	22
247	0x00	0
248	0x9f	159
249	0xc5	197
250	0x18	24
251	0x00	0
252	0x15	21
253	0x9b	155
254	0x17	23
255	0x00	0

NeutronMicrocode u1 [620]
0	0x6e	110
1	0x4d	77
2	0x43	67
3	0x64	100
4	0x6d	109
5	0x0a	10
6	0x71	113
7	0x6f	111
8	0x16	22
9	0x02	2
10	0x00	0
11	0x00	0
12	0x00	0
13	0x00	0
14	0x00	0
15	0x00	0
16	0x16	22
17	0x02	2
18	0x00	0
19	0x00	0
20	0x0c	12
21	0x00	0
22	0x00	0
23	0x00	0
24	0x6c	108
25	0x02	2
26	0x00	0
27	0x00	0
28	0xb8	184
29	0x19	25
30	0x00	0
31	0x00	0
32	0x01	1
33	0x00	0
34	0x00	0
35	0x00	0
36	0x80	128
37	0x49	73
38	0x00	0
39	0x00	0
40	0x00	0
41	0x00	0
42	0x00	0
43	0x00	0
44	0x02	2
45	0x00	0
46	0x00	0
47	0x00	0
48	0x01	1
49	0x00	0
50	0x00	0
51	0x00	0
52	0x05	5
53	0x00	0
54	0x00	0
55	0x00	0
56	0x62	98
57	0x05	5
58	0x00	0
59	0x00	0
60	0x00	0
61	0x00	0
62	0x00	0
63	0x00	0
64	0x03	3
65	0x05	5
66	0x05	5
67	0x00	0
68	0x02	2
69	0x02	2
70	0x02	2
71	0x00	0
72	0x02	2
73	0x27	39
74	0xc0	192
75	0x24	36
76	0x00	0
77	0x00	0
78	0x00	0
79	0x00	0
80	0x00	0
81	0x00	0
82	0x80	128
83	0x01	1
84	0x00	0
85	0x00	0
86	0x00	0
87	0x00	0
88	0x00	0
89	0x00	0
90	0xc0	192
91	0x00	0
92	0x00	0
93	0x00	0
94	0x01	1
95	0x00	0
96	0x00	0
97	0x00	0
98	0x0e	14
99	0x00	0
100	0x00	0
101	0x00	0
102	0x0e	14
103	0x00	0
104	0x00	0
105	0x00	0
106	0x30	48
107	0x00	0
108	0x00	0
109	0x00	0
110	0x30	48
111	0x00	0
112	0x00	0
113	0x00	0
114	0x01	1
115	0x00	0
116	0x00	0
117	0x00	0
118	0x0e	14
119	0x00	0
120	0x00	0
121	0x00	0
122	0x0e	14
123	0x00	0
124	0x00	0
125	0x00	0
126	0x30	48
127	0x00	0
128	0x00	0
129	0x00	0
130	0x01	1
131	0x00	0
132	0x00	0
133	0x00	0
134	0x01	1
135	0x00	0
136	0x00	0
137	0x00	0
138	0x01	1
139	0x00	0
140	0x00	0
141	0x00	0
142	0x01	1
143	0x00	0
144	0x00	0
145	0x00	0
146	0x00	0
147	0x00	0
148	0x00	0
149	0x00	0
150	0x00	0
151	0x00	0
152	0x00	0
153	0x00	0
154	0x00	0
155	0x00	0
156	0x00	0
157	0x00	0
158	0x00	0
159	0x00	0
160	0x00	0
161	0x00	0
162	0x01	1
163	0x00	0
164	0x00	0
165	0x00	0
166	0x01	1
167	0x00	0
168	0x00	0
169	0x00	0
170	0x20	32
171	0x00	0
172	0x0f	15
173	0x07	7
174	0x00	0
175	0x00	0
176	0x00	0
177	0x00	0
178	0x00	0
179	0x00	0
180	0x00	0
181	0x00	0
182	0x01	1
183	0x00	0
184	0x00	0
185	0x00	0
186	0x01	1
187	0x00	0
188	0x00	0
189	0x00	0
190	0x80	128
191	0xff	255
192	0xff	255
193	0xff	255
194	0x00	0
195	0x80	128
196	0x00	0
197	0x00	0
198	0x00	0
199	0x00	0
200	0x00	0
201	0x00	0
202	0x00	0
203	0x00	0
204	0x00	0
205	0x00	0
206	0x00	0
207	0x00	0
208	0x00	0
209	0x00	0
210	0x00	0
211	0x00	0
212	0x00	0
213	0x00	0
214	0x05	5
215	0x27	39
216	0x03	3
217	0x05	5
218	0x05	5
219	0x05	5
220	0x02	2
221	0x02	2
222	0x02	2
223	0x00	0
224	0x02	2
225	0x1b	27
226	0x00	0
227	0x00	0
228	0x00	0
229	0x00	0
230	0xc0	192
231	0x24	36
232	0x00	0
233	0x00	0
234	0x80	128
235	0x0d	13
236	0x00	0
237	0x00	0
238	0x80	128
239	0x0a	10
240	0x00	0
241	0x00	0
242	0xc0	192
243	0x0c	12
244	0x00	0
245	0x00	0
246	0x01	1
247	0x00	0
248	0x00	0
249	0x00	0
250	0x0e	14
251	0x00	0
252	0x00	0
253	0x00	0
254	0x0e	14
255	0x00	0

NeutronWeights u1 [6584]
0	0x6b	107
1	0x7c	124
2	0x00	0
3	0x00	0
4	0xfc	252
5	0x79	121
6	0xff	255
7	0xff	255
8	0x39	57
9	0x72	114
10	0x00	0
11	0x00	0
12	0x40	64
13	0x5a	90
14	0x00	0
15	0x00	0
16	0xc4	196
17	0xaf	175
18	0xff	255
19	0xff	255
20	0x62	98
21	0x66	102
22	0x00	0
23	0x00	0
24	0x6d	109
25	0x13	19
26	0x00	0
27	0x00	0
28	0x83	131
29	0x31	49
30	0x00	0
31	0x00	0
32	0x3a	58
33	0x1e	30
34	0x00	0
35	0x00	0
36	0x18	24
37	0x0d	13
38	0x00	0
39	0x00	0
40	0xfa	250
41	0x83	131
42	0x00	0
43	0x00	0
44	0xcd	205
45	0xf5	245
46	0xff	255
47	0xff	255
48	0xbb	187
49	0x34	52
50	0xff	255
51	0xff	255
52	0x38	56
53	0x4d	77
54	0x00	0
55	0x00	0
56	0x78	120
57	0x76	118
58	0x00	0
59	0x00	0
60	0x23	35
61	0x0e	14
62	0x00	0
63	0x00	0
64	0x95	149
65	0xd3	211
66	0x00	0
67	0x00	0
68	0xa1	161
69	0xe7	231
70	0xff	255
71	0xff	255
72	0x5a	90
73	0x22	34
74	0x00	0
75	0x00	0
76	0x7f	127
77	0xd2	210
78	0xff	255
79	0xff	255
80	0xb1	177
81	0xd8	216
82	0x00	0
83	0x00	0
84	0x05	5
85	0xa0	160
86	0xff	255
87	0xff	255
88	0x36	54
89	0x3c	60
90	0x00	0
91	0x00	0
92	0xcd	205
93	0xf3	243
94	0x00	0
95	0x00	0
96	0x06	6
97	0x2f	47
98	0x00	0
99	0x00	0
100	0xc6	198
101	0x51	81
102	0x00	0
103	0x00	0
104	0xc4	196
105	0x9e	158
106	0x00	0
107	0x00	0
108	0x4d	77
109	0x84	132
110	0x00	0
111	0x00	0
112	0xc6	198
113	0x3f	63
114	0x00	0
115	0x00	0
116	0xcd	205
117	0x95	149
118	0xff	255
119	0xff	255
120	0xba	186
121	0x87	135
122	0x00	0
123	0x00	0
124	0x60	96
125	0x2d	45
126	0x00	0
127	0x00	0
128	0x33	51
129	0x76	118
130	0x00	0
131	0x00	0
132	0xac	172
133	0xa1	161
134	0x00	0
135	0x00	0
136	0x23	35
137	0x48	72
138	0x00	0
139	0x00	0
140	0xf7	247
141	0x41	65
142	0x00	0
143	0x00	0
144	0xc3	195
145	0x81	129
146	0xfe	254
147	0xff	255
148	0xfa	250
149	0x57	87
150	0x00	0
151	0x00	0
152	0xaa	170
153	0x40	64
154	0x02	2
155	0x00	0
156	0x9f	159
157	0x58	88
158	0xff	255
159	0xff	255
160	0x08	8
161	0x32	50
162	0x01	1
163	0x00	0
164	0xd2	210
165	0x4d	77
166	0x00	0
167	0x00	0
168	0xed	237
169	0x19	25
170	0x00	0
171	0x00	0
172	0x0f	15
173	0x7e	126
174	0x00	0
175	0x00	0
176	0xae	174
177	0xa9	169
178	0xff	255
179	0xff	255
180	0x75	117
181	0xf7	247
182	0xff	255
183	0xff	255
184	0x6a	106
185	0x2b	43
186	0x00	0
187	0x00	0
188	0x9f	159
189	0x32	50
190	0x00	0
191	0x00	0
192	0xbd	189
193	0x09	9
194	0x16	22
195	0x00	0
196	0xd5	213
197	0x11	17
198	0x15	21
199	0x00	0
200	0xef	239
201	0x52	82
202	0x17	23
203	0x00	0
204	0xc1	193
205	0x9f	159
206	0x18	24
207	0x00	0
208	0x57	87
209	0xe6	230
210	0x19	25
211	0x00	0
212	0x0f	15
213	0x77	119
214	0x17	23
215	0x00	0
216	0x8d	141
217	0x3a	58
218	0x16	22
219	0x00	0
220	0x9f	159
221	0x2a	42
222	0x16	22
223	0x00	0
224	0x71	113
225	0x0a	10
226	0x14	20
227	0x00	0
228	0x51	81
229	0x4a	74
230	0x17	23
231	0x00	0
232	0xa7	167
233	0x90	144
234	0x18	24
235	0x00	0
236	0xc1	193
237	0xf0	240
238	0x18	24
239	0x00	0
240	0xdf	223
241	0x85	133
242	0x18	24
243	0x00	0
244	0xc3	195
245	0xc5	197
246	0x19	25
247	0x00	0
248	0xf5	245
249	0x45	69
250	0x17	23
251	0x00	0
252	0xf3	243
253	0xd7	215
254	0x18	24
255	0x00	0

NeutronMicrocode u1 [620]
0	0x6e	110
1	0x4d	77
2	0x43	67
3	0x64	100
4	0x6d	109
5	0x0a	10
6	0x71	113
7	0x6f	111
8	0x16	22
9	0x02	2
10	0x00	0
11	0x00	0
12	0x00	0
13	0x00	0
14	0x00	0
15	0x00	0
16	0x16	22
17	0x02	2
18	0x00	0
19	0x00	0
20	0x0c	12
21	0x00	0
22	0x00	0
23	0x00	0
24	0x6c	108
25	0x02	2
26	0x00	0
27	0x00	0
28	0xb8	184
29	0x19	25
30	0x00	0
31	0x00	0
32	0x01	1
33	0x00	0
34	0x00	0
35	0x00	0
36	0x80	128
37	0x49	73
38	0x00	0
39	0x00	0
40	0x00	0
41	0x00	0
42	0x00	0
43	0x00	0
44	0x02	2
45	0x00	0
46	0x00	0
47	0x00	0
48	0x01	1
49	0x00	0
50	0x00	0
51	0x00	0
52	0x05	5
53	0x00	0
54	0x00	0
55	0x00	0
56	0xc4	196
57	0x05	5
58	0x00	0
59	0x00	0
60	0x00	0
61	0x00	0
62	0x00	0
63	0x00	0
64	0x03	3
65	0x05	5
66	0x05	5
67	0x00	0
68	0x02	2
69	0x02	2
70	0x02	2
71	0x00	0
72	0x02	2
73	0x27	39
74	0xc0	192
75	0x24	36
76	0x00	0
77	0x00	0
78	0x00	0
79	0x00	0
80	0x00	0
81	0x00	0
82	0x80	128
83	0x01	1
84	0x00	0
85	0x00	0
86	0x00	0
87	0x00	0
88	0x00	0
89	0x00	0
90	0xc0	192
91	0x00	0
92	0x00	0
93	0x00	0
94	0x01	1
95	0x00	0
96	0x00	0
97	0x00	0
98	0x0e	14
99	0x00	0
100	0x00	0
101	0x00	0
102	0x0e	14
103	0x00	0
104	0x00	0
105	0x00	0
106	0x30	48
107	0x00	0
108	0x00	0
109	0x00	0
110	0x30	48
111	0x00	0
112	0x00	0
113	0x00	0
114	0x01	1
115	0x00	0
116	0x00	0
117	0x00	0
118	0x0e	14
119	0x00	0
120	0x00	0
121	0x00	0
122	0x0e	14
123	0x00	0
124	0x00	0
125	0x00	0
126	0x30	48
127	0x00	0
128	0x00	0
129	0x00	0
130	0x01	1
131	0x00	0
132	0x00	0
133	0x00	0
134	0x01	1
135	0x00	0
136	0x00	0
137	0x00	0
138	0x01	1
139	0x00	0
140	0x00	0
141	0x00	0
142	0x01	1
143	0x00	0
144	0x00	0
145	0x00	0
146	0x00	0
147	0x00	0
148	0x00	0
149	0x00	0
150	0x00	0
151	0x00	0
152	0x00	0
153	0x00	0
154	0x00	0
155	0x00	0
156	0x00	0
157	0x00	0
158	0x00	0
159	0x00	0
160	0x00	0
161	0x00	0
162	0x01	1
163	0x00	0
164	0x00	0
165	0x00	0
166	0x01	1
167	0x00	0
168	0x00	0
169	0x00	0
170	0x20	32
171	0x00	0
172	0x0f	15
173	0x07	7
174	0x00	0
175	0x00	0
176	0x00	0
177	0x00	0
178	0x00	0
179	0x00	0
180	0x00	0
181	0x00	0
182	0x01	1
183	0x00	0
184	0x00	0
185	0x00	0
186	0x01	1
187	0x00	0
188	0x00	0
189	0x00	0
190	0x80	128
191	0xff	255
192	0xff	255
193	0xff	255
194	0x00	0
195	0x80	128
196	0x00	0
197	0x00	0
198	0x00	0
199	0x00	0
200	0x00	0
201	0x00	0
202	0x00	0
203	0x00	0
204	0x00	0
205	0x00	0
206	0x00	0
207	0x00	0
208	0x00	0
209	0x00	0
210	0x00	0
211	0x00	0
212	0x00	0
213	0x00	0
214	0x05	5
215	0x27	39
216	0x03	3
217	0x05	5
218	0x05	5
219	0x05	5
220	0x02	2
221	0x02	2
222	0x02	2
223	0x00	0
224	0x02	2
225	0x1b	27
226	0x00	0
227	0x00	0
228	0x00	0
229	0x00	0
230	0xc0	192
231	0x24	36
232	0x00	0
233	0x00	0
234	0x80	128
235	0x0d	13
236	0x00	0
237	0x00	0
238	0x80	128
239	0x0a	10
240	0x00	0
241	0x00	0
242	0xc0	192
243	0x0c	12
244	0x00	0
245	0x00	0
246	0x01	1
247	0x00	0
248	0x00	0
249	0x00	0
250	0x0e	14
251	0x00	0
252	0x00	0
253	0x00	0
254	0x0e	14
255	0x00	0

NeutronWeights u1 [6584]
0	0xe7	231
1	0x4a	74
2	0x00	0
3	0x00	0
4	0x0f	15
5	0xeb	235
6	0xfe	254
7	0xff	255
8	0x54	84
9	0xce	206
10	0x00	0
11	0x00	0
12	0xd8	216
13	0x7b	123
14	0xff	255
15	0xff	255
16	0xbc	188
17	0x96	150
18	0x00	0
19	0x00	0
20	0x83	131
21	0x7b	123
22	0x00	0
23	0x00	0
24	0x76	118
25	0x45	69
26	0xff	255
27	0xff	255
28	0x6f	111
29	0xa4	164
30	0x00	0
31	0x00	0
32	0x76	118
33	0xf6	246
34	0xff	255
35	0xff	255
36	0x8f	143
37	0xfa	250
38	0xfd	253
39	0xff	255
40	0x68	104
41	0x41	65
42	0x00	0
43	0x00	0
44	0xb3	179
45	0xed	237
46	0xff	255
47	0xff	255
48	0x67	103
49	0x0b	11
50	0x01	1
51	0x00	0
52	0x47	71
53	0x8e	142
54	0xff	255
55	0xff	255
56	0x49	73
57	0xfb	251
58	0xff	255
59	0xff	255
60	0x93	147
61	0x57	87
62	0x00	0
63	0x00	0
64	0x28	40
65	0x08	8
66	0x00	0
67	0x00	0
68	0x11	17
69	0x9c	156
70	0xff	255
71	0xff	255
72	0xb9	185
73	0xa0	160
74	0xff	255
75	0xff	255
76	0x55	85
77	0xdc	220
78	0xff	255
79	0xff	255
80	0x99	153
81	0x67	103
82	0xff	255
83	0xff	255
84	0x15	21
85	0xbc	188
86	0x00	0
87	0x00	0
88	0xdf	223
89	0xe6	230
90	0xff	255
91	0xff	255
92	0x5f	95
93	0xe1	225
94	0xff	255
95	0xff	255
96	0x6a	106
97	0x70	112
98	0xff	255
99	0xff	255
100	0xde	222
101	0x2e	46
102	0x01	1
103	0x00	0
104	0x38	56
105	0xe6	230
106	0xff	255
107	0xff	255
108	0x7a	122
109	0x25	37
110	0x00	0
111	0x00	0
112	0x40	64
113	0x2b	43
114	0x00	0
115	0x00	0
116	0xc1	193
117	0x44	68
118	0x00	0
119	0x00	0
120	0x7c	124
121	0x22	34
122	0x01	1
123	0x00	0
124	0x31	49
125	0xae	174
126	0x01	1
127	0x00	0
128	0xd7	215
129	0xdf	223
130	0xfe	254
131	0xff	255
132	0x65	101
133	0xfd	253
134	0xff	255
135	0xff	255
136	0xb7	183
137	0x46	70
138	0x00	0
139	0x00	0
140	0xf6	246
141	0x81	129
142	0x00	0
143	0x00	0
144	0x08	8
145	0xd2	210
146	0xff	255
147	0xff	255
148	0xbc	188
149	0x39	57
150	0x00	0
151	0x00	0
152	0x36	54
153	0xda	218
154	0xff	255
155	0xff	255
156	0xe9	233
157	0x9f	159
158	0xff	255
159	0xff	255
160	0x5c	92
161	0x73	115
162	0x00	0
163	0x00	0
164	0x67	103
165	0xce	206
166	0x00	0
167	0x00	0
168	0x10	16
169	0x44	68
170	0x00	0
171	0x00	0
172	0x2d	45
173	0x9d	157
174	0xff	255
175	0xff	255
176	0x83	131
177	0x29	41
178	0x00	0
179	0x00	0
180	0x41	65
181	0x9e	158
182	0xff	255
183	0xff	255
184	0x44	68
185	0xe3	227
186	0x00	0
187	0x00	0
188	0xc3	195
189	0x4b	75
190	0x00	0
191	0x00	0
192	0xf5	245
193	0xe6	230
194	0x17	23
195	0x00	0
196	0x3d	61
197	0xaa	170
198	0x16	22
199	0x00	0
200	0x1f	31
201	0x6b	107
202	0x17	23
203	0x00	0
204	0xe7	231
205	0x95	149
206	0x16	22
207	0x00	0
208	0x9d	157
209	0x6f	111
210	0x16	22
211	0x00	0
212	0x21	33
213	0x25	37
214	0x15	21
215	0x00	0
216	0x37	55
217	0x82	130
218	0x17	23
219	0x00	0
220	0x69	105
221	0xd4	212
222	0x17	23
223	0x00	0
224	0x2f	47
225	0x2d	45
226	0x15	21
227	0x00	0
228	0x9b	155
229	0xec	236
230	0x18	24
231	0x00	0
232	0x33	51
233	0x73	115
234	0x17	23
235	0x00	0
236	0x67	103
237	0x3b	59
238	0x15	21
239	0x00	0
240	0xbb	187
241	0x9c	156
242	0x17	23
243	0x00	0
244	0xb7	183
245	0xa4	164
246	0x16	22
247	0x00	0
248	0xc5	197
249	0x4b	75
250	0x16	22
251	0x00	0
252	0x3d	61
253	0x9d	157
254	0x17	23
255	0x00	0

NeutronMicrocode u1 [620]
0	0x6e	110
1	0x4d	77
2	0x43	67
3	0x64	100
4	0x6d	109
5	0x0a	10
6	0x71	113
7	0x6f	111
8	0x16	22
9	0x02	2
10	0x00	0
11	0x00	0
12	0x00	0
13	0x00	0
14	0x00	0
15	0x00	0
16	0x16	22
17	0x02	2
18	0x00	0
19	0x00	0
20	0x0c	12
21	0x00	0
22	0x00	0
23	0x00	0
24	0x6c	108
25	0x02	2
26	0x00	0
27	0x00	0
28	0xb8	184
29	0x19	25
30	0x00	0
31	0x00	0
32	0x01	1
33	0x00	0
34	0x00	0
35	0x00	0
36	0x80	128
37	0x49	73
38	0x00	0
39	0x00	0
40	0x00	0
41	0x00	0
42	0x00	0
43	0x00	0
44	0x02	2
45	0x00	0
46	0x00	0
47	0x00	0
48	0x01	1
49	0x00	0
50	0x00	0
51	0x00	0
52	0x05	5
53	0x00	0
54	0x00	0
55	0x00	0
56	0x26	38
57	0x06	6
58	0x00	0
59	0x00	0
60	0x00	0
61	0x00	0
62	0x00	0
63	0x00	0
64	0x03	3
65	0x05	5
66	0x05	5
67	0x00	0
68	0x02	2
69	0x02	2
70	0x02	2
71	0x00	0
72	0x02	2
73	0x27	39
74	0xc0	192
75	0x24	36
76	0x00	0
77	0x00	0
78	0x00	0
79	0x00	0
80	0x00	0
81	0x00	0
82	0x80	128
83	0x01	1
84	0x00	0
85	0x00	0
86	0x00	0
87	0x00	0
88	0x00	0
89	0x00	0
90	0xc0	192
91	0x00	0
92	0x00	0
93	0x00	0
94	0x01	1
95	0x00	0
96	0x00	0
97	0x00	0
98	0x0e	14
99	0x00	0
100	0x00	0
101	0x00	0
102	0x0e	14
103	0x00	0
104	0x00	0
105	0x00	0
106	0x30	48
107	0x00	0
108	0x00	0
109	0x00	0
110	0x30	48
111	0x00	0
112	0x00	0
113	0x00	0
114	0x01	1
115	0x00	0
116	0x00	0
117	0x00	0
118	0x0e	14
119	0x00	0
120	0x00	0
121	0x00	0
122	0x0e	14
123	0x00	0
124	0x00	0
125	0x00	0
126	0x30	48
127	0x00	0
128	0x00	0
129	0x00	0
130	0x01	1
131	0x00	0
132	0x00	0
133	0x00	0
134	0x01	1
135	0x00	0
136	0x00	0
137	0x00	0
138	0x01	1
139	0x00	0
140	0x00	0
141	0x00	0
142	0x01	1
143	0x00	0
144	0x00	0
145	0x00	0
146	0x00	0
147	0x00	0
148	0x00	0
149	0x00	0
150	0x00	0
151	0x00	0
152	0x00	0
153	0x00	0
154	0x00	0
155	0x00	0
156	0x00	0
157	0x00	0
158	0x00	0
159	0x00	0
160	0x00	0
161	0x00	0
162	0x01	1
163	0x00	0
164	0x00	0
165	0x00	0
166	0x01	1
167	0x00	0
168	0x00	0
169	0x00	0
170	0x20	32
171	0x00	0
172	0x0f	15
173	0x07	7
174	0x00	0
175	0x00	0
176	0x00	0
177	0x00	0
178	0x00	0
179	0x00	0
180	0x00	0
181	0x00	0
182	0x01	1
183	0x00	0
184	0x00	0
185	0x00	0
186	0x01	1
187	0x00	0
188	0x00	0
189	0x00	0
190	0x80	128
191	0xff	255
192	0xff	255
193	0xff	255
194	0x00	0
195	0x80	128
196	0x00	0
197	0x00	0
198	0x00	0
199	0x00	0
200	0x00	0
201	0x00	0
202	0x00	0
203	0x00	0
204	0x00	0
205	0x00	0
206	0x00	0
207	0x00	0
208	0x00	0
209	0x00	0
210	0x00	0
211	0x00	0
212	0x00	0
213	0x00	0
214	0x05	5
215	0x27	39
216	0x03	3
217	0x05	5
218	0x05	5
219	0x05	5
220	0x02	2
221	0x02	2
222	0x02	2
223	0x00	0
224	0x02	2
225	0x1b	27
226	0x00	0
227	0x00	0
228	0x00	0
229	0x00	0
230	0xc0	192
231	0x24	36
232	0x00	0
233	0x00	0
234	0x80	128
235	0x0d	13
236	0x00	0
237	0x00	0
238	0x80	128
239	0x0a	10
240	0x00	0
241	0x00	0
242	0xc0	192
243	0x0c	12
244	0x00	0
245	0x00	0
246	0x01	1
247	0x00	0
248	0x00	0
249	0x00	0
250	0x0e	14
251	0x00	0
252	0x00	0
253	0x00	0
254	0x0e	14
255	0x00	0

NeutronWeights u1 [6584]
0	0x8e	142
1	0x08	8
2	0x00	0
3	0x00	0
4	0xfd	253
5	0x4c	76
6	0x00	0
7	0x00	0
8	0x9f	159
9	0x3a	58
10	0x00	0
11	0x00	0
12	0x83	131
13	0x59	89
14	0x00	0
15	0x00	0
16	0xa9	169
17	0xf5	245
18	0xff	255
19	0xff	255
20	0x80	128
21	0xbb	187
22	0xff	255
23	0xff	255
24	0x45	69
25	0xc4	196
26	0x00	0
27	0x00	0
28	0x69	105
29	0x7d	125
30	0xff	255
31	0xff	255
32	0x70	112
33	0x6d	109
34	0x00	0
35	0x00	0
36	0x5f	95
37	0x37	55
38	0x00	0
39	0x00	0
40	0xca	202
41	0x6c	108
42	0xff	255
43	0xff	255
44	0xd4	212
45	0xea	234
46	0xff	255
47	0xff	255
48	0x4b	75
49	0x0d	13
50	0x00	0
51	0x00	0
52	0x46	70
53	0xf8	248
54	0x00	0
55	0x00	0
56	0xbf	191
57	0x4a	74
58	0x00	0
59	0x00	0
60	0x53	83
61	0xa0	160
62	0xff	255
63	0xff	255
64	0x8f	143
65	0xe9	233
66	0xff	255
67	0xff	255
68	0x77	119
69	0xaf	175
70	0xff	255
71	0xff	255
72	0x85	133
73	0xb6	182
74	0x00	0
75	0x00	0
76	0x83	131
77	0x0e	14
78	0x00	0
79	0x00	0
80	0x0a	10
81	0x53	83
82	0x00	0
83	0x00	0
84	0x48	72
85	0xf2	242
86	0xfe	254
87	0xff	255
88	0xf6	246
89	0x24	36
90	0x00	0
91	0x00	0
92	0x6f	111
93	0x7c	124
94	0x00	0
95	0x00	0
96	0x47	71
97	0x4a	74
98	0x00	0
99	0x00	0
100	0x58	88
101	0xfc	252
102	0xff	255
103	0xff	255
104	0x9d	157
105	0x7b	123
106	0x00	0
107	0x00	0
108	0x62	98
109	0x19	25
110	0x01	1
111	0x00	0
112	0xb2	178
113	0x46	70
114	0x00	0
115	0x00	0
116	0x0e	14
117	0x00	0
118	0x00	0
119	0x00	0
120	0xeb	235
121	0xe3	227
122	0xff	255
123	0xff	255
124	0xc6	198
125	0x6a	106
126	0x00	0
127	0x00	0
128	0x0a	10
129	0x05	5
130	0xff	255
131	0xff	255
132	0xcf	207
133	0x59	89
134	0x00	0
135	0x00	0
136	0x96	150
137	0x82	130
138	0x00	0
139	0x00	0
140	0x54	84
141	0x33	51
142	0x00	0
143	0x00	0
144	0x4a	74
145	0xb5	181
146	0x00	0
147	0x00	0
148	0x6e	110
149	0xa5	165
150	0x00	0
151	0x00	0
152	0xce	206
153	0xef	239
154	0x00	0
155	0x00	0
156	0xba	186
157	0x0a	10
158	0x00	0
159	0x00	0
160	0xc9	201
161	0x35	53
162	0x00	0
163	0x00	0
164	0xe2	226
165	0x0e	14
166	0x00	0
167	0x00	0
168	0x38	56
169	0x5b	91
170	0x00	0
171	0x00	0
172	0x10	16
173	0x54	84
174	0x00	0
175	0x00	0
176	0x20	32
177	0x01	1
178	0x00	0
179	0x00	0
180	0x03	3
181	0xc1	193
182	0xff	255
183	0xff	255
184	0x4c	76
185	0xa0	160
186	0x00	0
187	0x00	0
188	0xc6	198
189	0x79	121
190	0xff	255
191	0xff	255
192	0x15	21
193	0x73	115
194	0x16	22
195	0x00	0
196	0xa1	161
197	0xd5	213
198	0x17	23
199	0x00	0
200	0x83	131
201	0x4a	74
202	0x16	22
203	0x00	0
204	0x85	133
205	0x62	98
206	0x16	22
207	0x00	0
208	0x5d	93
209	0x6a	106
210	0x16	22
211	0x00	0
212	0xaf	175
213	0x97	151
214	0x17	23
215	0x00	0
216	0x9d	157
217	0xa0	160
218	0x17	23
219	0x00	0
220	0xc7	199
221	0xee	238
222	0x16	22
223	0x00	0
224	0xa5	165
225	0x28	40
226	0x15	21
227	0x00	0
228	0xa3	163
229	0x68	104
230	0x16	22
231	0x00	0
232	0xe5	229
233	0x93	147
234	0x17	23
235	0x00	0
236	0xf7	247
237	0x8d	141
238	0x16	22
239	0x00	0
240	0x1d	29
241	0xbc	188
242	0x17	23
243	0x00	0
244	0xe3	227
245	0x5f	95
246	0x16	22
247	0x00	0
248	0x93	147
249	0x9b	155
250	0x17	23
251	0x00	0
252	0xfd	253
253	0xf3	243
254	0x17	23
255	0x00	0

NeutronMicrocode u1 [620]
0	0x6e	110
1	0x4d	77
2	0x43	67
3	0x64	100
4	0x6d	109
5	0x0a	10
6	0x71	113
7	0x6f	111
8	0x16	22
9	0x02	2
10	0x00	0
11	0x00	0
12	0x00	0
13	0x00	0
14	0x00	0
15	0x00	0
16	0x16	22
17	0x02	2
18	0x00	0
19	0x00	0
20	0x0c	12
21	0x00	0
22	0x00	0
23	0x00	0
24	0x6c	108
25	0x02	2
26	0x00	0
27	0x00	0
28	0xb8	184
29	0x19	25
30	0x00	0
31	0x00	0
32	0x01	1
33	0x00	0
34	0x00	0
35	0x00	0
36	0x80	128
37	0x49	73
38	0x00	0
39	0x00	0
40	0x00	0
41	0x00	0
42	0x00	0
43	0x00	0
44	0x02	2
45	0x00	0
46	0x00	0
47	0x00	0
48	0x01	1
49	0x00	0
50	0x00	0
51	0x00	0
52	0x05	5
53	0x00	0
54	0x00	0
55	0x00	0
56	0x88	136
57	0x06	6
58	0x00	0
59	0x00	0
60	0x00	0
61	0x00	0
62	0x00	0
63	0x00	0
64	0x03	3
65	0x05	5
66	0x05	5
67	0x00	0
68	0x02	2
69	0x02	2
70	0x02	2
71	0x00	0
72	0x02	2
73	0x27	39
74	0xc0	192
75	0x24	36
76	0x00	0
77	0x00	0
78	0x00	0
79	0x00	0
80	0x00	0
81	0x00	0
82	0x80	128
83	0x01	1
84	0x00	0
85	0x00	0
86	0x00	0
87	0x00	0
88	0x00	0
89	0x00	0
90	0xc0	192
91	0x00	0
92	0x00	0
93	0x00	0
94	0x01	1
95	0x00	0
96	0x00	0
97	0x00	0
98	0x0e	14
99	0x00	0
100	0x00	0
101	0x00	0
102	0x0e	14
103	0x00	0
104	0x00	0
105	0x00	0
106	0x30	48
107	0x00	0
108	0x00	0
109	0x00	0
110	0x30	48
111	0x00	0
112	0x00	0
113	0x00	0
114	0x01	1
115	0x00	0
116	0x00	0
117	0x00	0
118	0x0e	14
119	0x00	0
120	0x00	0
121	0x00	0
122	0x0e	14
123	0x00	0
124	0x00	0
125	0x00	0
126	0x30	48
127	0x00	0
128	0x00	0
129	0x00	0
130	0x01	1
131	0x00	0
132	0x00	0
133	0x00	0
134	0x01	1
135	0x00	0
136	0x00	0
137	0x00	0
138	0x01	1
139	0x00	0
140	0x00	0
141	0x00	0
142	0x01	1
143	0x00	0
144	0x00	0
145	0x00	0
146	0x00	0
147	0x00	0
148	0x00	0
149	0x00	0
150	0x00	0
151	0x00	0
152	0x00	0
153	0x00	0
154	0x00	0
155	0x00	0
156	0x00	0
157	0x00	0
158	0x00	0
159	0x00	0
160	0x00	0
161	0x00	0
162	0x01	1
163	0x00	0
164	0x00	0
165	0x00	0
166	0x01	1
167	0x00	0
168	0x00	0
169	0x00	0
170	0x20	32
171	0x00	0
172	0x0f	15
173	0x07	7
174	0x00	0
175	0x00	0
176	0x00	0
177	0x00	0
178	0x00	0
179	0x00	0
180	0x00	0
181	0x00	0
182	0x01	1
183	0x00	0
184	0x00	0
185	0x00	0
186	0x01	1
187	0x00	0
188	0x00	0
189	0x00	0
190	0x80	128
191	0xff	255
192	0xff	255
193	0xff	255
194	0x00	0
195	0x80	128
196	0x00	0
197	0x00	0
198	0x00	0
199	0x00	0
200	0x00	0
201	0x00	0
202	0x00	0
203	0x00	0
204	0x00	0
205	0x00	0
206	0x00	0
207	0x00	0
208	0x00	0
209	0x00	0
210	0x00	0
211	0x00	0
212	0x00	0
213	0x00	0
214	0x05	5
215	0x27	39
216	0x03	3
217	0x05	5
218	0x05	5
219	0x05	5
220	0x02	2
221	0x02	2
222	0x02	2
223	0x00	0
224	0x02	2
225	0x1b	27
226	0x00	0
227	0x00	0
228	0x00	0
229	0x00	0
230	0xc0	192
231	0x24	36
232	0x00	0
233	0x00	0
234	0x80	128
235	0x0d	13
236	0x00	0
237	0x00	0
238	0x80	128
239	0x0a	10
240	0x00	0
241	0x00	0
242	0xc0	192
243	0x0c	12
244	0x00	0
245	0x00	0
246	0x01	1
247	0x00	0
248	0x00	0
249	0x00	0
250	0x0e	14
251	0x00	0
252	0x00	0
253	0x00	0
254	0x0e	14
255	0x00	0
