models/persondetect/persondetect_220x220_npu64.tflite (tflite, 220160 bytes, 65 tensors)

NeutronMicrocode u1 [1264]
110 77 67 100 145 44 123 145
160 4 0 0 0 0 0 0
160 4 0 0 16 0 0 0
240 4 0 0 32 9 0 0
1 0 0 0 192 36 0 0
0 0 0 0 2 0 0 0
2 0 0 0 14 0 0 0
199 4 0 0 0 0 0 0
3 5 6 0 2 2 2 0
2 67 96 18 0 0 0 0
0 0 0 0 0 0 24 0
0 0 32 0 0 0 24 0
0 0 196 0 0 0 16 3
14 7 48 128 114 66 0 0
0 0 0 0 0 0 5 67
3 5 6 6 2 2 2 0
2 37 0 0 0 0 96 18
0 0 132 0 0 0 36 0
0 0 84 0 0 0 1 0
0 0 14 0 0 0 14 0
0 0 24 0 0 0 24 0
0 0 1 0 0 0 14 0
0 0 14 0 0 0 24 0
0 0 1 0 0 0 1 0
0 0 1 0 0 0 1 0
0 0 0 0 0 0 0 0
0 0 0 0 0 0 0 0
0 0 1 0 0 0 1 0
0 0 16 1 15 7 0 0
0 0 0 0 0 0 1 0
0 0 1 0 0 0 128 255
255 255 48 250 0 0 0 0
00000000: 6e4d 4364 912c 7b91 a004 0000 0000 0000
00000010: a004 0000 1000 0000 f004 0000 2009 0000
00000020: 0100 0000 c024 0000 0000 0000 0200 0000
00000030: 0200 0000 0e00 0000 c704 0000 0000 0000
00000040: 0305 0600 0202 0200 0243 6012 0000 0000
00000050: 0000 0000 0000 1800 0000 2000 0000 1800
00000060: 0000 c400 0000 1003 0e07 3080 7242 0000
00000070: 0000 0000 0000 0543 0305 0606 0202 0200
00000080: 0225 0000 0000 6012 0000 8400 0000 2400
00000090: 0000 5400 0000 0100 0000 0e00 0000 0e00
000000a0: 0000 1800 0000 1800 0000 0100 0000 0e00
000000b0: 0000 0e00 0000 1800 0000 0100 0000 0100
000000c0: 0000 0100 0000 0100 0000 0000 0000 0000
000000d0: 0000 0000 0000 0000 0000 0100 0000 0100
000000e0: 0000 1001 0f07 0000 0000 0000 0000 0100
000000f0: 0000 0100 0000 80ff ffff 30fa 0000 0000

NeutronWeights u1 [2336]
217 20 6 155 57 103 92 3
3 227 220 126 176 199 195 195
47 118 214 253 22 128 244 127
231 28 0 0 0 0 231 28
34 134 34 134 114 154 200 155
109 30 163 23 73 154 149 18
62 150 51 26 69 26 110 18
54 155 12 154 236 142 104 154
139 19 11 151 20 155 123 129
44 11 185 154 134 135 249 26
236 15 192 142 127 79 250 78
146 79 42 79 82 79 146 79
245 79 2 74 240 78 2 79
98 79 102 74 108 79 233 78
125 79 249 79 139 74 204 79
185 79 88 79 132 74 105 79
155 79 110 74 242 3 115 74
90 11 211 18 61 63 253 44
185 254 57 143 84 14 125 6
154 243 64 56 208 54 42 56
38 50 62 232 141 191 248 44
183 80 225 170 66 218 3 235
11 100 12 219 149 28 213 220
32 1 6 46 20 109 35 68
129 198 252 225 77 9 119 141
198 238 135 61 251 36 65 56
186 29 158 42 219 212 215 90
2 6 205 221 176 227 196 81
39 87 66 35 129 227 168 241
12 69 183 76 20 251 127 223
21 10 225 103 2 26 129 162
75 179 220 199 246 21 191 129
00000000: d914 069b 3967 5c03 03e3 dc7e b0c7 c3c3
00000010: 2f76 d6fd 1680 f47f e71c 0000 0000 e71c
00000020: 2286 2286 729a c89b 6d1e a317 499a 9512
00000030: 3e96 331a 451a 6e12 369b 0c9a ec8e 689a
00000040: 8b13 0b97 149b 7b81 2c0b b99a 8687 f91a
00000050: ec0f c08e 7f4f fa4e 924f 2a4f 524f 924f
00000060: f54f 024a f04e 024f 624f 664a 6c4f e94e
00000070: 7d4f f94f 8b4a cc4f b94f 584f 844a 694f
00000080: 9b4f 6e4a f203 734a 5a0b d312 3d3f fd2c
00000090: b9fe 398f 540e 7d06 9af3 4038 d036 2a38
000000a0: 2632 3ee8 8dbf f82c b750 e1aa 42da 03eb
000000b0: 0b64 0cdb 951c d5dc 2001 062e 146d 2344
000000c0: 81c6 fce1 4d09 778d c6ee 873d fb24 4138
000000d0: ba1d 9e2a dbd4 d75a 0206 cddd b0e3 c451
000000e0: 2757 4223 81e3 a8f1 0c45 b74c 14fb 7fdf
000000f0: 150a e167 021a 81a2 4bb3 dcc7 f615 bf81

NeutronMicrocode u1 [620]
110 77 67 100 145 44 123 145
22 2 0 0 0 0 0 0
22 2 0 0 12 0 0 0
108 2 0 0 180 22 0 0
1 0 0 0 128 73 0 0
0 0 0 0 2 0 0 0
1 0 0 0 5 0 0 0
197 5 0 0 0 0 0 0
3 5 5 0 2 2 2 0
2 37 192 36 0 0 0 0
0 0 192 0 0 0 0 0
0 0 96 0 0 0 1 0
0 0 14 0 0 0 14 0
0 0 48 0 0 0 48 0
0 0 1 0 0 0 14 0
0 0 14 0 0 0 48 0
0 0 1 0 0 0 1 0
0 0 1 0 0 0 1 0
0 0 0 0 0 0 0 0
0 0 0 0 0 0 0 0
0 0 1 0 0 0 1 0
0 0 16 1 15 7 0 0
0 0 0 0 0 0 1 0
0 0 1 0 0 0 128 255
255 255 48 128 0 0 0 0
0 0 0 0 0 0 0 0
0 0 0 0 0 0 5 37
3 5 5 5 2 2 2 0
2 25 0 0 0 0 192 36
0 0 64 11 0 0 192 9
0 0 224 10 0 0 1 0
0 0 14 0 0 0 14 0
00000000: 6e4d 4364 912c 7b91 1602 0000 0000 0000
00000010: 1602 0000 0c00 0000 6c02 0000 b416 0000
00000020: 0100 0000 8049 0000 0000 0000 0200 0000
00000030: 0100 0000 0500 0000 c505 0000 0000 0000
00000040: 0305 0500 0202 0200 0225 c024 0000 0000
00000050: 0000 c000 0000 0000 0000 6000 0000 0100
00000060: 0000 0e00 0000 0e00 0000 3000 0000 3000
00000070: 0000 0100 0000 0e00 0000 0e00 0000 3000
00000080: 0000 0100 0000 0100 0000 0100 0000 0100
00000090: 0000 0000 0000 0000 0000 0000 0000 0000
000000a0: 0000 0100 0000 0100 0000 1001 0f07 0000
000000b0: 0000 0000 0000 0100 0000 0100 0000 80ff
000000c0: ffff 3080 0000 0000 0000 0000 0000 0000
000000d0: 0000 0000 0000 0525 0305 0505 0202 0200
000000e0: 0219 0000 0000 c024 0000 400b 0000 c009
000000f0: 0000 e00a 0000 0100 0000 0e00 0000 0e00

NeutronWeights u1 [5812]
36 10 104 22 170 19 204 22
150 138 36 150 17 27 10 154
108 23 118 19 77 154 166 142
83 11 225 27 86 22 253 150
206 142 132 150 218 26 161 11
152 22 27 158 79 18 227 23
82 22 168 131 221 23 51 30
54 22 14 0 131 143 86 23
236 155 206 22 10 26 53 19
213 26 150 26 191 27 175 10
93 19 185 11 218 22 161 22
32 1 240 147 129 26 25 154
153 71 87 71 84 70 20 71
83 71 95 70 130 70 187 67
138 70 69 71 80 70 56 66
240 70 255 70 110 70 208 71
150 70 34 70 150 70 111 70
103 70 50 71 105 70 140 71
196 70 231 71 19 71 169 75
196 70 149 71 23 66 194 70
150 70 161 70 0 70 190 70
72 75 105 71 241 75 114 75
38 70 226 75 211 75 214 70
18 70 36 70 142 70 116 71
226 87 205 243 162 53 23 127
238 21 66 224 182 26 127 18
44 129 36 36 243 243 206 16
226 218 239 202 248 193 242 24
245 246 28 221 36 232 213 224
14 13 62 182 193 3 252 245
7 76 238 252 247 1 145 40
234 6 198 237 14 15 1 246
00000000: 240a 6816 aa13 cc16 968a 2496 111b 0a9a
00000010: 6c17 7613 4d9a a68e 530b e11b 5616 fd96
00000020: ce8e 8496 da1a a10b 9816 1b9e 4f12 e317
00000030: 5216 a883 dd17 331e 3616 0e00 838f 5617
00000040: ec9b ce16 0a1a 3513 d51a 961a bf1b af0a
00000050: 5d13 b90b da16 a116 2001 f093 811a 199a
00000060: 9947 5747 5446 1447 5347 5f46 8246 bb43
00000070: 8a46 4547 5046 3842 f046 ff46 6e46 d047
00000080: 9646 2246 9646 6f46 6746 3247 6946 8c47
00000090: c446 e747 1347 a94b c446 9547 1742 c246
000000a0: 9646 a146 0046 be46 484b 6947 f14b 724b
000000b0: 2646 e24b d34b d646 1246 2446 8e46 7447
000000c0: e257 cdf3 a235 177f ee15 42e0 b61a 7f12
000000d0: 2c81 2424 f3f3 ce10 e2da efca f8c1 f218
000000e0: f5f6 1cdd 24e8 d5e0 0e0d 3eb6 c103 fcf5
000000f0: 074c eefc f701 9128 ea06 c6ed 0e0f 01f6

NeutronMicrocode u1 [172]
110 77 67 100 145 44 123 145
86 0 0 0 0 0 0 0
86 0 0 0 12 0 0 0
172 0 0 0 8 0 0 0
1 0 0 0 0 0 0 0
0 0 0 0 1 0 0 0
2 0 0 0 2 0 0 0
93 10 0 0 0 0 0 0
3 3 2 0 1 0 2 86
0 0 0 0 0 0 0 0
0 0 0 0 2 0 0 0
192 36 0 0 1 0 0 0
16 1 1 64 32 0 1 0
5 86 3 3 3 0 1 0
2 86 0 0 0 0 0 0
0 0 4 0 0 0 2 0
0 0 192 36 0 0 1 0
0 0 16 1 1 64 32 0
1 0 5 86 1 0 0 0
0 0 0 0 0 0 0 0
128 73 0 0 192 36 0 0
192 36 0 0
00000000: 6e4d 4364 912c 7b91 5600 0000 0000 0000
00000010: 5600 0000 0c00 0000 ac00 0000 0800 0000
00000020: 0100 0000 0000 0000 0000 0000 0100 0000
00000030: 0200 0000 0200 0000 5d0a 0000 0000 0000
00000040: 0303 0200 0100 0256 0000 0000 0000 0000
00000050: 0000 0000 0200 0000 c024 0000 0100 0000
00000060: 1001 0140 2000 0100 0556 0303 0300 0100
00000070: 0256 0000 0000 0000 0000 0400 0000 0200
00000080: 0000 c024 0000 0100 0000 1001 0140 2000
00000090: 0100 0556 0100 0000 0000 0000 0000 0000
000000a0: 8049 0000 c024 0000 c024 0000

NeutronWeights u1 [8]
0 0 0 0 1 0 0 0
00000000: 0000 0000 0100 0000

NeutronMicrocode u1 [1256]
110 77 67 100 145 44 123 145
142 4 0 0 0 0 0 0
142 4 0 0 24 0 0 0
232 4 0 0 48 119 0 0
1 0 0 0 0 185 1 0
0 0 0 0 4 0 0 0
2 0 0 0 12 0 0 0
69 15 0 0 0 0 0 0
3 5 8 0 4 4 13 0
2 25 64 148 1 0 0 0
0 0 96 0 0 0 0 0
0 0 0 0 0 0 1 0
0 0 14 0 0 0 14 0
0 0 48 0 0 0 48 0
0 0 1 0 0 0 30 0
0 0 30 0 0 0 48 0
0 0 3 0 0 0 3 0
0 0 2 0 0 0 2 0
0 0 0 0 0 0 0 0
0 0 0 0 0 0 0 0
0 0 1 0 0 0 1 0
0 0 16 1 15 7 0 0
0 0 0 0 0 0 1 0
0 0 1 0 0 0 128 255
255 255 48 128 199 49 0 0
0 0 0 0 0 0 0 0
0 0 0 0 0 0 5 25
3 5 8 1 4 4 4 0
2 37 96 18 0 0 0 0
0 0 144 3 0 0 16 2
0 0 208 2 0 0 1 0
0 0 7 0 0 0 7 0
00000000: 6e4d 4364 912c 7b91 8e04 0000 0000 0000
00000010: 8e04 0000 1800 0000 e804 0000 3077 0000
00000020: 0100 0000 00b9 0100 0000 0000 0400 0000
00000030: 0200 0000 0c00 0000 450f 0000 0000 0000
00000040: 0305 0800 0404 0d00 0219 4094 0100 0000
00000050: 0000 6000 0000 0000 0000 0000 0000 0100
00000060: 0000 0e00 0000 0e00 0000 3000 0000 3000
00000070: 0000 0100 0000 1e00 0000 1e00 0000 3000
00000080: 0000 0300 0000 0300 0000 0200 0000 0200
00000090: 0000 0000 0000 0000 0000 0000 0000 0000
000000a0: 0000 0100 0000 0100 0000 1001 0f07 0000
000000b0: 0000 0000 0000 0100 0000 0100 0000 80ff
000000c0: ffff 3080 c731 0000 0000 0000 0000 0000
000000d0: 0000 0000 0000 0519 0305 0801 0404 0400
000000e0: 0225 6012 0000 0000 0000 9003 0000 1002
000000f0: 0000 d002 0000 0100 0000 0700 0000 0700

NeutronWeights u1 [30512]
64 6 64 6 64 6 64 6
64 6 64 6 64 6 64 6
64 6 64 6 64 6 64 6
64 6 64 6 64 6 64 6
64 6 64 6 64 6 64 6
64 6 64 6 64 6 64 6
64 6 64 6 64 6 64 6
64 6 64 6 64 6 64 6
64 6 64 6 64 6 64 6
64 6 64 6 64 6 64 6
64 6 64 6 64 6 64 6
64 6 64 6 64 6 64 6
1 1 1 1 1 1 1 1
1 1 1 1 1 1 1 1
1 1 1 1 1 1 1 1
1 1 1 1 1 1 1 1
1 1 1 1 1 1 1 1
1 1 1 1 1 1 1 1
1 1 1 1 1 1 1 1
1 1 1 1 1 1 1 1
1 1 1 1 1 1 1 1
1 1 1 1 1 1 1 1
1 1 1 1 1 1 1 1
1 1 1 1 1 1 1 1
1 1 1 1 1 1 1 1
1 1 1 1 1 1 1 1
1 1 1 1 1 1 1 1
1 1 1 1 1 1 1 1
1 1 1 1 1 1 1 1
1 1 1 1 1 1 1 1
1 1 1 1 1 1 1 1
1 1 1 1 1 1 1 1
00000000: 4006 4006 4006 4006 4006 4006 4006 4006
00000010: 4006 4006 4006 4006 4006 4006 4006 4006
00000020: 4006 4006 4006 4006 4006 4006 4006 4006
00000030: 4006 4006 4006 4006 4006 4006 4006 4006
00000040: 4006 4006 4006 4006 4006 4006 4006 4006
00000050: 4006 4006 4006 4006 4006 4006 4006 4006
00000060: 0101 0101 0101 0101 0101 0101 0101 0101
00000070: 0101 0101 0101 0101 0101 0101 0101 0101
00000080: 0101 0101 0101 0101 0101 0101 0101 0101
00000090: 0101 0101 0101 0101 0101 0101 0101 0101
000000a0: 0101 0101 0101 0101 0101 0101 0101 0101
000000b0: 0101 0101 0101 0101 0101 0101 0101 0101
000000c0: 0101 0101 0101 0101 0101 0101 0101 0101
000000d0: 0101 0101 0101 0101 0101 0101 0101 0101
000000e0: 0101 0101 0101 0101 0101 0101 0101 0101
000000f0: 0101 0101 0101 0101 0101 0101 0101 0101

NeutronMicrocode u1 [620]
110 77 67 100 145 44 123 145
22 2 0 0 0 0 0 0
22 2 0 0 12 0 0 0
108 2 0 0 180 22 0 0
1 0 0 0 128 73 0 0
0 0 0 0 2 0 0 0
1 0 0 0 5 0 0 0
67 16 0 0 0 0 0 0
3 5 5 0 2 2 2 0
2 37 192 36 0 0 0 0
0 0 192 0 0 0 0 0
0 0 96 0 0 0 1 0
0 0 14 0 0 0 14 0
0 0 48 0 0 0 48 0
0 0 1 0 0 0 14 0
0 0 14 0 0 0 48 0
0 0 1 0 0 0 1 0
0 0 1 0 0 0 1 0
0 0 0 0 0 0 0 0
0 0 0 0 0 0 0 0
0 0 1 0 0 0 1 0
0 0 16 1 15 7 0 0
0 0 0 0 0 0 1 0
0 0 1 0 0 0 128 255
255 255 48 128 0 0 0 0
0 0 0 0 0 0 0 0
0 0 0 0 0 0 5 37
3 5 5 5 2 2 2 0
2 25 0 0 0 0 192 36
0 0 64 11 0 0 192 9
0 0 224 10 0 0 1 0
0 0 14 0 0 0 14 0
00000000: 6e4d 4364 912c 7b91 1602 0000 0000 0000
00000010: 1602 0000 0c00 0000 6c02 0000 b416 0000
00000020: 0100 0000 8049 0000 0000 0000 0200 0000
00000030: 0100 0000 0500 0000 4310 0000 0000 0000
00000040: 0305 0500 0202 0200 0225 c024 0000 0000
00000050: 0000 c000 0000 0000 0000 6000 0000 0100
00000060: 0000 0e00 0000 0e00 0000 3000 0000 3000
00000070: 0000 0100 0000 0e00 0000 0e00 0000 3000
00000080: 0000 0100 0000 0100 0000 0100 0000 0100
00000090: 0000 0000 0000 0000 0000 0000 0000 0000
000000a0: 0000 0100 0000 0100 0000 1001 0f07 0000
000000b0: 0000 0000 0000 0100 0000 0100 0000 80ff
000000c0: ffff 3080 0000 0000 0000 0000 0000 0000
000000d0: 0000 0000 0000 0525 0305 0505 0202 0200
000000e0: 0219 0000 0000 c024 0000 400b 0000 c009
000000f0: 0000 e00a 0000 0100 0000 0e00 0000 0e00

NeutronWeights u1 [5812]
24 18 17 26 13 26 221 26
101 151 2 151 107 154 159 155
195 10 61 154 51 22 221 27
186 154 125 154 48 150 98 147
110 30 135 27 248 151 105 154
250 154 71 7 54 2 91 31
211 162 128 154 220 155 165 146
209 14 199 10 86 30 65 158
153 158 208 27 129 18 24 150
10 26 110 151 39 27 210 30
96 18 153 155 202 31 127 22
239 26 24 150 57 159 49 155
41 75 141 74 39 70 206 74
9 70 21 71 236 75 4 75
115 74 241 70 246 70 233 74
122 71 55 70 22 75 108 70
148 75 120 74 59 75 46 70
0 70 57 75 242 70 74 74
126 75 61 74 137 75 35 70
41 66 204 70 75 75 120 70
88 70 68 74 140 75 210 70
6 70 175 71 155 74 6 74
135 75 129 75 232 75 199 74
195 75 203 70 13 70 114 75
253 28 219 255 45 199 39 27
2 82 4 26 127 28 17 32
228 178 247 48 12 249 236 55
241 48 215 149 238 222 175 243
5 255 221 212 49 8 42 121
8 52 229 10 229 247 227 186
239 186 222 247 237 4 247 7
17 30 24 32 242 18 218 254
00000000: 1812 111a 0d1a dd1a 6597 0297 6b9a 9f9b
00000010: c30a 3d9a 3316 dd1b ba9a 7d9a 3096 6293
00000020: 6e1e 871b f897 699a fa9a 4707 3602 5b1f
00000030: d3a2 809a dc9b a592 d10e c70a 561e 419e
00000040: 999e d01b 8112 1896 0a1a 6e97 271b d21e
00000050: 6012 999b ca1f 7f16 ef1a 1896 399f 319b
00000060: 294b 8d4a 2746 ce4a 0946 1547 ec4b 044b
00000070: 734a f146 f646 e94a 7a47 3746 164b 6c46
00000080: 944b 784a 3b4b 2e46 0046 394b f246 4a4a
00000090: 7e4b 3d4a 894b 2346 2942 cc46 4b4b 7846
000000a0: 5846 444a 8c4b d246 0646 af47 9b4a 064a
000000b0: 874b 814b e84b c74a c34b cb46 0d46 724b
000000c0: fd1c dbff 2dc7 271b 0252 041a 7f1c 1120
000000d0: e4b2 f730 0cf9 ec37 f130 d795 eede aff3
000000e0: 05ff ddd4 3108 2a79 0834 e50a e5f7 e3ba
000000f0: efba def7 ed04 f707 111e 1820 f212 dafe

NeutronMicrocode u1 [172]
110 77 67 100 145 44 123 145
86 0 0 0 0 0 0 0
86 0 0 0 12 0 0 0
172 0 0 0 8 0 0 0
1 0 0 0 0 0 0 0
0 0 0 0 1 0 0 0
2 0 0 0 2 0 0 0
219 20 0 0 0 0 0 0
3 3 2 0 1 0 2 86
0 0 0 0 0 0 0 0
0 0 0 0 2 0 0 0
192 36 0 0 1 0 0 0
16 1 1 64 32 0 1 0
5 86 3 3 3 0 1 0
2 86 0 0 0 0 0 0
0 0 4 0 0 0 2 0
0 0 192 36 0 0 1 0
0 0 16 1 1 64 32 0
1 0 5 86 1 0 0 0
0 0 0 0 0 0 0 0
128 73 0 0 192 36 0 0
192 36 0 0
00000000: 6e4d 4364 912c 7b91 5600 0000 0000 0000
00000010: 5600 0000 0c00 0000 ac00 0000 0800 0000
00000020: 0100 0000 0000 0000 0000 0000 0100 0000
00000030: 0200 0000 0200 0000 db14 0000 0000 0000
00000040: 0303 0200 0100 0256 0000 0000 0000 0000
00000050: 0000 0000 0200 0000 c024 0000 0100 0000
00000060: 1001 0140 2000 0100 0556 0303 0300 0100
00000070: 0256 0000 0000 0000 0000 0400 0000 0200
00000080: 0000 c024 0000 0100 0000 1001 0140 2000
00000090: 0100 0556 0100 0000 0000 0000 0000 0000
000000a0: 8049 0000 c024 0000 c024 0000

NeutronWeights u1 [8]
0 0 0 0 1 0 0 0
00000000: 0000 0000 0100 0000

NeutronMicrocode u1 [1072]
110 77 67 100 145 44 123 145
222 3 0 0 0 0 0 0
222 3 0 0 16 0 0 0
48 4 0 0 44 29 0 0
1 0 0 0 192 183 0 0
0 0 0 0 2 0 0 0
2 0 0 0 8 0 0 0
83 23 0 0 0 0 0 0
3 5 6 0 2 2 2 0
2 37 128 73 0 0 0 0
0 0 96 0 0 0 0 0
0 0 48 0 0 0 1 0
0 0 28 0 0 0 28 0
0 0 24 0 0 0 24 0
0 0 1 0 0 0 28 0
0 0 28 0 0 0 24 0
0 0 1 0 0 0 1 0
0 0 1 0 0 0 1 0
0 0 0 0 0 0 0 0
0 0 0 0 0 0 0 0
0 0 1 0 0 0 1 0
0 0 16 1 15 7 0 0
0 0 0 0 0 0 1 0
0 0 1 0 0 0 128 255
255 255 48 128 0 0 0 0
0 0 0 0 0 0 0 0
0 0 0 0 0 0 5 37
3 5 6 6 2 2 2 0
2 25 0 0 0 0 128 73
0 0 96 3 0 0 160 2
0 0 48 3 0 0 1 0
0 0 28 0 0 0 28 0
00000000: 6e4d 4364 912c 7b91 de03 0000 0000 0000
00000010: de03 0000 1000 0000 3004 0000 2c1d 0000
00000020: 0100 0000 c0b7 0000 0000 0000 0200 0000
00000030: 0200 0000 0800 0000 5317 0000 0000 0000
00000040: 0305 0600 0202 0200 0225 8049 0000 0000
00000050: 0000 6000 0000 0000 0000 3000 0000 0100
00000060: 0000 1c00 0000 1c00 0000 1800 0000 1800
00000070: 0000 0100 0000 1c00 0000 1c00 0000 1800
00000080: 0000 0100 0000 0100 0000 0100 0000 0100
00000090: 0000 0000 0000 0000 0000 0000 0000 0000
000000a0: 0000 0100 0000 0100 0000 1001 0f07 0000
000000b0: 0000 0000 0000 0100 0000 0100 0000 80ff
000000c0: ffff 3080 0000 0000 0000 0000 0000 0000
000000d0: 0000 0000 0000 0525 0305 0606 0202 0200
000000e0: 0219 0000 0000 8049 0000 6003 0000 a002
000000f0: 0000 3003 0000 0100 0000 1c00 0000 1c00

NeutronWeights u1 [7468]
178 154 50 147 33 18 24 146
199 22 30 7 193 26 84 15
150 151 190 138 180 150 40 150
198 150 81 22 12 158 45 18
10 26 62 23 129 22 14 147
104 154 9 146 44 150 40 23
136 78 110 71 155 75 158 79
40 74 126 74 158 74 107 75
164 74 28 79 106 74 19 74
195 74 130 79 81 79 75 75
109 70 62 70 68 79 238 74
34 74 134 79 129 74 217 74
19 154 22 197 129 4 250 255
127 7 12 253 4 88 71 67
11 6 5 230 3 178 215 226
252 209 76 3 2 251 252 127
224 127 14 245 2 10 241 255
251 2 247 7 93 129 85 36
211 55 242 251 224 102 230 235
238 28 127 29 178 23 244 6
24 236 37 249 6 7 247 255
248 253 245 248 236 223 26 215
13 1 47 238 254 6 62 253
45 4 212 10 233 248 11 244
192 192 202 213 253 10 0 253
252 253 250 244 13 141 187 1
44 225 219 242 193 84 47 205
20 14 25 27 234 2 250 3
192 237 45 207 252 9 254 252
248 254 2 255 252 44 188 242
41 25 228 186 194 235 127 227
17 19 15 2 255 254 22 250
00000000: b29a 3293 2112 1892 c716 1e07 c11a 540f
00000010: 9697 be8a b496 2896 c696 5116 0c9e 2d12
00000020: 0a1a 3e17 8116 0e93 689a 0992 2c96 2817
00000030: 884e 6e47 9b4b 9e4f 284a 7e4a 9e4a 6b4b
00000040: a44a 1c4f 6a4a 134a c34a 824f 514f 4b4b
00000050: 6d46 3e46 444f ee4a 224a 864f 814a d94a
00000060: 139a 16c5 8104 faff 7f07 0cfd 0458 4743
00000070: 0b06 05e6 03b2 d7e2 fcd1 4c03 02fb fc7f
00000080: e07f 0ef5 020a f1ff fb02 f707 5d81 5524
00000090: d337 f2fb e066 e6eb ee1c 7f1d b217 f406
000000a0: 18ec 25f9 0607 f7ff f8fd f5f8 ecdf 1ad7
000000b0: 0d01 2fee fe06 3efd 2d04 d40a e9f8 0bf4
000000c0: c0c0 cad5 fd0a 00fd fcfd faf4 0d8d bb01
000000d0: 2ce1 dbf2 c154 2fcd 140e 191b ea02 fa03
000000e0: c0ed 2dcf fc09 fefc f8fe 02ff fc2c bcf2
000000f0: 2919 e4ba c2eb 7fe3 1113 0f02 fffe 16fa

NeutronMicrocode u1 [172]
110 77 67 100 145 44 123 145
86 0 0 0 0 0 0 0
86 0 0 0 12 0 0 0
172 0 0 0 8 0 0 0
1 0 0 0 0 0 0 0
0 0 0 0 1 0 0 0
2 0 0 0 2 0 0 0
235 27 0 0 0 0 0 0
3 3 2 0 1 0 2 86
0 0 0 0 0 0 0 0
0 0 0 0 2 0 0 0
192 36 0 0 1 0 0 0
16 1 1 64 32 0 1 0
5 86 3 3 3 0 1 0
2 86 0 0 0 0 0 0
0 0 4 0 0 0 2 0
0 0 192 36 0 0 1 0
0 0 16 1 1 64 32 0
1 0 5 86 1 0 0 0
0 0 0 0 0 0 0 0
128 73 0 0 192 36 0 0
192 36 0 0
00000000: 6e4d 4364 912c 7b91 5600 0000 0000 0000
00000010: 5600 0000 0c00 0000 ac00 0000 0800 0000
00000020: 0100 0000 0000 0000 0000 0000 0100 0000
00000030: 0200 0000 0200 0000 eb1b 0000 0000 0000
00000040: 0303 0200 0100 0256 0000 0000 0000 0000
00000050: 0000 0000 0200 0000 c024 0000 0100 0000
00000060: 1001 0140 2000 0100 0556 0303 0300 0100
00000070: 0256 0000 0000 0000 0000 0400 0000 0200
00000080: 0000 c024 0000 0100 0000 1001 0140 2000
00000090: 0100 0556 0100 0000 0000 0000 0000 0000
000000a0: 8049 0000 c024 0000 c024 0000

NeutronWeights u1 [8]
0 0 0 0 1 0 0 0
00000000: 0000 0000 0100 0000

NeutronMicrocode u1 [120]
110 77 67 100 145 44 123 145
44 0 0 0 0 0 0 0
44 0 0 0 8 0 0 0
120 0 0 0 4 0 0 0
1 0 0 0 0 0 0 0
0 0 0 0 1 0 0 0
1 0 0 0 1 0 0 0
248 27 0 0 0 0 0 0
3 3 2 0 1 0 2 75
0 0 0 0 0 0 0 0
0 0 0 0 196 0 0 0
4 0 0 0 1 0 0 0
16 1 1 0 32 0 1 0
5 75 1 0 0 0 0 0
16 3 0 0 196 0 0 0
00000000: 6e4d 4364 912c 7b91 2c00 0000 0000 0000
00000010: 2c00 0000 0800 0000 7800 0000 0400 0000
00000020: 0100 0000 0000 0000 0000 0000 0100 0000
00000030: 0100 0000 0100 0000 f81b 0000 0000 0000
00000040: 0303 0200 0100 024b 0000 0000 0000 0000
00000050: 0000 0000 c400 0000 0400 0000 0100 0000
00000060: 1001 0100 2000 0100 054b 0100 0000 0000
00000070: 1003 0000 c400 0000

NeutronMicrocode u1 [620]
110 77 67 100 145 44 123 145
22 2 0 0 0 0 0 0
22 2 0 0 12 0 0 0
108 2 0 0 220 6 0 0
1 0 0 0 0 147 0 0
0 0 0 0 2 0 0 0
1 0 0 0 5 0 0 0
4 30 0 0 0 0 0 0
3 5 5 0 2 2 2 0
2 37 128 73 0 0 0 0
0 0 96 0 0 0 0 0
0 0 48 0 0 0 1 0
0 0 28 0 0 0 28 0
0 0 24 0 0 0 24 0
0 0 1 0 0 0 28 0
0 0 28 0 0 0 24 0
0 0 1 0 0 0 1 0
0 0 1 0 0 0 1 0
0 0 0 0 0 0 0 0
0 0 0 0 0 0 0 0
0 0 1 0 0 0 1 0
0 0 16 1 15 7 0 0
0 0 0 0 0 0 1 0
0 0 1 0 0 0 128 255
255 255 48 128 0 0 0 0
0 0 0 0 0 0 0 0
0 0 0 0 0 0 5 37
3 5 5 5 2 2 2 0
2 25 0 0 0 0 128 73
0 0 96 3 0 0 160 2
0 0 48 3 0 0 1 0
0 0 28 0 0 0 28 0
00000000: 6e4d 4364 912c 7b91 1602 0000 0000 0000
00000010: 1602 0000 0c00 0000 6c02 0000 dc06 0000
00000020: 0100 0000 0093 0000 0000 0000 0200 0000
00000030: 0100 0000 0500 0000 041e 0000 0000 0000
00000040: 0305 0500 0202 0200 0225 8049 0000 0000
00000050: 0000 6000 0000 0000 0000 3000 0000 0100
00000060: 0000 1c00 0000 1c00 0000 1800 0000 1800
00000070: 0000 0100 0000 1c00 0000 1c00 0000 1800
00000080: 0000 0100 0000 0100 0000 0100 0000 0100
00000090: 0000 0000 0000 0000 0000 0000 0000 0000
000000a0: 0000 0100 0000 0100 0000 1001 0f07 0000
000000b0: 0000 0000 0000 0100 0000 0100 0000 80ff
000000c0: ffff 3080 0000 0000 0000 0000 0000 0000
000000d0: 0000 0000 0000 0525 0305 0505 0202 0200
000000e0: 0219 0000 0000 8049 0000 6003 0000 a002
000000f0: 0000 3003 0000 0100 0000 1c00 0000 1c00

NeutronWeights u1 [1756]
240 26 200 151 8 138 210 151
229 143 171 19 131 150 245 146
83 26 71 154 181 147 117 6
254 150 159 22 38 14 126 151
48 147 71 150 36 139 48 22
158 139 8 158 51 151 28 150
24 74 99 71 17 75 86 74
21 71 8 70 138 75 155 70
5 75 48 75 162 79 59 75
162 70 226 70 125 75 189 75
83 70 114 75 147 70 175 79
23 74 56 75 233 70 32 66
41 23 255 6 242 236 197 21
106 9 1 246 232 210 17 65
3 129 242 205 174 10 13 12
14 17 28 209 196 241 53 15
33 16 4 6 197 8 129 231
37 252 229 129 230 249 249 232
3 22 13 46 8 238 28 127
10 71 238 14 25 206 244 8
254 15 12 15 199 48 19 41
247 0 21 8 19 242 16 255
250 13 219 13 15 241 13 251
207 148 246 27 22 227 7 129
16 62 87 197 0 2 254 1
227 0 245 4 20 178 34 44
9 16 2 244 4 15 250 251
116 253 244 242 12 245 27 248
136 243 36 56 4 250 250 244
0 5 245 248 165 253 177 255
232 248 19 241 233 246 21 249
13 232 44 129 26 10 254 253
00000000: f01a c897 088a d297 e58f ab13 8396 f592
00000010: 531a 479a b593 7506 fe96 9f16 260e 7e97
00000020: 3093 4796 248b 3016 9e8b 089e 3397 1c96
00000030: 184a 6347 114b 564a 1547 0846 8a4b 9b46
00000040: 054b 304b a24f 3b4b a246 e246 7d4b bd4b
00000050: 5346 724b 9346 af4f 174a 384b e946 2042
00000060: 2917 ff06 f2ec c515 6a09 01f6 e8d2 1141
00000070: 0381 f2cd ae0a 0d0c 0e11 1cd1 c4f1 350f
00000080: 2110 0406 c508 81e7 25fc e581 e6f9 f9e8
00000090: 0316 0d2e 08ee 1c7f 0a47 ee0e 19ce f408
000000a0: fe0f 0c0f c730 1329 f700 1508 13f2 10ff
000000b0: fa0d db0d 0ff1 0dfb cf94 f61b 16e3 0781
000000c0: 103e 57c5 0002 fe01 e300 f504 14b2 222c
000000d0: 0910 02f4 040f fafb 74fd f4f2 0cf5 1bf8
000000e0: 88f3 2438 04fa faf4 0005 f5f8 a5fd b1ff
000000f0: e8f8 13f1 e9f6 15f9 0de8 2c81 1a0a fefd

NeutronMicrocode u1 [172]
110 77 67 100 145 44 123 145
86 0 0 0 0 0 0 0
86 0 0 0 12 0 0 0
172 0 0 0 8 0 0 0
1 0 0 0 0 0 0 0
0 0 0 0 1 0 0 0
2 0 0 0 2 0 0 0
156 34 0 0 0 0 0 0
3 3 2 0 1 0 2 86
0 0 0 0 0 0 0 0
0 0 0 0 2 0 0 0
192 36 0 0 1 0 0 0
16 1 1 64 32 0 1 0
5 86 3 3 3 0 1 0
2 86 0 0 0 0 0 0
0 0 4 0 0 0 2 0
0 0 192 36 0 0 1 0
0 0 16 1 1 64 32 0
1 0 5 86 1 0 0 0
0 0 0 0 0 0 0 0
128 73 0 0 192 36 0 0
192 36 0 0
00000000: 6e4d 4364 912c 7b91 5600 0000 0000 0000
00000010: 5600 0000 0c00 0000 ac00 0000 0800 0000
00000020: 0100 0000 0000 0000 0000 0000 0100 0000
00000030: 0200 0000 0200 0000 9c22 0000 0000 0000
00000040: 0303 0200 0100 0256 0000 0000 0000 0000
00000050: 0000 0000 0200 0000 c024 0000 0100 0000
00000060: 1001 0140 2000 0100 0556 0303 0300 0100
00000070: 0256 0000 0000 0000 0000 0400 0000 0200
00000080: 0000 c024 0000 0100 0000 1001 0140 2000
00000090: 0100 0556 0100 0000 0000 0000 0000 0000
000000a0: 8049 0000 c024 0000 c024 0000

NeutronWeights u1 [8]
0 0 0 0 1 0 0 0
00000000: 0000 0000 0100 0000

NeutronMicrocode u1 [172]
110 77 67 100 145 44 123 145
86 0 0 0 0 0 0 0
86 0 0 0 12 0 0 0
172 0 0 0 8 0 0 0
1 0 0 0 0 0 0 0
0 0 0 0 1 0 0 0
2 0 0 0 2 0 0 0
204 43 0 0 0 0 0 0
3 3 2 0 1 0 2 86
0 0 0 0 0 0 0 0
0 0 0 0 2 0 0 0
128 73 0 0 1 0 0 0
16 1 1 64 32 0 1 0
5 86 3 3 3 0 1 0
2 86 0 0 0 0 0 0
0 0 4 0 0 0 2 0
0 0 128 73 0 0 1 0
0 0 16 1 1 64 32 0
1 0 5 86 1 0 0 0
0 0 0 0 0 0 0 0
0 147 0 0 128 73 0 0
128 73 0 0
00000000: 6e4d 4364 912c 7b91 5600 0000 0000 0000
00000010: 5600 0000 0c00 0000 ac00 0000 0800 0000
00000020: 0100 0000 0000 0000 0000 0000 0100 0000
00000030: 0200 0000 0200 0000 cc2b 0000 0000 0000
00000040: 0303 0200 0100 0256 0000 0000 0000 0000
00000050: 0000 0000 0200 0000 8049 0000 0100 0000
00000060: 1001 0140 2000 0100 0556 0303 0300 0100
00000070: 0256 0000 0000 0000 0000 0400 0000 0200
00000080: 0000 8049 0000 0100 0000 1001 0140 2000
00000090: 0100 0556 0100 0000 0000 0000 0000 0000
000000a0: 0093 0000 8049 0000 8049 0000

NeutronWeights u1 [8]
0 0 0 0 1 0 0 0
00000000: 0000 0000 0100 0000

NeutronMicrocode u1 [620]
110 77 67 100 145 44 123 145
22 2 0 0 0 0 0 0
22 2 0 0 12 0 0 0
108 2 0 0 180 22 0 0
1 0 0 0 128 73 0 0
0 0 0 0 2 0 0 0
1 0 0 0 5 0 0 0
202 44 0 0 0 0 0 0
3 5 5 0 2 2 2 0
2 37 192 36 0 0 0 0
0 0 192 0 0 0 0 0
0 0 96 0 0 0 1 0
0 0 14 0 0 0 14 0
0 0 48 0 0 0 48 0
0 0 1 0 0 0 14 0
0 0 14 0 0 0 48 0
0 0 1 0 0 0 1 0
0 0 1 0 0 0 1 0
0 0 0 0 0 0 0 0
0 0 0 0 0 0 0 0
0 0 1 0 0 0 1 0
0 0 16 1 15 7 0 0
0 0 0 0 0 0 1 0
0 0 1 0 0 0 128 255
255 255 48 128 0 0 0 0
0 0 0 0 0 0 0 0
0 0 0 0 0 0 5 37
3 5 5 5 2 2 2 0
2 25 0 0 0 0 192 36
0 0 64 11 0 0 192 9
0 0 224 10 0 0 1 0
0 0 14 0 0 0 14 0
00000000: 6e4d 4364 912c 7b91 1602 0000 0000 0000
00000010: 1602 0000 0c00 0000 6c02 0000 b416 0000
00000020: 0100 0000 8049 0000 0000 0000 0200 0000
00000030: 0100 0000 0500 0000 ca2c 0000 0000 0000
00000040: 0305 0500 0202 0200 0225 c024 0000 0000
00000050: 0000 c000 0000 0000 0000 6000 0000 0100
00000060: 0000 0e00 0000 0e00 0000 3000 0000 3000
00000070: 0000 0100 0000 0e00 0000 0e00 0000 3000
00000080: 0000 0100 0000 0100 0000 0100 0000 0100
00000090: 0000 0000 0000 0000 0000 0000 0000 0000
000000a0: 0000 0100 0000 0100 0000 1001 0f07 0000
000000b0: 0000 0000 0000 0100 0000 0100 0000 80ff
000000c0: ffff 3080 0000 0000 0000 0000 0000 0000
000000d0: 0000 0000 0000 0525 0305 0505 0202 0200
000000e0: 0219 0000 0000 c024 0000 400b 0000 c009
000000f0: 0000 e00a 0000 0100 0000 0e00 0000 0e00

NeutronWeights u1 [5812]
61 154 209 27 136 150 191 23
129 27 207 138 247 146 43 134
247 147 24 15 32 22 103 150
130 22 166 143 14 27 14 18
1 146 212 146 179 130 73 23
172 146 212 23 251 151 54 30
1 26 240 22 109 23 105 30
42 19 196 22 1 138 132 22
166 22 160 146 148 26 41 26
19 15 43 27 138 151 69 27
235 22 59 151 178 143 232 6
71 143 48 26 112 22 113 11
70 78 213 74 96 75 129 78
165 78 97 70 228 74 245 79
54 75 6 75 33 74 71 78
240 75 118 71 178 79 49 71
29 70 205 74 3 75 215 74
81 79 174 74 236 79 199 79
18 74 21 74 167 78 105 74
223 75 104 79 87 74 94 70
75 74 12 75 40 74 44 75
119 78 170 83 149 75 17 75
57 74 147 75 143 75 127 75
31 74 170 74 10 75 136 74
244 110 180 227 15 64 42 9
242 6 41 3 129 6 215 14
27 219 127 249 247 129 5 244
2 10 195 225 40 240 135 233
238 202 50 26 23 66 186 32
40 253 34 240 1 209 209 34
252 40 48 31 15 5 204 19
157 18 207 230 18 57 65 210
00000000: 3d9a d11b 8896 bf17 811b cf8a f792 2b86
00000010: f793 180f 2016 6796 8216 a68f 0e1b 0e12
00000020: 0192 d492 b382 4917 ac92 d417 fb97 361e
00000030: 011a f016 6d17 691e 2a13 c416 018a 8416
00000040: a616 a092 941a 291a 130f 2b1b 8a97 451b
00000050: eb16 3b97 b28f e806 478f 301a 7016 710b
00000060: 464e d54a 604b 814e a54e 6146 e44a f54f
00000070: 364b 064b 214a 474e f04b 7647 b24f 3147
00000080: 1d46 cd4a 034b d74a 514f ae4a ec4f c74f
00000090: 124a 154a a74e 694a df4b 684f 574a 5e46
000000a0: 4b4a 0c4b 284a 2c4b 774e aa53 954b 114b
000000b0: 394a 934b 8f4b 7f4b 1f4a aa4a 0a4b 884a
000000c0: f46e b4e3 0f40 2a09 f206 2903 8106 d70e
000000d0: 1bdb 7ff9 f781 05f4 020a c3e1 28f0 87e9
000000e0: eeca 321a 1742 ba20 28fd 22f0 01d1 d122
000000f0: fc28 301f 0f05 cc13 9d12 cfe6 1239 41d2

NeutronMicrocode u1 [1048]
110 77 67 100 145 44 123 145
196 3 0 0 0 0 0 0
196 3 0 0 8 0 0 0
24 4 0 0 212 14 0 0
1 0 0 0 248 137 5 0
0 0 0 0 1 0 0 0
1 0 0 0 9 0 0 0
86 48 0 0 0 0 0 0
3 5 4 0 1 1 1 0
2 7 0 0 0 0 0 0
0 0 96 0 0 0 0 0
0 0 48 0 0 0 1 0
0 0 110 0 0 0 110 0
0 0 24 0 0 0 24 0
0 0 1 0 0 0 220 0
0 0 220 0 0 0 3 0
0 0 3 0 0 0 3 0
0 0 2 0 0 0 2 0
0 0 1 0 0 0 1 0
0 0 1 0 0 0 1 0
0 0 1 0 0 0 1 0
0 0 16 1 15 7 0 0
0 0 0 0 0 0 1 0
0 0 1 0 0 0 241 255
255 255 48 128 0 0 0 0
0 0 0 0 0 0 0 0
0 0 0 0 0 0 5 7
3 2 4 4 2 51 96 110
4 0 0 0 0 0 1 0
0 0 55 0 0 0 55 0
0 0 24 0 0 0 24 0
0 0 1 0 0 0 110 0
00000000: 6e4d 4364 912c 7b91 c403 0000 0000 0000
00000010: c403 0000 0800 0000 1804 0000 d40e 0000
00000020: 0100 0000 f889 0500 0000 0000 0100 0000
00000030: 0100 0000 0900 0000 5630 0000 0000 0000
00000040: 0305 0400 0101 0100 0207 0000 0000 0000
00000050: 0000 6000 0000 0000 0000 3000 0000 0100
00000060: 0000 6e00 0000 6e00 0000 1800 0000 1800
00000070: 0000 0100 0000 dc00 0000 dc00 0000 0300
00000080: 0000 0300 0000 0300 0000 0200 0000 0200
00000090: 0000 0100 0000 0100 0000 0100 0000 0100
000000a0: 0000 0100 0000 0100 0000 1001 0f07 0000
000000b0: 0000 0000 0000 0100 0000 0100 0000 f1ff
000000c0: ffff 3080 0000 0000 0000 0000 0000 0000
000000d0: 0000 0000 0000 0507 0302 0404 0233 606e
000000e0: 0400 0000 0000 0100 0000 3700 0000 3700
000000f0: 0000 1800 0000 1800 0000 0100 0000 6e00

NeutronWeights u1 [3796]
125 19 174 15 73 15 3 15
130 3 62 22 59 2 203 151
101 3 120 7 73 11 75 190
121 18 24 18 9 6 123 194
183 22 224 138 235 1 142 7
80 3 44 31 119 6 244 6
89 79 47 70 32 70 228 74
1 70 95 83 210 75 23 74
52 70 157 70 178 78 145 154
57 78 24 70 33 70 145 154
60 79 48 74 226 70 100 70
11 70 171 82 111 70 205 75
209 186 108 223 45 89 93 227
70 166 24 56 185 127 212 158
62 127 114 219 245 34 53 77
203 165 206 8 29 0 50 75
234 171 106 243 222 218 254 180
39 144 64 14 161 109 226 140
53 115 97 254 58 67 66 101
184 155 210 254 193 54 52 32
217 156 127 218 255 224 220 16
52 172 13 42 227 99 206 198
54 105 111 251 42 13 248 101
174 161 206 209 204 108 120 41
205 87 219 201 233 20 227 216
153 50 61 186 120 230 211 80
194 196 217 164 94 127 241 24
251 243 82 126 250 27 61 213
187 91 224 187 129 159 20 242
129 99 40 184 116 7 198 84
243 236 212 165 76 95 50 37
235 224 86 127 7 12 58 5
00000000: 7d13 ae0f 490f 030f 8203 3e16 3b02 cb97
00000010: 6503 7807 490b 4bbe 7912 1812 0906 7bc2
00000020: b716 e08a eb01 8e07 5003 2c1f 7706 f406
00000030: 594f 2f46 2046 e44a 0146 5f53 d24b 174a
00000040: 3446 9d46 b24e 919a 394e 1846 2146 919a
00000050: 3c4f 304a e246 6446 0b46 ab52 6f46 cd4b
00000060: d1ba 6cdf 2d59 5de3 46a6 1838 b97f d49e
00000070: 3e7f 72db f522 354d cba5 ce08 1d00 324b
00000080: eaab 6af3 deda feb4 2790 400e a16d e28c
00000090: 3573 61fe 3a43 4265 b89b d2fe c136 3420
000000a0: d99c 7fda ffe0 dc10 34ac 0d2a e363 cec6
000000b0: 3669 6ffb 2a0d f865 aea1 ced1 cc6c 7829
000000c0: cd57 dbc9 e914 e3d8 9932 3dba 78e6 d350
000000d0: c2c4 d9a4 5e7f f118 fbf3 527e fa1b 3dd5
000000e0: bb5b e0bb 819f 14f2 8163 28b8 7407 c654
000000f0: f3ec d4a5 4c5f 3225 ebe0 567f 070c 3a05

NeutronMicrocode u1 [620]
110 77 67 100 145 44 123 145
22 2 0 0 0 0 0 0
22 2 0 0 12 0 0 0
108 2 0 0 220 6 0 0
1 0 0 0 0 147 0 0
0 0 0 0 2 0 0 0
1 0 0 0 5 0 0 0
98 50 0 0 0 0 0 0
3 5 5 0 2 2 2 0
2 37 128 73 0 0 0 0
0 0 96 0 0 0 0 0
0 0 48 0 0 0 1 0
0 0 28 0 0 0 28 0
0 0 24 0 0 0 24 0
0 0 1 0 0 0 28 0
0 0 28 0 0 0 24 0
0 0 1 0 0 0 1 0
0 0 1 0 0 0 1 0
0 0 0 0 0 0 0 0
0 0 0 0 0 0 0 0
0 0 1 0 0 0 1 0
0 0 16 1 15 7 0 0
0 0 0 0 0 0 1 0
0 0 1 0 0 0 128 255
255 255 48 128 0 0 0 0
0 0 0 0 0 0 0 0
0 0 0 0 0 0 5 37
3 5 5 5 2 2 2 0
2 25 0 0 0 0 128 73
0 0 96 3 0 0 160 2
0 0 48 3 0 0 1 0
0 0 28 0 0 0 28 0
00000000: 6e4d 4364 912c 7b91 1602 0000 0000 0000
00000010: 1602 0000 0c00 0000 6c02 0000 dc06 0000
00000020: 0100 0000 0093 0000 0000 0000 0200 0000
00000030: 0100 0000 0500 0000 6232 0000 0000 0000
00000040: 0305 0500 0202 0200 0225 8049 0000 0000
00000050: 0000 6000 0000 0000 0000 3000 0000 0100
00000060: 0000 1c00 0000 1c00 0000 1800 0000 1800
00000070: 0000 0100 0000 1c00 0000 1c00 0000 1800
00000080: 0000 0100 0000 0100 0000 0100 0000 0100
00000090: 0000 0000 0000 0000 0000 0000 0000 0000
000000a0: 0000 0100 0000 0100 0000 1001 0f07 0000
000000b0: 0000 0000 0000 0100 0000 0100 0000 80ff
000000c0: ffff 3080 0000 0000 0000 0000 0000 0000
000000d0: 0000 0000 0000 0525 0305 0505 0202 0200
000000e0: 0219 0000 0000 8049 0000 6003 0000 a002
000000f0: 0000 3003 0000 0100 0000 1c00 0000 1c00

NeutronWeights u1 [1756]
199 30 51 146 117 0 55 10
146 6 49 143 150 143 133 146
240 22 33 18 148 19 106 155
228 10 24 26 41 22 104 11
171 134 131 150 68 150 239 22
183 150 131 143 179 15 128 143
114 75 247 75 190 71 105 74
134 74 155 70 12 75 62 70
200 71 161 74 221 71 103 71
208 70 17 74 3 70 245 74
51 74 50 66 189 74 17 75
29 70 92 70 19 74 96 74
239 75 127 70 38 129 67 13
255 248 236 241 227 8 3 240
228 244 234 3 246 231 12 245
248 250 30 22 19 16 253 251
39 39 11 30 193 12 159 45
22 6 127 200 244 250 30 222
204 251 14 16 2 227 5 127
230 8 228 241 226 11 243 1
31 222 21 243 70 172 180 111
246 16 193 8 218 190 55 213
127 253 201 60 176 113 169 226
129 238 3 205 129 27 225 167
92 246 211 245 248 250 14 2
246 232 250 249 244 129 3 79
18 5 20 252 6 241 243 13
1 249 0 1 1 5 5 244
11 22 124 92 18 240 254 39
16 253 9 252 254 244 0 111
0 231 235 249 241 2 254 238
255 245 16 17 12 13 11 0
00000000: c71e 3392 7500 370a 9206 318f 968f 8592
00000010: f016 2112 9413 6a9b e40a 181a 2916 680b
00000020: ab86 8396 4496 ef16 b796 838f b30f 808f
00000030: 724b f74b be47 694a 864a 9b46 0c4b 3e46
00000040: c847 a14a dd47 6747 d046 114a 0346 f54a
00000050: 334a 3242 bd4a 114b 1d46 5c46 134a 604a
00000060: ef4b 7f46 2681 430d fff8 ecf1 e308 03f0
00000070: e4f4 ea03 f6e7 0cf5 f8fa 1e16 1310 fdfb
00000080: 2727 0b1e c10c 9f2d 1606 7fc8 f4fa 1ede
00000090: ccfb 0e10 02e3 057f e608 e4f1 e20b f301
000000a0: 1fde 15f3 46ac b46f f610 c108 dabe 37d5
000000b0: 7ffd c93c b071 a9e2 81ee 03cd 811b e1a7
000000c0: 5cf6 d3f5 f8fa 0e02 f6e8 faf9 f481 034f
000000d0: 1205 14fc 06f1 f30d 01f9 0001 0105 05f4
000000e0: 0b16 7c5c 12f0 fe27 10fd 09fc fef4 006f
000000f0: 00e7 ebf9 f102 feee fff5 1011 0c0d 0b00

NeutronMicrocode u1 [620]
110 77 67 100 145 44 123 145
22 2 0 0 0 0 0 0
22 2 0 0 12 0 0 0
108 2 0 0 180 22 0 0
1 0 0 0 128 73 0 0
0 0 0 0 2 0 0 0
1 0 0 0 5 0 0 0
96 51 0 0 0 0 0 0
3 5 5 0 2 2 2 0
2 37 192 36 0 0 0 0
0 0 192 0 0 0 0 0
0 0 96 0 0 0 1 0
0 0 14 0 0 0 14 0
0 0 48 0 0 0 48 0
0 0 1 0 0 0 14 0
0 0 14 0 0 0 48 0
0 0 1 0 0 0 1 0
0 0 1 0 0 0 1 0
0 0 0 0 0 0 0 0
0 0 0 0 0 0 0 0
0 0 1 0 0 0 1 0
0 0 16 1 15 7 0 0
0 0 0 0 0 0 1 0
0 0 1 0 0 0 128 255
255 255 48 128 0 0 0 0
0 0 0 0 0 0 0 0
0 0 0 0 0 0 5 37
3 5 5 5 2 2 2 0
2 25 0 0 0 0 192 36
0 0 64 11 0 0 192 9
0 0 224 10 0 0 1 0
0 0 14 0 0 0 14 0
00000000: 6e4d 4364 912c 7b91 1602 0000 0000 0000
00000010: 1602 0000 0c00 0000 6c02 0000 b416 0000
00000020: 0100 0000 8049 0000 0000 0000 0200 0000
00000030: 0100 0000 0500 0000 6033 0000 0000 0000
00000040: 0305 0500 0202 0200 0225 c024 0000 0000
00000050: 0000 c000 0000 0000 0000 6000 0000 0100
00000060: 0000 0e00 0000 0e00 0000 3000 0000 3000
00000070: 0000 0100 0000 0e00 0000 0e00 0000 3000
00000080: 0000 0100 0000 0100 0000 0100 0000 0100
00000090: 0000 0000 0000 0000 0000 0000 0000 0000
000000a0: 0000 0100 0000 0100 0000 1001 0f07 0000
000000b0: 0000 0000 0000 0100 0000 0100 0000 80ff
000000c0: ffff 3080 0000 0000 0000 0000 0000 0000
000000d0: 0000 0000 0000 0525 0305 0505 0202 0200
000000e0: 0219 0000 0000 c024 0000 400b 0000 c009
000000f0: 0000 e00a 0000 0100 0000 0e00 0000 0e00

NeutronWeights u1 [5812]
227 23 24 154 146 23 210 22
130 150 51 23 110 14 24 19
199 15 70 11 16 26 141 138
45 155 106 22 180 23 137 11
78 27 12 143 38 18 216 146
99 27 0 151 195 19 207 27
240 18 142 22 123 26 17 26
252 19 82 151 31 26 214 18
178 23 135 26 65 22 16 22
252 158 192 22 65 34 158 154
100 30 111 22 62 15 240 23
179 150 35 138 183 18 42 19
111 82 59 74 151 74 127 74
153 79 184 75 169 75 170 74
156 74 83 74 67 74 195 75
23 74 23 79 48 74 96 75
44 74 29 75 66 78 78 75
119 74 175 74 183 74 10 75
16 74 245 75 171 79 128 74
47 75 142 79 221 74 220 74
94 74 175 83 104 75 42 79
191 74 112 75 122 83 26 75
166 78 126 74 158 74 51 79
59 75 190 83 65 75 32 75
35 17 195 192 239 205 243 255
127 229 208 4 226 21 248 17
14 225 230 227 0 4 58 27
0 17 252 6 29 242 25 51
220 255 215 29 155 48 159 212
247 142 247 234 11 127 186 74
34 12 247 229 212 33 52 127
9 7 4 252 60 179 150 129
00000000: e317 189a 9217 d216 8296 3317 6e0e 1813
00000010: c70f 460b 101a 8d8a 2d9b 6a16 b417 890b
00000020: 4e1b 0c8f 2612 d892 631b 0097 c313 cf1b
00000030: f012 8e16 7b1a 111a fc13 5297 1f1a d612
00000040: b217 871a 4116 1016 fc9e c016 4122 9e9a
00000050: 641e 6f16 3e0f f017 b396 238a b712 2a13
00000060: 6f52 3b4a 974a 7f4a 994f b84b a94b aa4a
00000070: 9c4a 534a 434a c34b 174a 174f 304a 604b
00000080: 2c4a 1d4b 424e 4e4b 774a af4a b74a 0a4b
00000090: 104a f54b ab4f 804a 2f4b 8e4f dd4a dc4a
000000a0: 5e4a af53 684b 2a4f bf4a 704b 7a53 1a4b
000000b0: a64e 7e4a 9e4a 334f 3b4b be53 414b 204b
000000c0: 2311 c3c0 efcd f3ff 7fe5 d004 e215 f811
000000d0: 0ee1 e6e3 0004 3a1b 0011 fc06 1df2 1933
000000e0: dcff d71d 9b30 9fd4 f78e f7ea 0b7f ba4a
000000f0: 220c f7e5 d421 347f 0907 04fc 3cb3 9681

NeutronMicrocode u1 [172]
110 77 67 100 145 44 123 145
86 0 0 0 0 0 0 0
86 0 0 0 12 0 0 0
172 0 0 0 8 0 0 0
1 0 0 0 0 0 0 0
0 0 0 0 1 0 0 0
2 0 0 0 2 0 0 0
248 55 0 0 0 0 0 0
3 3 2 0 1 0 2 86
0 0 0 0 0 0 0 0
0 0 0 0 2 0 0 0
192 36 0 0 1 0 0 0
16 1 1 64 32 0 1 0
5 86 3 3 3 0 1 0
2 86 0 0 0 0 0 0
0 0 4 0 0 0 2 0
0 0 192 36 0 0 1 0
0 0 16 1 1 64 32 0
1 0 5 86 1 0 0 0
0 0 0 0 0 0 0 0
128 73 0 0 192 36 0 0
192 36 0 0
00000000: 6e4d 4364 912c 7b91 5600 0000 0000 0000
00000010: 5600 0000 0c00 0000 ac00 0000 0800 0000
00000020: 0100 0000 0000 0000 0000 0000 0100 0000
00000030: 0200 0000 0200 0000 f837 0000 0000 0000
00000040: 0303 0200 0100 0256 0000 0000 0000 0000
00000050: 0000 0000 0200 0000 c024 0000 0100 0000
00000060: 1001 0140 2000 0100 0556 0303 0300 0100
00000070: 0256 0000 0000 0000 0000 0400 0000 0200
00000080: 0000 c024 0000 0100 0000 1001 0140 2000
00000090: 0100 0556 0100 0000 0000 0000 0000 0000
000000a0: 8049 0000 c024 0000 c024 0000

NeutronWeights u1 [8]
0 0 0 0 1 0 0 0
00000000: 0000 0000 0100 0000

NeutronMicrocode u1 [172]
110 77 67 100 145 44 123 145
86 0 0 0 0 0 0 0
86 0 0 0 12 0 0 0
172 0 0 0 8 0 0 0
1 0 0 0 0 0 0 0
0 0 0 0 1 0 0 0
2 0 0 0 2 0 0 0
40 65 0 0 0 0 0 0
3 3 2 0 1 0 2 86
0 0 0 0 0 0 0 0
0 0 0 0 2 0 0 0
128 73 0 0 1 0 0 0
16 1 1 64 32 0 1 0
5 86 3 3 3 0 1 0
2 86 0 0 0 0 0 0
0 0 4 0 0 0 2 0
0 0 128 73 0 0 1 0
0 0 16 1 1 64 32 0
1 0 5 86 1 0 0 0
0 0 0 0 0 0 0 0
0 147 0 0 128 73 0 0
128 73 0 0
00000000: 6e4d 4364 912c 7b91 5600 0000 0000 0000
00000010: 5600 0000 0c00 0000 ac00 0000 0800 0000
00000020: 0100 0000 0000 0000 0000 0000 0100 0000
00000030: 0200 0000 0200 0000 2841 0000 0000 0000
00000040: 0303 0200 0100 0256 0000 0000 0000 0000
00000050: 0000 0000 0200 0000 8049 0000 0100 0000
00000060: 1001 0140 2000 0100 0556 0303 0300 0100
00000070: 0256 0000 0000 0000 0000 0400 0000 0200
00000080: 0000 8049 0000 0100 0000 1001 0140 2000
00000090: 0100 0556 0100 0000 0000 0000 0000 0000
000000a0: 0093 0000 8049 0000 8049 0000

NeutronWeights u1 [8]
0 0 0 0 1 0 0 0
00000000: 0000 0000 0100 0000

NeutronMicrocode u1 [476]
110 77 67 100 145 44 123 145
134 1 0 0 0 0 0 0
134 1 0 0 12 0 0 0
220 1 0 0 52 12 0 0
1 0 0 0 128 73 0 0
0 0 0 0 2 0 0 0
1 0 0 0 4 0 0 0
192 65 0 0 0 0 0 0
3 5 5 0 2 2 2 0
2 25 0 0 0 0 0 0
0 0 192 0 0 0 0 0
0 0 96 0 0 0 1 0
0 0 14 0 0 0 14 0
0 0 48 0 0 0 48 0
0 0 1 0 0 0 30 0
0 0 30 0 0 0 48 0
0 0 3 0 0 0 3 0
0 0 2 0 0 0 2 0
0 0 0 0 0 0 0 0
0 0 0 0 0 0 0 0
0 0 1 0 0 0 1 0
0 0 16 1 15 7 0 0
0 0 0 0 0 0 1 0
0 0 1 0 0 0 128 255
255 255 48 14 0 0 0 0
0 0 0 0 0 0 0 0
0 0 0 0 0 0 5 25
3 5 5 5 2 2 2 0
2 37 192 36 0 0 0 0
0 0 48 3 0 0 112 2
0 0 208 2 0 0 1 0
0 0 14 0 0 0 14 0
00000000: 6e4d 4364 912c 7b91 8601 0000 0000 0000
00000010: 8601 0000 0c00 0000 dc01 0000 340c 0000
00000020: 0100 0000 8049 0000 0000 0000 0200 0000
00000030: 0100 0000 0400 0000 c041 0000 0000 0000
00000040: 0305 0500 0202 0200 0219 0000 0000 0000
00000050: 0000 c000 0000 0000 0000 6000 0000 0100
00000060: 0000 0e00 0000 0e00 0000 3000 0000 3000
00000070: 0000 0100 0000 1e00 0000 1e00 0000 3000
00000080: 0000 0300 0000 0300 0000 0200 0000 0200
00000090: 0000 0000 0000 0000 0000 0000 0000 0000
000000a0: 0000 0100 0000 0100 0000 1001 0f07 0000
000000b0: 0000 0000 0000 0100 0000 0100 0000 80ff
000000c0: ffff 300e 0000 0000 0000 0000 0000 0000
000000d0: 0000 0000 0000 0519 0305 0505 0202 0200
000000e0: 0225 c024 0000 0000 0000 3003 0000 7002
000000f0: 0000 d002 0000 0100 0000 0e00 0000 0e00

NeutronWeights u1 [3124]
9 158 226 27 96 26 231 154
87 155 140 155 187 30 138 30
159 158 107 158 15 30 4 30
118 158 116 30 248 155 144 30
92 30 127 158 96 158 182 30
187 155 152 158 101 30 36 30
131 158 108 30 109 10 103 30
188 23 72 30 208 30 12 30
238 27 151 27 35 30 9 30
197 158 225 26 75 30 86 158
141 158 136 155 104 30 99 26
179 30 252 155 14 158 142 22
14 78 68 78 139 79 77 78
128 78 62 83 236 82 73 83
0 87 50 83 37 83 83 83
158 83 213 87 244 87 165 82
246 83 160 82 136 82 89 87
198 82 18 82 36 87 85 87
221 82 67 78 26 87 114 83
155 83 10 78 43 83 174 83
66 83 174 82 224 82 202 82
6 82 149 87 158 83 136 82
174 82 7 83 198 82 111 82
78 82 111 82 113 82 117 82
239 25 1 241 185 55 53 233
174 18 23 224 247 70 5 237
129 127 127 129 150 59 80 168
235 23 255 245 194 80 76 152
177 62 40 171 243 217 39 61
1 230 98 67 228 235 92 62
237 218 74 67 204 129 127 127
189 168 89 89 202 229 37 47
00000000: 099e e21b 601a e79a 579b 8c9b bb1e 8a1e
00000010: 9f9e 6b9e 0f1e 041e 769e 741e f89b 901e
00000020: 5c1e 7f9e 609e b61e bb9b 989e 651e 241e
00000030: 839e 6c1e 6d0a 671e bc17 481e d01e 0c1e
00000040: ee1b 971b 231e 091e c59e e11a 4b1e 569e
00000050: 8d9e 889b 681e 631a b31e fc9b 0e9e 8e16
00000060: 0e4e 444e 8b4f 4d4e 804e 3e53 ec52 4953
00000070: 0057 3253 2553 5353 9e53 d557 f457 a552
00000080: f653 a052 8852 5957 c652 1252 2457 5557
00000090: dd52 434e 1a57 7253 9b53 0a4e 2b53 ae53
000000a0: 4253 ae52 e052 ca52 0652 9557 9e53 8852
000000b0: ae52 0753 c652 6f52 4e52 6f52 7152 7552
000000c0: ef19 01f1 b937 35e9 ae12 17e0 f746 05ed
000000d0: 817f 7f81 963b 50a8 eb17 fff5 c250 4c98
000000e0: b13e 28ab f3d9 273d 01e6 6243 e4eb 5c3e
000000f0: edda 4a43 cc81 7f7f bda8 5959 cae5 252f

NeutronMicrocode u1 [1344]
110 77 67 100 145 44 123 145
236 4 0 0 0 0 0 0
236 4 0 0 16 0 0 0
64 5 0 0 116 146 0 0
1 0 0 0 64 110 0 0
0 0 0 0 2 0 0 0
2 0 0 0 12 0 0 0
212 67 0 0 0 0 0 0
3 5 6 0 2 2 2 0
2 37 192 36 0 0 0 0
0 0 192 0 0 0 0 0
0 0 96 0 0 0 1 0
0 0 14 0 0 0 14 0
0 0 48 0 0 0 48 0
0 0 1 0 0 0 14 0
0 0 14 0 0 0 48 0
0 0 1 0 0 0 1 0
0 0 1 0 0 0 1 0
0 0 0 0 0 0 0 0
0 0 0 0 0 0 0 0
0 0 1 0 0 0 1 0
0 0 16 1 15 7 0 0
0 0 0 0 0 0 1 0
0 0 1 0 0 0 128 255
255 255 48 128 0 0 0 0
0 0 0 0 0 0 0 0
0 0 0 0 0 0 5 37
3 5 6 6 2 2 2 0
2 25 0 0 0 0 192 36
0 0 64 11 0 0 192 9
0 0 224 10 0 0 1 0
0 0 14 0 0 0 14 0
00000000: 6e4d 4364 912c 7b91 ec04 0000 0000 0000
00000010: ec04 0000 1000 0000 4005 0000 7492 0000
00000020: 0100 0000 406e 0000 0000 0000 0200 0000
00000030: 0200 0000 0c00 0000 d443 0000 0000 0000
00000040: 0305 0600 0202 0200 0225 c024 0000 0000
00000050: 0000 c000 0000 0000 0000 6000 0000 0100
00000060: 0000 0e00 0000 0e00 0000 3000 0000 3000
00000070: 0000 0100 0000 0e00 0000 0e00 0000 3000
00000080: 0000 0100 0000 0100 0000 0100 0000 0100
00000090: 0000 0000 0000 0000 0000 0000 0000 0000
000000a0: 0000 0100 0000 0100 0000 1001 0f07 0000
000000b0: 0000 0000 0000 0100 0000 0100 0000 80ff
000000c0: ffff 3080 0000 0000 0000 0000 0000 0000
000000d0: 0000 0000 0000 0525 0305 0606 0202 0200
000000e0: 0219 0000 0000 c024 0000 400b 0000 c009
000000f0: 0000 e00a 0000 0100 0000 0e00 0000 0e00

NeutronWeights u1 [37492]
122 11 29 155 66 147 74 15
160 23 239 150 158 23 222 150
167 0 253 150 57 22 54 34
73 150 76 10 27 139 201 151
101 2 201 23 119 14 186 151
173 23 209 154 202 154 140 22
114 150 212 26 37 151 232 18
170 19 80 2 241 155 55 151
196 31 9 155 12 27 37 147
126 151 47 23 123 26 23 3
90 15 250 26 230 23 206 26
225 151 94 22 254 151 157 26
107 71 190 66 209 70 173 70
5 70 148 70 22 70 47 66
222 70 24 66 84 66 38 71
218 66 20 70 216 70 57 71
87 67 170 75 201 71 70 75
206 74 137 70 189 70 203 70
152 66 250 75 118 70 98 75
10 74 108 66 18 66 153 78
151 75 9 66 2 70 49 66
44 66 182 70 102 71 41 71
246 70 235 70 29 75 93 75
121 70 28 70 127 71 198 70
29 205 195 4 8 246 27 19
234 18 10 217 9 231 41 36
238 179 188 39 12 5 11 13
23 250 66 12 82 20 129 255
10 255 18 210 68 129 211 246
127 23 36 213 195 23 229 246
74 248 210 208 246 198 250 243
254 253 199 41 36 1 201 21
00000000: 7a0b 1d9b 4293 4a0f a017 ef96 9e17 de96
00000010: a700 fd96 3916 3622 4996 4c0a 1b8b c997
00000020: 6502 c917 770e ba97 ad17 d19a ca9a 8c16
00000030: 7296 d41a 2597 e812 aa13 5002 f19b 3797
00000040: c41f 099b 0c1b 2593 7e97 2f17 7b1a 1703
00000050: 5a0f fa1a e617 ce1a e197 5e16 fe97 9d1a
00000060: 6b47 be42 d146 ad46 0546 9446 1646 2f42
00000070: de46 1842 5442 2647 da42 1446 d846 3947
00000080: 5743 aa4b c947 464b ce4a 8946 bd46 cb46
00000090: 9842 fa4b 7646 624b 0a4a 6c42 1242 994e
000000a0: 974b 0942 0246 3142 2c42 b646 6647 2947
000000b0: f646 eb46 1d4b 5d4b 7946 1c46 7f47 c646
000000c0: 1dcd c304 08f6 1b13 ea12 0ad9 09e7 2924
000000d0: eeb3 bc27 0c05 0b0d 17fa 420c 5214 81ff
000000e0: 0aff 12d2 4481 d3f6 7f17 24d5 c317 e5f6
000000f0: 4af8 d2d0 f6c6 faf3 fefd c729 2401 c915

NeutronMicrocode u1 [172]
110 77 67 100 145 44 123 145
86 0 0 0 0 0 0 0
86 0 0 0 12 0 0 0
172 0 0 0 8 0 0 0
1 0 0 0 0 0 0 0
0 0 0 0 1 0 0 0
2 0 0 0 2 0 0 0
108 72 0 0 0 0 0 0
3 3 2 0 1 0 2 86
0 0 0 0 0 0 0 0
0 0 0 0 2 0 0 0
192 36 0 0 1 0 0 0
16 1 1 64 32 0 1 0
5 86 3 3 3 0 1 0
2 86 0 0 0 0 0 0
0 0 4 0 0 0 2 0
0 0 192 36 0 0 1 0
0 0 16 1 1 64 32 0
1 0 5 86 1 0 0 0
0 0 0 0 0 0 0 0
128 73 0 0 192 36 0 0
192 36 0 0
00000000: 6e4d 4364 912c 7b91 5600 0000 0000 0000
00000010: 5600 0000 0c00 0000 ac00 0000 0800 0000
00000020: 0100 0000 0000 0000 0000 0000 0100 0000
00000030: 0200 0000 0200 0000 6c48 0000 0000 0000
00000040: 0303 0200 0100 0256 0000 0000 0000 0000
00000050: 0000 0000 0200 0000 c024 0000 0100 0000
00000060: 1001 0140 2000 0100 0556 0303 0300 0100
00000070: 0256 0000 0000 0000 0000 0400 0000 0200
00000080: 0000 c024 0000 0100 0000 1001 0140 2000
00000090: 0100 0556 0100 0000 0000 0000 0000 0000
000000a0: 8049 0000 c024 0000 c024 0000

NeutronWeights u1 [8]
0 0 0 0 1 0 0 0
00000000: 0000 0000 0100 0000

NeutronMicrocode u1 [172]
110 77 67 100 145 44 123 145
86 0 0 0 0 0 0 0
86 0 0 0 12 0 0 0
172 0 0 0 8 0 0 0
1 0 0 0 0 0 0 0
0 0 0 0 1 0 0 0
2 0 0 0 2 0 0 0
184 74 0 0 0 0 0 0
3 3 2 0 1 0 2 86
0 0 0 0 0 0 0 0
0 0 0 0 2 0 0 0
96 18 0 0 1 0 0 0
16 1 1 64 32 0 1 0
5 86 3 3 3 0 1 0
2 86 0 0 0 0 0 0
0 0 4 0 0 0 2 0
0 0 96 18 0 0 1 0
0 0 16 1 1 64 32 0
1 0 5 86 1 0 0 0
0 0 0 0 0 0 0 0
192 36 0 0 96 18 0 0
96 18 0 0
00000000: 6e4d 4364 912c 7b91 5600 0000 0000 0000
00000010: 5600 0000 0c00 0000 ac00 0000 0800 0000
00000020: 0100 0000 0000 0000 0000 0000 0100 0000
00000030: 0200 0000 0200 0000 b84a 0000 0000 0000
00000040: 0303 0200 0100 0256 0000 0000 0000 0000
00000050: 0000 0000 0200 0000 6012 0000 0100 0000
00000060: 1001 0140 2000 0100 0556 0303 0300 0100
00000070: 0256 0000 0000 0000 0000 0400 0000 0200
00000080: 0000 6012 0000 0100 0000 1001 0140 2000
00000090: 0100 0556 0100 0000 0000 0000 0000 0000
000000a0: c024 0000 6012 0000 6012 0000

NeutronWeights u1 [8]
0 0 0 0 1 0 0 0
00000000: 0000 0000 0100 0000

NeutronMicrocode u1 [1864]
110 77 67 100 145 44 123 145
230 6 0 0 0 0 0 0
230 6 0 0 24 0 0 0
72 7 0 0 192 8 0 0
1 0 0 0 64 110 0 0
0 0 0 0 2 0 0 0
4 0 0 0 24 0 0 0
211 77 0 0 0 0 0 0
3 5 8 0 2 2 2 0
2 25 192 36 0 0 0 0
0 0 96 0 0 0 0 0
0 0 48 0 0 0 1 0
0 0 14 0 0 0 14 0
0 0 24 0 0 0 24 0
0 0 1 0 0 0 15 0
0 0 15 0 0 0 24 0
0 0 2 0 0 0 2 0
0 0 1 0 0 0 1 0
0 0 0 0 0 0 0 0
0 0 0 0 0 0 0 0
0 0 1 0 0 0 1 0
0 0 16 1 15 7 0 0
0 0 0 0 0 0 1 0
0 0 1 0 0 0 128 255
255 255 48 128 0 0 0 0
0 0 0 0 0 0 0 0
0 0 0 0 0 0 5 25
4 25 4 0 0 0 4 4
4 4 0 0 0 0 0 2
3 4 0 0 0 0 96 18
0 0 32 1 0 0 192 0
0 0 240 0 0 0 0 0
00000000: 6e4d 4364 912c 7b91 e606 0000 0000 0000
00000010: e606 0000 1800 0000 4807 0000 c008 0000
00000020: 0100 0000 406e 0000 0000 0000 0200 0000
00000030: 0400 0000 1800 0000 d34d 0000 0000 0000
00000040: 0305 0800 0202 0200 0219 c024 0000 0000
00000050: 0000 6000 0000 0000 0000 3000 0000 0100
00000060: 0000 0e00 0000 0e00 0000 1800 0000 1800
00000070: 0000 0100 0000 0f00 0000 0f00 0000 1800
00000080: 0000 0200 0000 0200 0000 0100 0000 0100
00000090: 0000 0000 0000 0000 0000 0000 0000 0000
000000a0: 0000 0100 0000 0100 0000 1001 0f07 0000
000000b0: 0000 0000 0000 0100 0000 0100 0000 80ff
000000c0: ffff 3080 0000 0000 0000 0000 0000 0000
000000d0: 0000 0000 0000 0519 0419 0400 0000 0404
000000e0: 0404 0000 0000 0002 0304 0000 0000 6012
000000f0: 0000 2001 0000 c000 0000 f000 0000 0000

NeutronWeights u1 [2240]
120 22 184 139 140 23 73 23
229 14 1 155 64 19 137 131
48 150 253 19 201 22 83 22
38 154 109 151 34 154 230 22
27 143 162 143 78 23 208 147
140 154 67 150 12 26 60 7
53 66 152 66 158 71 54 71
218 67 29 70 19 67 57 57
72 66 89 66 15 71 137 67
209 70 79 71 149 70 235 71
220 66 236 67 44 71 13 67
107 70 72 67 15 71 121 57
108 239 127 127 127 97 82 42
254 129 119 77 203 14 188 0
129 155 37 48 247 129 127 61
118 157 225 13 70 143 242 129
72 223 43 186 141 76 172 127
129 233 127 70 7 127 123 33
129 129 129 53 151 249 202 4
140 234 224 127 35 160 157 31
127 127 127 43 183 195 88 20
231 159 108 182 173 220 174 129
165 65 127 127 129 254 88 165
169 129 55 199 189 158 31 36
208 151 207 143 217 147 241 146
84 22 146 22 104 23 95 142
44 154 28 15 159 151 194 22
201 150 29 23 248 22 193 22
220 3 48 10 189 135 187 22
109 19 177 23 242 0 185 22
228 71 251 71 166 66 164 66
64 66 75 66 91 71 158 67
00000000: 7816 b88b 8c17 4917 e50e 019b 4013 8983
00000010: 3096 fd13 c916 5316 269a 6d97 229a e616
00000020: 1b8f a28f 4e17 d093 8c9a 4396 0c1a 3c07
00000030: 3542 9842 9e47 3647 da43 1d46 1343 3939
00000040: 4842 5942 0f47 8943 d146 4f47 9546 eb47
00000050: dc42 ec43 2c47 0d43 6b46 4843 0f47 7939
00000060: 6cef 7f7f 7f61 522a fe81 774d cb0e bc00
00000070: 819b 2530 f781 7f3d 769d e10d 468f f281
00000080: 48df 2bba 8d4c ac7f 81e9 7f46 077f 7b21
00000090: 8181 8135 97f9 ca04 8cea e07f 23a0 9d1f
000000a0: 7f7f 7f2b b7c3 5814 e79f 6cb6 addc ae81
000000b0: a541 7f7f 81fe 58a5 a981 37c7 bd9e 1f24
000000c0: d097 cf8f d993 f192 5416 9216 6817 5f8e
000000d0: 2c9a 1c0f 9f97 c216 c996 1d17 f816 c116
000000e0: dc03 300a bd87 bb16 6d13 b117 f200 b916
000000f0: e447 fb47 a642 a442 4042 4b42 5b47 9e43
