models/persondetect/persondetect_220x220.tflite (tflite, 315880 bytes, 78 tensors)

model_80/tf.nn.convolution_46/convolution i1 [4, 1, 1, 24]
000000 aa 47 89 2a 7f 0b e4 22 d5 ec 3c d6 dd 0c b5 12
       -86 71 -119 42 127 11 -28 34 -43 -20 60 -42 -35 12 -75 18
000010 42 4b f7 1b ca f6 8b d7 49 15 3c a6 e6 dd 07 e4
       66 75 -9 27 -54 -10 -117 -41 73 21 60 -90 -26 -35 7 -28
000020 2e 07 73 04 7f ff 83 e9 ba ee 02 08 2e 51 0b 0d
       46 7 115 4 127 -1 -125 -23 -70 -18 2 8 46 81 11 13
000030 fc 17 ff 40 1f 09 68 05 48 6c 05 7f 0e e8 fd f9
       -4 23 -1 64 31 9 104 5 72 108 5 127 14 -24 -3 -7
000040 32 eb f3 8e 0f 24 00 37 0b 41 d9 f1 07 08 f5 52
       50 -21 -13 -114 15 36 0 55 11 65 -39 -15 7 8 -11 82
000050 09 0d 08 f5 e0 f0 03 7f 28 ff f4 a6 3c 24 02 19
       9 13 8 -11 -32 -16 3 127 40 -1 -12 -90 60 36 2 25

model_80/tf.compat.v1.nn.depthwise_conv2d_26/depthwise i1 [1, 4, 4, 24]
000000 1f 04 0d 62 af d9 7f 7f 54 94 81 37 29 a1 7f 51
       31 4 13 98 -81 -39 127 127 84 -108 -127 55 41 -95 127 81
000010 c6 f8 81 40 1c e3 c3 c0 e1 6f e7 52 6c a7 1d 37
       -58 -8 -127 64 28 -29 -61 -64 -31 111 -25 82 108 -89 29 55
000020 ab 96 9f 4f ca 25 2c 64 7f 76 15 20 9f 78 7f b9
       -85 -106 -97 79 -54 37 44 100 127 118 21 32 -97 120 127 -71
000030 d0 fc 28 cb 7f a8 1d 4a 7a 07 b0 1b 30 af 1d 0f
       -48 -4 40 -53 127 -88 29 74 122 7 -80 27 48 -81 29 15
000040 bf f7 5c 0d 32 45 0f f8 e7 e5 63 7f e1 e6 ea 5b
       -65 -9 92 13 50 69 15 -8 -25 -27 99 127 -31 -26 -22 91
000050 9d 04 fc ec aa 81 f6 f2 58 e1 b5 ff 30 35 f2 34
       -99 4 -4 -20 -86 -127 -10 -14 88 -31 -75 -1 48 53 -14 52
000060 5f 4c f1 d9 85 8d 44 3c dd 94 a4 52 ce 87 2b 4c
       95 76 -15 -39 -123 -115 68 60 -35 -108 -92 82 -50 -121 43 76
000070 e3 81 89 7f 88 0e b4 cc e9 23 0a e4 5c 81 7b 40
       -29 -127 -119 127 -120 14 -76 -52 -23 35 10 -28 92 -127 123 64
000080 3f 03 cf 7f 34 0c fb 7f 3f 5d 1b 7b 07 ed 56 c0
       63 3 -49 127 52 12 -5 127 63 93 27 123 7 -19 86 -64
000090 ea 49 e8 23 5f f2 36 1c 63 1b 36 1c 5d 12 e6 3f
       -22 73 -24 35 95 -14 54 28 99 27 54 28 93 18 -26 63
0000a0 34 3c b6 15 81 81 2a b4 e4 5d 7f cd 37 c9 a3 3a
       52 60 -74 21 -127 -127 42 -76 -28 93 127 -51 55 -55 -93 58
0000b0 7f e4 03 01 1c 8c 0c 22 be 35 07 04 d7 b4 0e 36
       127 -28 3 1 28 -116 12 34 -66 53 7 4 -41 -76 14 54
0000c0 7f 84 0a 17 93 78 31 c2 9a 00 c8 58 61 0c f9 62
       127 -124 10 23 -109 120 49 -62 -102 0 -56 88 97 12 -7 98
0000d0 57 c0 0f 25 02 58 f7 9a 2d 76 f9 db 58 64 40 cd
       87 -64 15 37 2 88 -9 -102 45 118 -7 -37 88 100 64 -51
0000e0 23 81 6c 26 d4 a6 d1 6b 2b 00 ca 40 85 d6 15 81
       35 -127 108 38 -44 -90 -47 107 43 0 -54 64 -123 -42 21 -127
0000f0 e9 d2 4d a8 53 e8 f8 1d d7 b4 2d 33 27 d5 ee 25
       -23 -46 77 -88 83 -24 -8 29 -41 -76 45 51 39 -43 -18 37

model_80/tf.nn.convolution_45/convolution i1 [1, 1, 1, 24] scale=0.004870204 zero_point=0
000000 35 ee e3 10 01 01 05 1a e9 e9 60 f1 20 1d 7f e2
       0.2581208 -0.087663665 -0.1412359 0.07792326 0.004870204 0.004870204 0.02435102 0.1266253 -0.11201469 -0.11201469 0.46753955 -0.073053055 0.15584652 0.1412359 0.6185159 -0.14610611
000010 08 33 fc f0 0c fa 0b 13
       0.03896163 0.2483804 -0.019480815 -0.07792326 0.058442444 -0.029221222 0.05357224 0.09253387

model_80/tf.compat.v1.nn.depthwise_conv2d_25/depthwise i1 [1, 4, 4, 24]
000000 31 de 19 05 9b a1 89 c7 3a 24 23 7f 28 48 20 4f
       49 -34 25 5 -101 -95 -119 -57 58 36 35 127 40 72 32 79
000010 fa d6 8e 81 d1 dc 74 6a 4c ad 3f 00 1c 08 68 90
       -6 -42 -114 -127 -47 -36 116 106 76 -83 63 0 28 8 104 -112
000020 e4 da 78 06 f9 77 ea a5 51 2c 39 1f 58 e2 26 7f
       -28 -38 120 6 -7 119 -22 -91 81 44 57 31 88 -30 38 127
000030 46 0c 07 52 96 7f 69 50 b0 90 22 1b c2 2e 06 4c
       70 12 7 82 -106 127 105 80 -80 -112 34 27 -62 46 6 76
000040 7d e6 c1 5b 7f 48 f9 f1 ee c8 48 7f b9 cb 2a c9
       125 -26 -63 91 127 72 -7 -15 -18 -56 72 127 -71 -53 42 -55
000050 fe 1f fd 06 9e f1 dc 64 9e 02 bf 5c e4 0a 4f a5
       -2 31 -3 6 -98 -15 -36 100 -98 2 -65 92 -28 10 79 -91
000060 28 f2 be 75 d1 a4 86 24 2e ee 7e dc 23 52 64 77
       40 -14 -66 117 -47 -92 -122 36 46 -18 126 -36 35 82 100 119
000070 ef 81 3c 04 c4 8c 6a d9 7f 2b 7f c7 75 01 ca 7a
       -17 -127 60 4 -60 -116 106 -39 127 43 127 -57 117 1 -54 122
000080 9f bc f4 cb 7f ef 66 64 5a a7 45 f4 f6 15 a3 19
       -97 -68 -12 -53 127 -17 102 100 90 -89 69 -12 -10 21 -93 25
000090 04 a1 04 8a 1b a7 81 dc 81 4f 35 3a af 9b 0f ed
       4 -95 4 -118 27 -89 -127 -36 -127 79 53 58 -81 -101 15 -19
0000a0 7f c1 79 8a 9a 7f a1 3d 10 04 c5 2e 1c c1 28 02
       127 -63 121 -118 -102 127 -95 61 16 4 -59 46 28 -63 40 2
0000b0 08 04 d4 3e 92 7f 52 e7 74 ab bb b3 9d 6c fa 3a
       8 4 -44 62 -110 127 82 -25 116 -85 -69 -77 -99 108 -6 58
0000c0 71 8a ed 48 f7 97 3d ab aa 9e 59 c5 39 6a 0f 4f
       113 -118 -19 72 -9 -105 61 -85 -86 -98 89 -59 57 106 15 79
0000d0 d0 2b 7f 1b 20 19 7f 76 a0 9a d3 f0 8c 1b 88 09
       -48 43 127 27 32 25 127 118 -96 -102 -45 -16 -116 27 -120 9
0000e0 45 7d 7f 7c 5d 1f 7f bd 79 b6 33 ff 52 0a 31 45
       69 125 127 124 93 31 127 -67 121 -74 51 -1 82 10 49 69
0000f0 0e 03 49 7f d0 ed 5a 09 1a 9a 51 13 88 7b 3a d1
       14 3 73 127 -48 -19 90 9 26 -102 81 19 -120 123 58 -47

model_80/tf.nn.convolution_47/convolution i1 [1, 1, 1, 24] scale=0.004679997 zero_point=0
000000 a7 00 e4 bf bf 8b a9 ab 17 15 50 7f 4a 98 4d 51
       -0.41651973 0.0 -0.13103992 -0.3041998 -0.3041998 -0.5475596 -0.40715975 -0.39779973 0.10763993 0.09827994 0.37439975 0.59435964 0.34631976 -0.4867197 0.36035976 0.37907976
000010 8f 67 f7 cd 2f 60 81 2f
       -0.52883965 0.4820397 -0.042119972 -0.23867984 0.21995986 0.44927973 -0.59435964 0.21995986

model_80/tf.compat.v1.nn.depthwise_conv2d_27/depthwise i1 [1, 3, 3, 24]
000000 c7 f0 75 99 7f b4 49 7f b6 d1 f8 13 38 3a 96 4b
       -57 -16 117 -103 127 -76 73 127 -74 -47 -8 19 56 58 -106 75
000010 8d b2 41 2a be 3a 07 f5 34 24 a4 f1 45 9e 85 5c
       -115 -78 65 42 -66 58 7 -11 52 36 -92 -15 69 -98 -123 92
000020 45 d4 7f 8c 81 89 fb 76 7f 6e 81 95 f2 57 a4 1d
       69 -44 127 -116 -127 -119 -5 118 127 110 -127 -107 -14 87 -92 29
000030 18 ee 6e 81 e1 c5 01 6f 69 02 c5 d5 e1 9d 4c 88
       24 -18 110 -127 -31 -59 1 111 105 2 -59 -43 -31 -99 76 -120
000040 f2 81 6f 6f 8f 6f e0 89 50 51 57 f9 08 d4 05 5d
       -14 -127 111 111 -113 111 -32 -119 80 81 87 -7 8 -44 5 93
000050 7b 69 eb 43 72 4e b0 83 ec 7a 78 a3 9e 01 58 81
       123 105 -21 67 114 78 -80 -125 -20 122 120 -93 -98 1 88 -127
000060 e2 62 91 2e 3b a6 c0 61 dc 5e 56 81 69 c7 7f 72
       -30 98 -111 46 59 -90 -64 97 -36 94 86 -127 105 -57 127 114
000070 b6 56 fe d2 0e a3 8f f5 41 81 27 34 5f 9d 81 14
       -74 86 -2 -46 14 -93 -113 -11 65 -127 39 52 95 -99 -127 20
000080 d7 4a 74 5d 2e f8 d2 7f da 46 36 7f 2e 7f 39 46
       -41 74 116 93 46 -8 -46 127 -38 70 54 127 46 127 57 70
000090 23 2e b2 d2 aa 7d f0 1d 45 7f 04 57 3b 81 0e da
       35 46 -78 -46 -86 125 -16 29 69 127 4 87 59 -127 14 -38
0000a0 98 5e 4e 6f 81 9b 7f 59 f4 d0 02 f5 e7 7f 81 82
       -104 94 78 111 -127 -101 127 89 -12 -48 2 -11 -25 127 -127 -126
0000b0 58 c5 03 cc 3e 3f 1b cd f4 64 db 5a 74 2d ab be
       88 -59 3 -52 62 63 27 -51 -12 100 -37 90 116 45 -85 -66
0000c0 7f ea 7f 12 e1 c7 96 cc 81 1b 56 c6 3a ee 3e c0
       127 -22 127 18 -31 -57 -106 -52 -127 27 86 -58 58 -18 62 -64
0000d0 f0 4c 4b 0f 84 dc 03 ce
       -16 76 75 15 -124 -36 3 -50

model_80/tf.nn.convolution_44/convolution i1 [24, 1, 1, 24]
000000 ab 24 cb 20 4c 7f cf 1b b9 18 68 e0 1f ee f4 e8
       -85 36 -53 32 76 127 -49 27 -71 24 104 -32 31 -18 -12 -24
000010 e1 c4 eb bb be 06 e8 6b 7f cf 38 9d d2 f8 aa f3
       -31 -60 -21 -69 -66 6 -24 107 127 -49 56 -99 -46 -8 -86 -13
000020 57 d6 97 f5 85 1e 92 8c 29 bb b2 22 bb 2d cb 30
       87 -42 -105 -11 -123 30 -110 -116 41 -69 -78 34 -69 45 -53 48
000030 d3 0e 62 7f 24 01 c0 fb 24 eb b1 31 bb c6 43 5e
       -45 14 98 127 36 1 -64 -5 36 -21 -79 49 -69 -58 67 94
000040 ec 17 f9 2c cb f8 52 bd 71 af fc 2e 3a ec 0a 93
       -20 23 -7 44 -53 -8 82 -67 113 -81 -4 46 58 -20 10 -109
000050 7f ec 15 23 fb ad 20 fd e9 51 cf 00 ed fc da a6
       127 -20 21 35 -5 -83 32 -3 -23 81 -49 0 -19 -4 -38 -90
000060 19 0a 9a b2 40 66 d2 b0 e4 43 9d 58 79 f2 fe 81
       25 10 -102 -78 64 102 -46 -80 -28 67 -99 88 121 -14 -2 -127
000070 b3 2c 16 88 aa 92 9d bb 62 54 17 4b a3 a7 57 f1
       -77 44 22 -120 -86 -110 -99 -69 98 84 23 75 -93 -89 87 -15
000080 5b e2 9f c3 f6 bb 5f ba 95 c6 0a d4 ba 90 7c 7f
       91 -30 -97 -61 -10 -69 95 -70 -107 -58 10 -44 -70 -112 124 127
000090 b7 2a 0d 31 cb fc b5 ca 01 ee 19 3a 0f d8 d9 04
       -73 42 13 49 -53 -4 -75 -54 1 -18 25 58 15 -40 -39 4
0000a0 2c 37 7f 0d 3c f3 0d 12 7f 95 13 d2 68 c2 d2 64
       44 55 127 13 60 -13 13 18 127 -107 19 -46 104 -62 -46 100
0000b0 7b 2a 9a 68 11 2d 95 cf d3 da f6 32 00 e4 32 d7
       123 42 -102 104 17 45 -107 -49 -45 -38 -10 50 0 -28 50 -41
0000c0 53 bf 7f 30 c0 ec 9e cf 6a e4 b6 63 95 91 a1 1f
       83 -65 127 48 -64 -20 -98 -49 106 -28 -74 99 -107 -111 -95 31
0000d0 ae 15 07 d0 c6 c0 db bd de 29 a6 af 34 1d 63 20
       -82 21 7 -48 -58 -64 -37 -67 -34 41 -90 -81 52 29 99 32
0000e0 72 40 d7 23 0e 7d 69 b6 04 c6 88 02 f3 a4 81 cf
       114 64 -41 35 14 125 105 -74 4 -58 -120 2 -13 -92 -127 -49
0000f0 d3 2a f4 14 46 7f c0 0d 10 20 1d ff ee 0b 40 ee
       -45 42 -12 20 70 127 -64 13 16 32 29 -1 -18 11 64 -18

Const_16 i1 [24] scale=0.008789614 zero_point=7
000000 4b 36 2a f0 ea 80 7f 3b 0e f5 46 12 04 1a f6 f9
       0.59769374 0.41311187 0.3076365 -0.20216112 -0.2548988 -1.1865978 1.0547537 0.45705992 0.061527297 -0.15821305 0.5537457 0.09668575 -0.026368842 0.16700266 -0.14942344 -0.123054594
000010 46 88 3b 4e 24 0b c1 cd
       0.5537457 -1.1162809 0.45705992 0.6240626 0.2548988 0.035158455 -0.615273 -0.5097976

model_80/tf.nn.convolution_43/convolution1 i1 [12, 1, 1, 12]
000000 29 67 c1 24 07 25 a6 27 a6 1e 2c 81 ec 7f e3 90
       41 103 -63 36 7 37 -90 39 -90 30 44 -127 -20 127 -29 -112
000010 e2 15 a1 bf 14 d5 5d 23 59 7f 0a a0 b9 78 ed d3
       -30 21 -95 -65 20 -43 93 35 89 127 10 -96 -71 120 -19 -45
000020 d1 f5 ff 38 95 43 c7 62 49 7f de a5 3b e7 9c fd
       -47 -11 -1 56 -107 67 -57 98 73 127 -34 -91 59 -25 -100 -3
000030 a2 fe e4 7f 48 c2 97 d6 cf c4 e0 4b 45 0d b8 7f
       -94 -2 -28 127 72 -62 -105 -42 -49 -60 -32 75 69 13 -72 127
000040 6b 29 1f 01 44 08 52 3d 05 e9 dc 92 14 34 7f 2b
       107 41 31 1 68 8 82 61 5 -23 -36 -110 20 52 127 43
000050 f3 a7 c9 ff cf ae 99 37 59 a7 0d 81 2e a2 fe 39
       -13 -89 -55 -1 -49 -82 -103 55 89 -89 13 -127 46 -94 -2 57
000060 e9 95 e5 39 bf c7 62 ca 7f 27 cb cd 8b e7 ae 4e
       -23 -107 -27 57 -65 -57 98 -54 127 39 -53 -51 -117 -25 -82 78
000070 da 35 28 b8 7f 62 91 ea b5 f7 3a 4e 7f e5 1e e0
       -38 53 40 -72 127 98 -111 -22 -75 -9 58 78 127 -27 30 -32
000080 e7 7d 1c 29 97 23 7f ae 7c 5e cb b3 56 36 07 c4
       -25 125 28 41 -105 35 127 -82 124 94 -53 -77 86 54 7 -60

model_80/tf.nn.convolution_42/convolution i1 [12, 1, 1, 12]
000000 75 f6 81 9a d4 6f 9d 01 b0 3c 8d f2 aa 2c b5 f6
       117 -10 -127 -102 -44 111 -99 1 -80 60 -115 -14 -86 44 -75 -10
000010 92 8b 68 ba 34 db 7f 12 81 4c 09 70 36 9d 36 6f
       -110 -117 104 -70 52 -37 127 18 -127 76 9 112 54 -99 54 111
000020 ae 96 cc c5 d4 52 b3 63 51 50 78 60 c7 8a 81 f1
       -82 -106 -52 -59 -44 82 -77 99 81 80 120 96 -57 -118 -127 -15
000030 74 35 e8 a1 6e d6 ee 83 e1 7f 42 48 ea 5f 74 0d
       116 53 -24 -95 110 -42 -18 -125 -31 127 66 72 -22 95 116 13
000040 1a ee 23 6d 7f 31 59 cd 2b a1 81 65 f8 fc 18 ac
       26 -18 35 109 127 49 89 -51 43 -95 -127 101 -8 -4 24 -84
000050 ce 8a b9 fa b8 d4 a3 45 52 c0 f1 a3 61 5b 81 26
       -50 -118 -71 -6 -72 -44 -93 69 82 -64 -15 -93 97 91 -127 38
000060 7f d4 a4 39 9c 31 1e fe d4 3a a9 29 71 e7 c1 81
       127 -44 -92 57 -100 49 30 -2 -44 58 -87 41 113 -25 -63 -127
000070 6a ba d7 53 87 45 78 2a c8 0b dc 16 b6 81 0e b7
       106 -70 -41 83 -121 69 120 42 -56 11 -36 22 -74 -127 14 -73
000080 39 2e 19 01 1c 5f 93 e8 37 ca 03 69 84 81 53 36
       57 46 25 1 28 95 -109 -24 55 -54 3 105 -124 -127 83 54

model_80/tf.nn.convolution_41/convolution i1 [24, 1, 1, 24]
000000 f2 03 73 4a 8d bf f8 2c 4d 09 77 8d 81 e3 a8 f1
       -14 3 115 74 -115 -65 -8 44 77 9 119 -115 -127 -29 -88 -15
000010 ea 2b 97 86 fe 09 03 e5 5a 0b d3 12 b7 50 e1 aa
       -22 43 -105 -122 -2 9 3 -27 90 11 -45 18 -73 80 -31 -86
000020 c6 ee 87 3d 0c 45 b7 4c a5 2f d2 f3 81 d0 92 b2
       -58 -18 -121 61 12 69 -73 76 -91 47 -46 -13 -127 -48 -110 -78
000030 3d 3f fd 2c 42 da 03 eb fb 24 41 38 14 fb 7f df
       61 63 -3 44 66 -38 3 -21 -5 36 65 56 20 -5 127 -33
000040 55 ea 06 78 5c 40 f1 c3 b9 fe 39 8f 0b 64 0c db
       85 -22 6 120 92 64 -15 -61 -71 -2 57 -113 11 100 12 -37
000050 ba 1d 9e 2a 15 0a e1 67 12 d1 d8 7f 46 40 64 0b
       -70 29 -98 42 21 10 -31 103 18 -47 -40 127 70 64 100 11
000060 54 0e 7d 06 95 1c d5 dc db d4 d7 5a 02 1a 81 a2
       84 14 125 6 -107 28 -43 -36 -37 -44 -41 90 2 26 -127 -94
000070 e0 ee de cb 17 21 f7 a2 9a f3 40 38 20 01 06 2e
       -32 -18 -34 -53 23 33 -9 -94 -102 -13 64 56 32 1 6 46
000080 02 06 cd dd 4b b3 dc c7 92 43 81 1a 49 64 55 44
       2 6 -51 -35 75 -77 -36 -57 -110 67 -127 26 73 100 85 68
000090 d0 36 2a 38 14 6d 23 44 b0 e3 c4 51 f6 15 bf 81
       -48 54 42 56 20 109 35 68 -80 -29 -60 81 -10 21 -65 -127
0000a0 03 1b bc 97 9c 0c e5 22 26 32 3e e8 81 c6 fc e1
       3 27 -68 -105 -100 12 -27 34 38 50 62 -24 -127 -58 -4 -31
0000b0 27 57 42 23 20 02 ea 32 39 45 b0 31 b2 66 e9 15
       39 87 66 35 32 2 -22 50 57 69 -80 49 -78 102 -23 21
0000c0 f8 02 57 30 34 0f f4 0d 49 da bf b1 2f 2c 30 73
       -8 2 87 48 52 15 -12 13 73 -38 -65 -79 47 44 48 115
0000d0 ff 67 35 99 03 f1 81 46 a3 2e 62 21 5d 29 19 5c
       -1 103 53 -103 3 -15 -127 70 -93 46 98 33 93 41 25 92
0000e0 81 40 f1 e4 2c d9 10 d0 50 ac 4a 9e c3 cd cf 53
       -127 64 -15 -28 44 -39 16 -48 80 -84 74 -98 -61 -51 -49 83
0000f0 e9 32 46 c9 ce 3a d1 fc 11 b4 fe 2b f2 d5 de 8b
       -23 50 70 -55 -50 58 -47 -4 17 -76 -2 43 -14 -43 -34 -117

Const_21 i1 [24] scale=0.0059247944 zero_point=6
000000 d9 14 06 9b 39 67 5c 03 03 e3 dc 7e b0 c7 c3 c3
       -0.26661575 0.08294712 0.0 -0.633953 0.30216452 0.57470506 0.50953233 -0.017774383 -0.017774383 -0.20736781 -0.24884136 0.71097535 -0.50953233 -0.37326205 -0.3969612 -0.3969612
000010 2f 76 d6 fd 16 80 f4 7f
       0.24291657 0.66357696 -0.28439012 -0.05332315 0.09479671 -0.7939224 -0.1066463 0.7169001

model_80/tf.nn.convolution_40/convolution1 i1 [6, 1, 1, 18]
000000 2f 5b 1c e6 aa c4 51 28 7f 06 3b ba ea d0 a3 c6
       47 91 28 -26 -86 -60 81 40 127 6 59 -70 -22 -48 -93 -58
000010 60 4f 91 d3 46 b0 ca 64 2e b7 ce 7f 31 33 de 6c
       96 79 -111 -45 70 -80 -54 100 46 -73 -50 127 49 51 -34 108
000020 24 d8 29 8b b0 ce fb fb 56 00 f4 36 bb 7f af 2d
       36 -40 41 -117 -80 -50 -5 -5 86 0 -12 54 -69 127 -81 45
000030 a8 f2 32 f5 33 c7 1b 09 3b 61 5d 7c 8f 1f b1 6b
       -88 -14 50 -11 51 -57 27 9 59 97 93 124 -113 31 -79 107
000040 dc 50 68 3f 7f 08 1a e5 2d b2 5d 86 9d 68 d0 54
       -36 80 104 63 127 8 26 -27 45 -78 93 -122 -99 104 -48 84
000050 da 6d fe e1 eb dd 7b 3c 81 6e 89 fb 8b 38 3b e7
       -38 109 -2 -31 -21 -35 123 60 -127 110 -119 -5 -117 56 59 -25
000060 89 07 9c 01 08 fa 7f 74 d6 be ed cd
       -119 7 -100 1 8 -6 127 116 -42 -66 -19 -51

model_80/tf.nn.convolution_39/convolution i1 [6, 1, 1, 18]
000000 72 fe 51 56 3c 2c f8 28 26 ba 93 de 7f 96 e5 e9
       114 -2 81 86 60 44 -8 40 38 -70 -109 -34 127 -106 -27 -23
000010 5e 19 86 24 fb 63 4c 85 ca 08 69 d9 24 2e df 0a
       94 25 -122 36 -5 99 76 -123 -54 8 105 -39 36 46 -33 10
000020 22 46 7f 1a 5b 99 07 13 be 19 e8 57 d5 03 14 13
       34 70 127 26 91 -103 7 19 -66 25 -24 87 -43 3 20 19
000030 7f f8 36 3f a1 fc 49 36 2d ce ee 40 fa ea c3 f4
       127 -8 54 63 -95 -4 73 54 45 -50 -18 64 -6 -22 -61 -12
000040 d6 ba 7f 3d ed 21 ef 2f 1b f9 16 dc 22 af 35 b6
       -42 -70 127 61 -19 33 -17 47 27 -7 22 -36 34 -81 53 -74
000050 61 ce e6 ee 7f d6 01 ad d0 d4 e0 22 81 7c 95 36
       97 -50 -26 -18 127 -42 1 -83 -48 -44 -32 34 -127 124 -107 54
000060 d4 12 01 85 e2 c7 4a b0 94 18 da 05
       -44 18 1 -123 -30 -57 74 -80 -108 24 -38 5

model_80/tf.nn.convolution_38/convolution i1 [6, 1, 1, 18]
000000 eb 6d 8d cc 51 d1 99 ee ef 35 5f aa 7f e4 8e c8
       -21 109 -115 -52 81 -47 -103 -18 -17 53 95 -86 127 -28 -114 -56
000010 13 da 83 60 76 30 92 e8 4a a2 ec 95 e4 6a 7f 83
       19 -38 -125 96 118 48 -110 -24 74 -94 -20 -107 -28 106 127 -125
000020 9f 29 7e ca 33 17 94 44 f3 66 0a 96 04 eb c7 90
       -97 41 126 -54 51 23 -108 68 -13 102 10 -106 4 -21 -57 -112
000030 04 f8 11 0d 2e 7f 5d 93 0d 6f ea 82 22 40 8a b8
       4 -8 17 13 46 127 93 -109 13 111 -22 -126 34 64 -118 -72
000040 7f 76 2b 2c d8 09 21 a3 fa 51 44 b2 1a 7d 00 ad
       127 118 43 44 -40 9 33 -93 -6 81 68 -78 26 125 0 -83
000050 c2 22 88 14 07 7f 91 ee 63 3b 10 a1 41 41 f0 af
       -62 34 -120 20 7 127 -111 -18 99 59 16 -95 65 65 -16 -81
000060 94 7f 1a 1b ab da ae d5 99 a3 1a 37
       -108 127 26 27 -85 -38 -82 -43 -103 -93 26 55

model_80/tf.nn.convolution_37/convolution i1 [6, 1, 1, 18]
000000 c7 7f 4c 29 e9 23 74 0d 48 f6 ab fc 62 bf c5 c7
       -57 127 76 41 -23 35 116 13 72 -10 -85 -4 98 -65 -59 -57
000010 e9 03 e6 12 f7 fb bb 36 5c ee 42 40 4c c2 54 81
       -23 3 -26 18 -9 -5 -69 54 92 -18 66 64 76 -62 84 -127
000020 0c 94 3a 88 a5 f0 16 f5 31 7c 0c bf c1 3a f7 7f
       12 -108 58 -120 -91 -16 22 -11 49 124 12 -65 -63 58 -9 127
000030 c2 10 ff f6 bf c0 ef f3 44 2b c6 7f b8 25 c8 3d
       -62 16 -1 -10 -65 -64 -17 -13 68 43 -58 127 -72 37 -56 61
000040 e0 56 55 f3 dc 1e 25 19 a3 a3 69 1c 4d e1 e6 b6
       -32 86 85 -13 -36 30 37 25 -93 -93 105 28 77 -31 -26 -74
000050 57 d0 43 81 f7 ed f9 cc b8 4d 81 b6 ee 30 f3 87
       87 -48 67 -127 -9 -19 -7 -52 -72 77 -127 -74 -18 48 -13 -121
000060 9b ba 39 02 ab 98 3d 4e cb 0a 1e 64
       -101 -70 57 2 -85 -104 61 78 -53 10 30 100

model_80/tf.compat.v1.nn.depthwise_conv2d_22/depthwise i1 [1, 2, 2, 24]
000000 22 30 fd 81 81 4c 1a 38 81 4b a6 7f 20 21 44 81
       34 48 -3 -127 -127 76 26 56 -127 75 -90 127 32 33 68 -127
000010 5b 2f fb a8 05 70 81 7f 81 69 7f 3d 4c 7f 1a d4
       91 47 -5 -88 5 112 -127 127 -127 105 127 61 76 127 26 -44
000020 af 7f 30 88 22 b5 7f 4b 12 81 30 81 81 81 fb eb
       -81 127 48 -120 34 -75 127 75 18 -127 48 -127 -127 -127 -5 -21
000030 c8 7f 86 6f f5 63 f3 11 e4 f2 7f ce 7f 7f 32 c2
       -56 127 -122 111 -11 99 -13 17 -28 -14 127 -50 127 127 50 -62
000040 81 43 f8 70 11 d2 a5 f0 03 f2 3b 08 b2 42 81 81
       -127 67 -8 112 17 -46 -91 -16 3 -14 59 8 -78 66 -127 -127
000050 82 0f 67 0c 29 f1 e5 75 76 b1 7f 60 f0 d9 62 47
       -126 15 103 12 41 -15 -27 117 118 -79 127 96 -16 -39 98 71

model_80/tf.compat.v1.nn.depthwise_conv2d_20/depthwise i1 [1, 2, 2, 24]
000000 83 69 32 1f 12 a0 6f 0c 81 89 82 3f 81 9c df 7f
       -125 105 50 31 18 -96 111 12 -127 -119 -126 63 -127 -100 -33 127
000010 81 7a 4d f3 51 74 c6 d1 50 19 a3 43 c6 6b d2 81
       -127 122 77 -13 81 116 -58 -47 80 25 -93 67 -58 107 -46 -127
000020 b0 7f 3e b6 29 7f 7f 4d 2e 81 81 fc 5b 0e 7f 0b
       -80 127 62 -74 41 127 127 77 46 -127 -127 -4 91 14 127 11
000030 a0 81 1d 81 55 30 7f f9 fa f9 81 7f b5 4c 49 47
       -96 -127 29 -127 85 48 127 -7 -6 -7 -127 127 -75 76 73 71
000040 45 ff 66 7f 81 0a fc 6b 81 b8 81 af 7f 7f 39 4d
       69 -1 102 127 -127 10 -4 107 -127 -72 -127 -81 127 127 57 77
000050 90 38 af 4c d6 79 31 bb 13 1b bb 58 4f 7f c0 7f
       -112 56 -81 76 -42 121 49 -69 19 27 -69 88 79 127 -64 127

model_80/tf.compat.v1.nn.depthwise_conv2d_24/depthwise i1 [1, 3, 3, 24]
000000 5b d0 85 18 e4 81 d0 2c 3a 7f 81 4b 2f 61 7f 7f
       91 -48 -123 24 -28 -127 -48 44 58 127 -127 75 47 97 127 127
000010 05 38 81 da 66 c7 3f b4 5f 4d 7c 81 57 a7 9e 15
       5 56 -127 -38 102 -57 63 -76 95 77 124 -127 87 -89 -98 21
000020 8a 87 ff 7f f2 a6 34 23 af 71 d6 5d 73 81 84 5d
       -118 -121 -1 127 -14 -90 52 35 -81 113 -42 93 115 -127 -124 93
000030 ba fa 9b 26 b5 2c 63 81 e0 64 a5 d5 62 e4 af a0
       -70 -6 -101 38 -75 44 99 -127 -32 100 -91 -43 98 -28 -81 -96
000040 c4 31 b0 7f 74 4b 81 08 97 05 57 8e 81 cd 64 4e
       -60 49 -80 127 116 75 -127 8 -105 5 87 -114 -127 -51 100 78
000050 81 9b c3 51 50 e2 37 d2 73 68 2d f4 49 59 86 91
       -127 -101 -61 81 80 -30 55 -46 115 104 45 -12 73 89 -122 -111
000060 e7 61 ba cc 32 69 2c 39 60 09 b4 a1 be b0 de 7a
       -25 97 -70 -52 50 105 44 57 96 9 -76 -95 -66 -80 -34 122
000070 bd 0b c8 7a d8 1c 2b ff 29 4d 8b 49 f0 f8 c3 16
       -67 11 -56 122 -40 28 43 -1 41 77 -117 73 -16 -8 -61 22
000080 a9 32 c9 a4 d2 ca 5b 49 81 55 54 f9 db 5e e7 54
       -87 50 -55 -92 -46 -54 91 73 -127 85 84 -7 -37 94 -25 84
000090 00 5f 81 21 00 77 f3 5b 6a 76 f8 ad 81 ad 2c 8a
       0 95 -127 33 0 119 -13 91 106 118 -8 -83 -127 -83 44 -118
0000a0 29 7f a7 16 22 55 84 20 7f c4 0c ee 62 50 d5 94
       41 127 -89 22 34 85 -124 32 127 -60 12 -18 98 80 -43 -108
0000b0 dc a9 84 ea e2 81 ef 66 88 d3 8f e7 81 50 c2 8e
       -36 -87 -124 -22 -30 -127 -17 102 -120 -45 -113 -25 -127 80 -62 -114
0000c0 22 7f 5f 93 b8 32 81 a0 a9 a7 ba 59 1a 14 d6 29
       34 127 95 -109 -72 50 -127 -96 -87 -89 -70 89 26 20 -42 41
0000d0 96 de 0a 12 71 98 d8 81
       -106 -34 10 18 113 -104 -40 -127

model_80/tf.compat.v1.nn.depthwise_conv2d_23/depthwise i1 [1, 3, 3, 24]
000000 72 08 63 87 65 29 d1 da fc cc 85 da 2e 61 b0 c3
       114 8 99 -121 101 41 -47 -38 -4 -52 -123 -38 46 97 -80 -61
000010 49 fa c6 c3 bf 4e 2e b5 0a 29 2e 96 5a d1 62 09
       73 -6 -58 -61 -65 78 46 -75 10 41 46 -106 90 -47 98 9
000020 92 19 46 2e d3 47 88 ab 48 0b cb 88 81 da 08 6c
       -110 25 70 46 -45 71 -120 -85 72 11 -53 -120 -127 -38 8 108
000030 ae cc 7f 81 c0 be 71 e8 a6 a9 84 18 7f 0c 81 68
       -82 -52 127 -127 -64 -66 113 -24 -90 -87 -124 24 127 12 -127 104
000040 6a 10 70 81 56 d3 a9 d4 2d 7c fb 78 0d 1a 11 45
       106 16 112 -127 86 -45 -87 -44 45 124 -5 120 13 26 17 69
000050 e5 87 ba 8f df 68 ca 08 81 dc 4f 91 19 56 98 7f
       -27 -121 -70 -113 -33 104 -54 8 -127 -36 79 -111 25 86 -104 127
000060 c2 7f e5 bd 5a 81 3c ca 81 18 d2 28 78 29 af 2c
       -62 127 -27 -67 90 -127 60 -54 -127 24 -46 40 120 41 -81 44
000070 ae c0 f3 44 88 a3 81 bb 24 5b ae 3f 6e 54 a6 81
       -82 -64 -13 68 -120 -93 -127 -69 36 91 -82 63 110 84 -90 -127
000080 b5 9b 5e 4a 74 f2 0a a3 fb cd 7f a4 cf ce 85 40
       -75 -101 94 74 116 -14 10 -93 -5 -51 127 -92 -49 -50 -123 64
000090 72 19 04 c1 04 34 7f e5 01 58 71 7f 08 1d 06 43
       114 25 4 -63 4 52 127 -27 1 88 113 127 8 29 6 67
0000a0 42 9e e6 78 9d 78 9f dd 96 b1 bc 5b 54 43 96 e2
       66 -98 -26 120 -99 120 -97 -35 -106 -79 -68 91 84 67 -106 -30
0000b0 7b d6 7f d9 56 0d c8 ea 91 81 df cf b0 81 bf 04
       123 -42 127 -39 86 13 -56 -22 -111 -127 -33 -49 -80 -127 -65 4
0000c0 7f fb 14 e4 81 9d 10 e8 a6 81 36 65 c9 81 e9 7f
       127 -5 20 -28 -127 -99 16 -24 -90 -127 54 101 -55 -127 -23 127
0000d0 5e 15 ff 43 29 27 97 1e
       94 21 -1 67 41 39 -105 30

model_80/tf.compat.v1.nn.depthwise_conv2d_21/depthwise i1 [1, 2, 2, 24]
000000 6c ef 7f 7f 81 9b 25 30 48 df 2b ba 81 81 81 35
       108 -17 127 127 -127 -101 37 48 72 -33 43 -70 -127 -127 -127 53
000010 7f 7f 7f 2b a5 41 7f 7f fe 81 77 4d 76 9d e1 0d
       127 127 127 43 -91 65 127 127 -2 -127 119 77 118 -99 -31 13
000020 81 e9 7f 46 8c ea e0 7f e7 9f 6c b6 a9 81 37 c7
       -127 -23 127 70 -116 -22 -32 127 -25 -97 108 -74 -87 -127 55 -57
000030 7f 61 52 2a f7 81 7f 3d 8d 4c ac 7f 97 f9 ca 04
       127 97 82 42 -9 -127 127 61 -115 76 -84 127 -105 -7 -54 4
000040 b7 c3 58 14 81 fe 58 a5 cb 0e bc 00 46 8f f2 81
       -73 -61 88 20 -127 -2 88 -91 -53 14 -68 0 70 -113 -14 -127
000050 07 7f 7b 21 23 a0 9d 1f ad dc ae 81 bd 9e 1f 24
       7 127 123 33 35 -96 -99 31 -83 -36 -82 -127 -67 -98 31 36

model_80/tf.compat.v1.nn.depthwise_conv2d_19/depthwise i1 [1, 5, 5, 24]
000000 c0 25 81 54 18 1a 10 c7 cb ab 72 06 19 d1 31 20
       -64 37 -127 84 24 26 16 -57 -53 -85 114 6 25 -47 49 32
000010 b7 99 70 4f 66 58 b9 d1 ea 1f e2 a2 4a 49 04 5c
       -73 -103 112 79 102 88 -71 -47 -22 31 -30 -94 74 73 4 92
000020 eb 56 84 63 c4 ec b8 8b e7 fe 3f d8 7f eb e6 cb
       -21 86 -124 99 -60 -20 -72 -117 -25 -2 63 -40 127 -21 -26 -53
000030 6f 9d 11 8d 00 76 9c 7e d0 1d 6d 66 5d ac a8 25
       111 -99 17 -115 0 118 -100 126 -48 29 109 102 93 -84 -88 37
000040 b5 35 c5 cb 1c 43 3d ba c4 6f 5f 4d bf f4 b1 9e
       -75 53 -59 -53 28 67 61 -70 -60 111 95 77 -65 -12 -79 -98
000050 3a db 30 da 1b 1c 4f 69 cb 33 94 97 f9 d0 7f a0
       58 -37 48 -38 27 28 79 105 -53 51 -108 -105 -7 -48 127 -96
000060 0d 91 3c ad 57 ce 3a a2 19 b0 5b 01 fb d8 40 9d
       13 -111 60 -83 87 -50 58 -94 25 -80 91 1 -5 -40 64 -99
000070 7f bd ac d1 c7 6a 58 c1 34 7f 2d 65 7f e9 3d c7
       127 -67 -84 -47 -57 106 88 -63 52 127 45 101 127 -23 61 -57
000080 31 c5 8d 4f 49 c1 04 28 a1 22 a5 2f 1b d4 01 22
       49 -59 -115 79 73 -63 4 40 -95 34 -91 47 27 -44 1 34
000090 17 c1 71 4d f2 24 53 bb 7f 1c e9 95 f5 ad 91 22
       23 -63 113 77 -14 36 83 -69 127 28 -23 -107 -11 -83 -111 34
0000a0 c3 5b 27 c8 1a b9 db c6 05 49 b8 35 fe 48 65 c0
       -61 91 39 -56 26 -71 -37 -58 5 73 -72 53 -2 72 101 -64
0000b0 66 20 c1 e0 b5 1e 9e 67 8d 21 1c 77 13 87 34 9c
       102 32 -63 -32 -75 30 -98 103 -115 33 28 119 19 -121 52 -100
0000c0 38 67 69 75 c2 4c 45 41 d7 5d 60 b0 43 52 e9 75
       56 103 105 117 -62 76 69 65 -41 93 96 -80 67 82 -23 117
0000d0 49 c2 1f 2a 54 a3 79 21 41 77 cc de 53 5c 7f d7
       73 -62 31 42 84 -93 121 33 65 119 -52 -34 83 92 127 -41
0000e0 e6 62 0b 57 a2 13 ea 15 a6 37 b9 53 a3 3b 4d 41
       -26 98 11 87 -94 19 -22 21 -90 55 -71 83 -93 59 77 65
0000f0 36 3e ad 50 4e 33 dd 89 ac 29 6e c5 33 2c 57 f8
       54 62 -83 80 78 51 -35 -119 -84 41 110 -59 51 44 87 -8

model_80/tf.nn.convolution_36/convolution i1 [24, 1, 1, 336]
000000 eb f3 1e ca 0c f8 d0 19 ed 05 1b 02 d8 f4 e7 d1
       -21 -13 30 -54 12 -8 -48 25 -19 5 27 2 -40 -12 -25 -47
000010 d8 0a 1b c3 e9 d9 08 eb e8 14 fb 00 eb d5 e2 f2
       -40 10 27 -61 -23 -39 8 -21 -24 20 -5 0 -21 -43 -30 -14
000020 ea d5 e3 fb fc ea 26 e0 ef e4 09 cc ec da fc 03
       -22 -43 -29 -5 -4 -22 38 -32 -17 -28 9 -52 -20 -38 -4 3
000030 c7 06 0b 12 02 f8 d7 05 07 fa fb 1a f9 2c e0 2d
       -57 6 11 18 2 -8 -41 5 7 -6 -5 26 -7 44 -32 45
000040 01 f7 3a e3 1f 20 2e ef fc 1c f0 15 d4 14 ef 08
       1 -9 58 -29 31 32 46 -17 -4 28 -16 21 -44 20 -17 8
000050 fa 0a 20 f5 20 04 47 e3 30 f0 ce da 1d d1 f0 03
       -6 10 32 -11 32 4 71 -29 48 -16 -50 -38 29 -47 -16 3
000060 1b e8 e6 01 04 c0 0a f2 df 07 07 fa 30 df f1 d6
       27 -24 -26 1 4 -64 10 -14 -33 7 7 -6 48 -33 -15 -42
000070 eb df 1c 2c 2b 0e 0c e0 19 ec e5 1e 01 7f 29 f6
       -21 -33 28 44 43 14 12 -32 25 -20 -27 30 1 127 41 -10
000080 19 f6 04 d9 32 10 ea 1c cf d5 f4 0b f4 e6 03 e8
       25 -10 4 -39 50 16 -22 28 -49 -43 -12 11 -12 -26 3 -24
000090 14 11 26 36 d8 01 fc 0b ea d5 12 00 db fc fc 21
       20 17 38 54 -40 1 -4 11 -22 -43 18 0 -37 -4 -4 33
0000a0 1a 1e fa 14 e3 fd e8 ee 0a 29 e5 e4 e3 e2 fb f9
       26 30 -6 20 -29 -3 -24 -18 10 41 -27 -28 -29 -30 -5 -7
0000b0 30 fe e6 c0 22 ef 0a 1b e0 cf 1c f4 23 de de 2f
       48 -2 -26 -64 34 -17 10 27 -32 -49 28 -12 35 -34 -34 47
0000c0 1e d3 0b 0a 45 d2 2b dd 1b e9 17 0d f1 f7 de 33
       30 -45 11 10 69 -46 43 -35 27 -23 23 13 -15 -9 -34 51
0000d0 cf e9 19 18 f1 04 2b 20 df 24 f0 e4 ec 25 f7 db
       -49 -23 25 24 -15 4 43 32 -33 36 -16 -28 -20 37 -9 -37
0000e0 f4 e2 1c f9 1c df fa c3 e2 0c 2b 30 d3 f2 f5 f0
       -12 -30 28 -7 28 -33 -6 -61 -30 12 43 48 -45 -14 -11 -16
0000f0 f2 c9 1b 27 e7 1f de 12 df 2f 19 f2 0e 14 0d 3a
       -14 -55 27 39 -25 31 -34 18 -33 47 25 -14 14 20 13 58

model_80/tf.nn.convolution_35/convolution i1 [96, 1, 1, 96]
000000 ea 4a c0 c1 d4 2d c5 01 52 1b 1b 7f d4 fc c2 46
       -22 74 -64 -63 -44 45 -59 1 82 27 27 127 -44 -4 -62 70
000010 eb 76 06 11 06 03 27 fc ee b8 22 08 e1 d6 0e 35
       -21 118 6 17 6 3 39 -4 -18 -72 34 8 -31 -42 14 53
000020 ed 59 b5 eb 52 d8 fc dc 0c 47 45 e8 16 ac 12 11
       -19 89 -75 -21 82 -40 -4 -36 12 71 69 -24 22 -84 18 17
000030 2b c7 b4 de 5b 00 0f db e8 be f5 c9 dc 64 31 4c
       43 -57 -76 -34 91 0 15 -37 -24 -66 -11 -55 -36 100 49 76
000040 fe dd 08 01 14 05 26 f4 9a de 17 e7 03 35 12 b1
       -2 -35 8 1 20 5 38 -12 -102 -34 23 -25 3 53 18 -79
000050 77 ff cb ec 37 e6 c7 fc ed fd 13 05 e7 ff 12 6b
       119 -1 -53 -20 55 -26 -57 -4 -19 -3 19 5 -25 -1 18 107
000060 ed 02 2d ea 04 fe f9 dc 03 1b 23 00 02 0b e7 d7
       -19 2 45 -22 4 -2 -7 -36 3 27 35 0 2 11 -25 -41
000070 4c f0 0a eb ec fb 0a 15 1a 0f a9 08 00 dc e0 0d
       76 -16 10 -21 -20 -5 10 21 26 15 -87 8 0 -36 -32 13
000080 13 00 f6 fd d8 21 26 e9 e3 f3 42 dc ee 16 03 02
       19 0 -10 -3 -40 33 38 -23 -29 -13 66 -36 -18 22 3 2
000090 0d e0 f5 1a 26 1e 08 d7 dc ea 23 ee d6 03 ea 04
       13 -32 -11 26 38 30 8 -41 -36 -22 35 -18 -42 3 -22 4
0000a0 b5 d0 e9 ff f4 d9 fc 54 e1 1a 15 11 0e f0 d2 17
       -75 -48 -23 -1 -12 -39 -4 84 -31 26 21 17 14 -16 -46 23
0000b0 0b e3 e0 f2 ea 0b ed d8 fe ea 06 13 19 10 f5 7f
       11 -29 -32 -14 -22 11 -19 -40 -2 -22 6 19 25 16 -11 127
0000c0 f6 d9 f5 22 fb 7f db 3f f6 f7 02 3e 04 ea 08 fd
       -10 -39 -11 34 -5 127 -37 63 -10 -9 2 62 4 -22 8 -3
0000d0 e4 f9 0c 0a 03 13 eb f9 eb e7 aa 07 09 fc 19 0f
       -28 -7 12 10 3 19 -21 -7 -21 -25 -86 7 9 -4 25 15
0000e0 10 0a fc 10 1b 55 0b 0c 12 19 e7 f4 da 20 16 fa
       16 10 -4 16 27 85 11 12 18 25 -25 -12 -38 32 22 -6
0000f0 06 0c 02 f6 ea d3 d8 d3 ec 13 0a 3d f5 63 1d c7
       6 12 2 -10 -22 -45 -40 -45 -20 19 10 61 -11 99 29 -57

model_80/tf.compat.v1.nn.depthwise_conv2d_18/depthwise i1 [1, 3, 3, 96]
000000 02 db 5f 9f 05 72 36 00 0c f7 fe fb 09 0e 05 1c
       2 -37 95 -97 5 114 54 0 12 -9 -2 -5 9 14 5 28
000010 10 5f e2 77 7f 0c 46 7f 0c 66 00 ff 0e cd 11 01
       16 95 -30 119 127 12 70 127 12 102 0 -1 14 -51 17 1
000020 7f 75 b5 64 6a 5f ac 03 d2 e6 85 9c e5 e2 bc 37
       127 117 -75 100 106 95 -84 3 -46 -26 -123 -100 -27 -30 -68 55
000030 4c 41 0f fb 9b 24 e8 07 34 ce b5 03 2a e0 ae 30
       76 65 15 -5 -101 36 -24 7 52 -50 -75 3 42 -32 -82 48
000040 4d 03 00 df 81 4a 0a 8b 07 c8 0c 7f d1 14 bb 45
       77 3 0 -33 -127 74 10 -117 7 -56 12 127 -47 20 -69 69
000050 74 07 ef f7 31 c2 f4 24 d1 de 0a 81 ec f7 0f b2
       116 7 -17 -9 49 -62 -12 36 -47 -34 10 -127 -20 -9 15 -78
000060 33 f6 32 e3 5c 6b 00 81 b9 06 81 b4 31 41 7f 44
       51 -10 50 -29 92 107 0 -127 -71 6 -127 -76 49 65 127 68
000070 6b 3b 7f 5e 07 26 73 c9 7f d1 13 e6 2d c8 de 03
       107 59 127 94 7 38 115 -55 127 -47 19 -26 45 -56 -34 3
000080 2b 7c 0b 31 13 db f0 19 81 a2 fd e1 ef 5d c1 0f
       43 124 11 49 19 -37 -16 25 -127 -94 -3 -31 -17 93 -63 15
000090 fa dd ff ff bd 06 b9 22 04 c3 9a 0a 43 be 81 e7
       -6 -35 -1 -1 -67 6 -71 34 4 -61 -102 10 67 -66 -127 -25
0000a0 12 02 e6 ed aa 7f d7 cb 68 29 a8 2a d6 12 bd 7f
       18 2 -26 -19 -86 127 -41 -53 104 41 -88 42 -42 18 -67 127
0000b0 78 12 2d 7f 69 a3 01 7f d8 81 41 cd 81 f5 04 00
       120 18 45 127 105 -93 1 127 -40 -127 65 -51 -127 -11 4 0
0000c0 00 f8 78 ba 06 34 2e 05 cd fe e3 fd 06 0f f4 2a
       0 -8 120 -70 6 52 46 5 -51 -2 -29 -3 6 15 -12 42
0000d0 30 5a e0 1a a5 41 78 71 1d 4d 03 19 08 31 ff 04
       48 90 -32 26 -91 65 120 113 29 77 3 25 8 49 -1 4
0000e0 7f 7f 7f 1c 37 4c ce fc e3 af 81 85 db ea c5 3b
       127 127 127 28 55 76 -50 -4 -29 -81 -127 -123 -37 -22 -59 59
0000f0 36 47 0f ff a4 3f 0d f6 27 c0 dc 11 33 fc b0 01
       54 71 15 -1 -92 63 13 -10 39 -64 -36 17 51 -4 -80 1

model_80/tf.nn.convolution_34/convolution i1 [96, 1, 1, 96]
000000 e8 0e ef 14 31 e3 fa d3 f7 17 fb be f8 f7 fc bf
       -24 14 -17 20 49 -29 -6 -45 -9 23 -5 -66 -8 -9 -4 -65
000010 f5 2f cb 10 f4 81 db f7 a7 33 16 fd 17 c6 e4 bb
       -11 47 -53 16 -12 -127 -37 -9 -89 51 22 -3 23 -58 -28 -69
000020 28 0f d9 ef 45 db 00 07 9d ea 26 fb 03 97 f7 51
       40 15 -39 -17 69 -37 0 7 -99 -22 38 -5 3 -105 -9 81
000030 07 c2 0b 07 cb 03 fe 94 ef 77 b7 8d f9 bb b2 c1
       7 -62 11 7 -53 3 -2 -108 -17 119 -73 -115 -7 -69 -78 -63
000040 ec 78 cc ce bc 19 f1 58 30 f9 1e 15 e7 e4 2d c7
       -20 120 -52 -50 -68 25 -15 88 48 -7 30 21 -25 -28 45 -57
000050 2b 3b 0c c4 15 eb 7f 07 fd bf d4 c7 fb c8 cc ff
       43 59 12 -60 21 -21 127 7 -3 -65 -44 -57 -5 -56 -52 -1
000060 f7 f0 07 e8 c7 db 31 16 13 cb f4 0a ff 2d 17 0b
       -9 -16 7 -24 -57 -37 49 22 19 -53 -12 10 -1 45 23 11
000070 10 f9 12 2b 0c 3c 2a 07 0e d7 12 3e ee 25 02 0b
       16 -7 18 43 12 60 42 7 14 -41 18 62 -18 37 2 11
000080 f0 1c fc bf e2 c9 13 16 d9 c4 0f 1d e5 02 05 d2
       -16 28 -4 -65 -30 -55 19 22 -39 -60 15 29 -27 2 5 -46
000090 08 fc ed 13 f4 f4 b8 35 f7 e4 0f 81 3a 12 d1 24
       8 -4 -19 19 -12 -12 -72 53 -9 -28 15 -127 58 18 -47 36
0000a0 e6 df 05 09 1d 08 0a be fc fe 28 2b d5 0e da 15
       -26 -33 5 9 29 8 10 -66 -4 -2 40 43 -43 14 -38 21
0000b0 d7 e5 03 22 23 d8 0c 2a 02 25 f2 d4 12 24 a9 ff
       -41 -27 3 34 35 -40 12 42 2 37 -14 -44 18 36 -87 -1
0000c0 bf 24 4a d1 db 02 45 f6 f0 ce e4 f9 f4 40 d8 0a
       -65 36 74 -47 -37 2 69 -10 -16 -50 -28 -7 -12 64 -40 10
0000d0 07 19 c3 ed 13 d8 d6 18 fc f0 38 ca 05 d0 24 19
       7 25 -61 -19 19 -40 -42 24 -4 -16 56 -54 5 -48 36 25
0000e0 0f 3c 01 08 e6 24 f8 ea ff 26 da cc 22 f4 07 19
       15 60 1 8 -26 36 -8 -22 -1 38 -38 -52 34 -12 7 25
0000f0 a3 1f f1 02 e5 26 0c 05 e1 16 fc b2 d2 0b f3 bb
       -93 31 -15 2 -27 38 12 5 -31 22 -4 -78 -46 11 -13 -69

model_80/tf.nn.convolution_33/convolution i1 [96, 1, 1, 96]
000000 28 dc d7 ed cb 19 fa cf f7 ea 12 27 08 f6 f5 30
       40 -36 -41 -19 -53 25 -6 -49 -9 -22 18 39 8 -10 -11 48
000010 f1 f8 1a df 24 22 1c e7 25 cb f8 e4 3b f0 e9 dc
       -15 -8 26 -33 36 34 28 -25 37 -53 -8 -28 59 -16 -23 -36
000020 d5 19 30 27 04 f6 1a f7 0b 13 d2 06 f4 ed 7f 18
       -43 25 48 39 4 -10 26 -9 11 19 -46 6 -12 -19 127 24
000030 19 0b f9 03 1c 20 f6 1d fa ea d2 fb 21 f3 be 03
       25 11 -7 3 28 32 -10 29 -6 -22 -46 -5 33 -13 -66 3
000040 f4 18 18 f3 2b 0f f5 cd 33 24 0e db 02 c0 08 2f
       -12 24 24 -13 43 15 -11 -51 51 36 14 -37 2 -64 8 47
000050 00 e8 18 cd 22 00 f9 1b 02 0b 0a 0f 06 11 c7 4d
       0 -24 24 -51 34 0 -7 27 2 11 10 15 6 17 -57 77
000060 1d 29 9f 3b fd fb 32 10 01 ed fa 06 ea f4 19 0d
       29 41 -97 59 -3 -5 50 16 1 -19 -6 6 -22 -12 25 13
000070 15 ea f8 e1 17 15 18 38 fb fc eb c6 f5 00 d5 27
       21 -22 -8 -31 23 21 24 56 -5 -4 -21 -58 -11 0 -43 39
000080 da e8 bc fc b6 e5 fd 39 f0 6f f2 f3 bb f5 f9 01
       -38 -24 -68 -4 -74 -27 -3 57 -16 111 -14 -13 -69 -11 -7 1
000090 ff 1f d3 08 c5 35 d0 7f da eb 01 e8 ed 1f b5 ed
       -1 31 -45 8 -59 53 -48 127 -38 -21 1 -24 -19 31 -75 -19
0000a0 ab fc e9 e3 00 0a 02 fc 2e fc 11 f9 dc ce 39 01
       -85 -4 -23 -29 0 10 2 -4 46 -4 17 -7 -36 -50 57 1
0000b0 23 25 b3 08 51 ce fe fa ef 2f ff 00 ac f2 03 07
       35 37 -77 8 81 -50 -2 -6 -17 47 -1 0 -84 -14 3 7
0000c0 00 1f 0a 07 eb 1f fd f8 1e 00 0f ff d1 d4 d9 e5
       0 31 10 7 -21 31 -3 -8 30 0 15 -1 -47 -44 -39 -27
0000d0 f0 32 d9 1d 13 20 0a f9 f8 10 f1 fb 27 db 13 f4
       -16 50 -39 29 19 32 10 -7 -8 16 -15 -5 39 -37 19 -12
0000e0 ff fd d7 ff 24 e1 ff 06 fb f6 f0 dd 7c 03 bc f4
       -1 -3 -41 -1 36 -31 -1 6 -5 -10 -16 -35 124 3 -68 -12
0000f0 dd 1b 23 e3 23 ed 1d c0 0e e8 00 12 a4 06 7f 1c
       -35 27 35 -29 35 -19 29 -64 14 -24 0 18 -92 6 127 28

model_80/tf.compat.v1.nn.depthwise_conv2d_17/depthwise i1 [1, 3, 3, 96]
000000 7f fe fd 43 01 ed 38 8b 1e 6a f3 fb f8 89 5a 14
       127 -2 -3 67 1 -19 56 -117 30 106 -13 -5 -8 -119 90 20
000010 39 72 2f 0a fa 50 be c0 c4 07 9f ad 7f 97 68 9f
       57 114 47 10 -6 80 -66 -64 -60 7 -97 -83 127 -105 104 -97
000020 eb 7f fb 74 42 26 e2 74 af e6 cc 00 0d 15 e7 f8
       -21 127 -5 116 66 38 -30 116 -81 -26 -52 0 13 21 -25 -8
000030 6e 67 12 23 84 a9 54 18 3c 13 7f 5c 3e 0a c5 28
       110 103 18 35 -124 -87 84 24 60 19 127 92 62 10 -59 40
000040 c7 06 f2 14 09 d3 2f d3 7f 20 13 7f 03 d9 81 02
       -57 6 -14 20 9 -45 47 -45 127 32 19 127 3 -39 -127 2
000050 e7 03 48 64 da e8 51 2e 37 b2 75 2e f0 ed 02 d3
       -25 3 72 100 -38 -24 81 46 55 -78 117 46 -16 -19 2 -45
000060 3b 01 3b ff 11 7f 7f 81 7f 23 bf e2 e2 db 31 7f
       59 1 59 -1 17 127 127 -127 127 35 -65 -30 -30 -37 49 127
000070 7f 09 0f 33 eb 57 81 e5 d8 97 9e d3 5e e4 3f 15
       127 9 15 51 -21 87 -127 -27 -40 -105 -98 -45 94 -28 63 21
000080 7f 2d f1 37 4c e9 b3 7f 2d 81 c8 5a fb f7 d1 10
       127 45 -15 55 76 -23 -77 127 45 -127 -56 90 -5 -9 -47 16
000090 7f 41 7f 17 81 f6 7f f9 10 0b 6b 72 a7 26 07 54
       127 65 127 23 -127 -10 127 -7 16 11 107 114 -89 38 7 84
0000a0 79 13 40 c7 55 c0 16 81 1d 7f 13 e2 d6 81 96 12
       121 19 64 -57 85 -64 22 -127 29 127 19 -30 -42 -127 -106 18
0000b0 17 0f 05 3c ff 02 d5 f8 7f 81 f2 7f 81 d1 68 ac
       23 15 5 60 -1 2 -43 -8 127 -127 -14 127 -127 -47 104 -84
0000c0 31 03 07 bc 19 e7 6a 94 40 4d 02 dc bd ae 5c 24
       49 3 7 -68 25 -25 106 -108 64 77 2 -36 -67 -82 92 36
0000d0 39 60 3b 09 e8 7f d5 cd da eb 81 d4 72 8c 46 3c
       57 96 59 9 -24 127 -43 -51 -38 -21 -127 -44 114 -116 70 60
0000e0 fc 56 e7 7f 57 2f ec 63 af b5 c3 04 b5 f3 e4 ec
       -4 86 -25 127 87 47 -20 99 -81 -75 -61 4 -75 -13 -28 -20
0000f0 53 7f 34 14 a4 5d 46 1e 26 38 6a 7f 15 05 0a 5c
       83 127 52 20 -92 93 70 30 38 56 106 127 21 5 10 92

model_80/tf.nn.convolution_32/convolution i1 [96, 1, 1, 96]
000000 a5 3f 36 ef 3e 3a 43 1d 2c 07 01 08 eb 33 f2 f0
       -91 63 54 -17 62 58 67 29 44 7 1 8 -21 51 -14 -16
000010 e1 f2 ec b8 b8 be 1f 49 ed 04 b3 27 ed f0 3d 0a
       -31 -14 -20 -72 -72 -66 31 73 -19 4 -77 39 -19 -16 61 10
000020 b7 fe d4 cb a7 32 d5 44 23 2d 09 15 fa a1 05 37
       -73 -2 -44 -53 -89 50 -43 68 35 45 9 21 -6 -95 5 55
000030 60 41 0c f9 23 10 02 2e e6 49 0e 0a fb f3 e8 81
       96 65 12 -7 35 16 2 46 -26 73 14 10 -5 -13 -24 -127
000040 ec 45 40 10 36 05 a7 11 eb f7 3d d9 3d dc d2 fc
       -20 69 64 16 54 5 -89 17 -21 -9 61 -39 61 -36 -46 -4
000050 d0 30 d8 af ea e2 37 10 09 e1 0f 96 06 d7 2e 2a
       -48 48 -40 -81 -22 -30 55 16 9 -31 15 -106 6 -41 46 42
000060 25 32 d1 37 02 bc 24 d0 26 ff d9 c3 29 28 fb 0f
       37 50 -47 55 2 -68 36 -48 38 -1 -39 -61 41 40 -5 15
000070 0d 53 bd ea 39 c6 25 03 7f 47 d8 3a e2 0a 0c f9
       13 83 -67 -22 57 -58 37 3 127 71 -40 58 -30 10 12 -7
000080 0a 2d 29 08 14 84 ec f3 36 e2 36 ec e8 13 d2 16
       10 45 41 8 20 -124 -20 -13 54 -30 54 -20 -24 19 -46 22
000090 04 12 af 1f af db 62 e4 09 da 24 e4 1c cb f5 fc
       4 18 -81 31 -81 -37 98 -28 9 -38 36 -28 28 -53 -11 -4
0000a0 05 df ee e0 cd c6 e4 fc f4 2a f8 51 38 fa 47 dd
       5 -33 -18 -32 -51 -58 -28 -4 -12 42 -8 81 56 -6 71 -35
0000b0 e9 47 e1 d1 c6 13 03 ed 16 cc f4 e3 34 ed d5 07
       -23 71 -31 -47 -58 19 3 -19 22 -52 -12 -29 52 -19 -43 7
0000c0 fd fe 15 3c 03 f9 f5 f8 e5 f4 28 05 18 0b e2 eb
       -3 -2 21 60 3 -7 -11 -8 -27 -12 40 5 24 11 -30 -21
0000d0 d9 16 0b ee f8 0e 10 16 1f eb ea f0 28 0f eb ee
       -39 22 11 -18 -8 14 16 22 31 -21 -22 -16 40 15 -21 -18
0000e0 ee e2 e0 df e9 ef d7 0c 28 ff ee e7 f4 15 31 ff
       -18 -30 -32 -33 -23 -17 -41 12 40 -1 -18 -25 -12 21 49 -1
0000f0 e0 66 2c e7 d5 1d 3b 19 37 f8 81 14 df 25 cf 17
       -32 102 44 -25 -43 29 59 25 55 -8 -127 20 -33 37 -49 23

model_80/tf.nn.convolution_31/convolution i1 [96, 1, 1, 96]
000000 0a e9 ff 35 e0 f5 17 7f 34 0b 45 0d f0 f8 c1 35
       10 -23 -1 53 -32 -11 23 127 52 11 69 13 -16 -8 -63 53
000010 50 f6 bf 33 ee fb aa c7 18 f1 8b 4b fe 1f f5 0b
       80 -10 -65 51 -18 -5 -86 -57 24 -15 -117 75 -2 31 -11 11
000020 cd f3 dc 09 54 05 e3 fd f7 c9 f0 24 db f5 4c 0e
       -51 -13 -36 9 84 5 -29 -3 -9 -55 -16 36 -37 -11 76 14
000030 d7 2e c3 fd d5 cd fb 05 f1 d1 1f 0b 17 b6 ce d0
       -41 46 -61 -3 -43 -51 -5 5 -15 -47 31 11 23 -74 -50 -48
000040 0d 19 00 26 ee 10 3d f5 10 fa ec 15 f7 10 04 eb
       13 25 0 38 -18 16 61 -11 16 -6 -20 21 -9 16 4 -21
000050 1b fe b0 ae eb 19 6e f8 ee 0c 8a e3 05 27 23 0f
       27 -2 -80 -82 -21 25 110 -8 -18 12 -118 -29 5 39 35 15
000060 4c f5 fc 44 d8 29 0a cd 7f 05 f1 e9 fa fb 2a f2
       76 -11 -4 68 -40 41 10 -51 127 5 -15 -23 -6 -5 42 -14
000070 e9 c8 0c f5 f1 05 dc 33 32 d0 02 1d f6 ae 3c d9
       -23 -56 12 -11 -15 5 -36 51 50 -48 2 29 -10 -82 60 -39
000080 71 f1 fc fe a7 fb a5 06 2d 23 2d 11 2e 0d 10 1a
       113 -15 -4 -2 -89 -5 -91 6 45 35 45 17 46 13 16 26
000090 d2 0a 1c 06 f2 04 ec 48 c9 e2 32 14 1e b1 32 f3
       -46 10 28 6 -14 4 -20 72 -55 -30 50 20 30 -79 50 -13
0000a0 40 01 b0 e2 fe 32 09 ab 0b 11 d0 d5 ec ff 1b fb
       64 1 -80 -30 -2 50 9 -85 11 17 -48 -43 -20 -1 27 -5
0000b0 a9 1c 5c 24 21 c0 07 ec 18 f5 02 e7 01 b0 f7 05
       -87 28 92 36 33 -64 7 -20 24 -11 2 -25 1 -80 -9 5
0000c0 12 ef f1 ef 04 02 0a e3 49 ed ed 1c cd dc 15 c6
       18 -17 -15 -17 4 2 10 -29 73 -19 -19 28 -51 -36 21 -58
0000d0 ea 4b c4 e0 ff fb 2f e1 6a a2 f9 5b 04 21 0c ec
       -22 75 -60 -32 -1 -5 47 -31 106 -94 -7 91 4 33 12 -20
0000e0 18 4a f1 fa 32 d5 0b e9 03 ff bb a1 e3 be f2 0e
       24 74 -15 -6 50 -43 11 -23 3 -1 -69 -95 -29 -66 -14 14
0000f0 2b de c0 dc 12 1e 04 04 1e f1 31 fc f5 dd 00 18
       43 -34 -64 -36 18 30 4 4 30 -15 49 -4 -11 -35 0 24

model_80/tf.compat.v1.nn.depthwise_conv2d_16/depthwise i1 [1, 3, 3, 96]
000000 72 c3 2b 64 d0 31 37 03 22 79 cd da af 0b f0 f5
       114 -61 43 100 -48 49 55 3 34 121 -51 -38 -81 11 -16 -11
000010 3c cf 57 27 6a 13 81 ff c5 23 7f 38 3b ea da 7f
       60 -49 87 39 106 19 -127 -1 -59 35 127 56 59 -22 -38 127
000020 8e e8 dc 02 05 18 22 b8 0d 09 41 15 fa fc 4f 86
       -114 -24 -36 2 5 24 34 -72 13 9 65 21 -6 -4 79 -122
000030 11 de 40 37 32 2b 1d 61 fd e2 8f 81 cf 49 33 4f
       17 -34 64 55 50 43 29 97 -3 -30 -113 -127 -49 73 51 79
000040 0b a5 cb 4a a2 c5 eb d5 81 9c 0d 7d 20 22 97 7d
       11 -91 -53 74 -94 -59 -21 -43 -127 -100 13 125 32 34 -105 125
000050 48 11 45 2e c4 8e eb 38 c6 0a 25 d3 94 0e e0 2e
       72 17 69 46 -60 -114 -21 56 -58 10 37 -45 -108 14 -32 46
000060 63 81 7f e5 81 10 18 20 fc ec a8 8a 81 dc 81 16
       99 -127 127 -27 -127 16 24 32 -4 -20 -88 -118 -127 -36 -127 22
000070 7f 81 2a 3a 48 0d ba f1 81 57 b3 1d 38 81 ca 6e
       127 -127 42 58 72 13 -70 -15 -127 87 -77 29 56 -127 -54 110
000080 b3 dd 0c 09 ee ec 75 11 ea 7f 5b 3a fa ff 53 ec
       -77 -35 12 9 -18 -20 117 17 -22 127 91 58 -6 -1 83 -20
000090 eb e4 f2 29 50 7f 2a 28 fb 00 81 06 18 10 19 36
       -21 -28 -14 41 80 127 42 40 -5 0 -127 6 24 16 25 54
0000a0 e7 d3 81 7f f4 a5 03 bb fe 8d 29 42 c1 b1 96 e3
       -25 -45 -127 127 -12 -91 3 -69 -2 -115 41 66 -63 -79 -106 -29
0000b0 6a 52 f1 fc e4 f4 71 02 0f dd 24 d5 de 1f d9 7f
       106 82 -15 -4 -28 -12 113 2 15 -35 36 -43 -34 31 -39 127
0000c0 7f b1 4b 79 bb 2e a3 07 17 f9 d2 81 f1 c7 f1 f5
       127 -79 75 121 -69 46 -93 7 23 -7 -46 -127 -15 -57 -15 -11
0000d0 30 df 28 21 28 d2 8a 17 d2 16 6e 33 59 c0 fd 5a
       48 -33 40 33 40 -46 -118 23 -46 22 110 51 89 -64 -3 90
0000e0 a5 db 2d ea 0a 2b 21 4b 05 02 5d 2d e3 d1 34 7f
       -91 -37 45 -22 10 43 33 75 5 2 93 45 -29 -47 52 127
0000f0 11 dd 33 63 2e 0e 33 5b f5 44 99 44 db 42 2a 7f
       17 -35 51 99 46 14 51 91 -11 68 -103 68 -37 66 42 127

model_80/tf.nn.convolution_30/convolution i1 [96, 1, 1, 96]
000000 35 e8 f5 f2 ef f1 3e db f7 34 cf cb e0 d9 cf 4d
       53 -24 -11 -14 -17 -15 62 -37 -9 52 -49 -53 -32 -39 -49 77
000010 fa 09 1f b3 d5 01 e2 ae 40 ef e4 00 21 ed cf 17
       -6 9 31 -77 -43 1 -30 -82 64 -17 -28 0 33 -19 -49 23
000020 12 57 f3 ce 81 03 0b 01 2a 14 06 06 13 bc 01 0c
       18 87 -13 -50 -127 3 11 1 42 20 6 6 19 -68 1 12
000030 ec 4d db 1f ff e1 d4 c1 c6 3b 03 df f3 0c 0e 1a
       -20 77 -37 31 -1 -31 -44 -63 -58 59 3 -33 -13 12 14 26
000040 f8 f0 fa 1f dc 05 1a c6 09 df e3 f6 17 e4 1b 0e
       -8 -16 -6 31 -36 5 26 -58 9 -33 -29 -10 23 -28 27 14
000050 4f 11 1d c7 e6 0c b7 3f 14 33 d7 ff 0e ea ca 2f
       79 17 29 -57 -26 12 -73 63 20 51 -41 -1 14 -22 -54 47
000060 ec f0 e7 e1 df 2e 1e f2 0c 11 30 18 dc 0c 1f ed
       -20 -16 -25 -31 -33 46 30 -14 12 17 48 24 -36 12 31 -19
000070 ff 02 4f 01 08 e2 05 db f8 f9 f8 f9 23 05 09 f5
       -1 2 79 1 8 -30 5 -37 -8 -7 -8 -7 35 5 9 -11
000080 ff 00 0d d5 dc 2e d3 b6 f4 03 f4 fa 03 00 0b ff
       -1 0 13 -43 -36 46 -45 -74 -12 3 -12 -6 3 0 11 -1
000090 c4 d1 f6 f5 f7 f9 f5 22 fe ef 1d 2d 26 12 f2 ee
       -60 -47 -10 -11 -9 -7 -11 34 -2 -17 29 45 38 18 -14 -18
0000a0 f5 13 09 04 ec 12 c7 f1 e8 27 19 fe 0b ed 13 03
       -11 19 9 4 -20 18 -57 -15 -24 39 25 -2 11 -19 19 3
0000b0 fc 26 dd 7f 0d f7 c6 dc 0d 07 31 32 e8 e7 bf c7
       -4 38 -35 127 13 -9 -58 -36 13 7 49 50 -24 -25 -65 -57
0000c0 2d 17 10 3f 1d 11 f9 fe df 18 ec 12 14 f9 f9 ee
       45 23 16 63 29 17 -7 -2 -33 24 -20 18 20 -7 -7 -18
0000d0 de 1b 0b 2b d6 f2 29 12 13 b6 2f 2f f8 fa 1e d4
       -34 27 11 43 -42 -14 41 18 19 -74 47 47 -8 -6 30 -44
0000e0 18 e3 53 da b1 41 ea ed e0 0d 2d 22 fd 24 45 fc
       24 -29 83 -38 -79 65 -22 -19 -32 13 45 34 -3 36 69 -4
0000f0 0e 02 09 ff 0b e1 ee db f1 00 29 c4 34 60 fe 0c
       14 2 9 -1 11 -31 -18 -37 -15 0 41 -60 52 96 -2 12

model_80/tf.nn.convolution_29/convolution i1 [96, 1, 1, 96]
000000 10 22 f9 07 fa 15 dc c4 15 0f 32 fb 01 1b 30 fb
       16 34 -7 7 -6 21 -36 -60 21 15 50 -5 1 27 48 -5
000010 e4 84 e7 03 04 df fd 05 1b e9 e8 d3 fe ea d8 f8
       -28 -124 -25 3 4 -33 -3 5 27 -23 -24 -45 -2 -22 -40 -8
000020 e6 ef 96 0f 29 fc ec 30 ef 26 39 28 08 2a e4 27
       -26 -17 -106 15 41 -4 -20 48 -17 38 57 40 8 42 -28 39
000030 f7 34 b2 dc 08 7f 16 08 22 0b ad 1f 2b 2c f9 24
       -9 52 -78 -36 8 127 22 8 34 11 -83 31 43 44 -7 36
000040 30 28 c7 13 14 18 0a 2e f7 f5 df 03 0a 0e 14 fd
       48 40 -57 19 20 24 10 46 -9 -11 -33 3 10 14 20 -3
000050 2e 28 e5 ff cb 1c 1f 1e 1a 08 0f 19 e6 ce bb 17
       46 40 -27 -1 -53 28 31 30 26 8 15 25 -26 -50 -69 23
000060 c9 3a 30 fe ee f9 e2 df 03 e5 5d b1 3d 06 e4 bc
       -55 58 48 -2 -18 -7 -30 -33 3 -27 93 -79 61 6 -28 -68
000070 20 aa 0c 0f 14 9a fa 54 04 ba e5 02 30 dc 19 a4
       32 -86 12 15 20 -102 -6 84 4 -70 -27 2 48 -36 25 -92
000080 13 fb 00 ff 0d e5 26 66 19 00 d5 eb fd 30 e0 f7
       19 -5 0 -1 13 -27 38 102 25 0 -43 -21 -3 48 -32 -9
000090 35 b8 c9 1f 04 28 f3 fc 2e b1 ce 31 c1 07 f6 08
       53 -72 -55 31 4 40 -13 -4 46 -79 -50 49 -63 7 -10 8
0000a0 06 10 0e 70 25 e1 bb d6 11 01 eb df 38 7f 31 c1
       6 16 14 112 37 -31 -69 -42 17 1 -21 -33 56 127 49 -63
0000b0 ec a2 06 0d 31 01 0c f1 b8 5f bb e6 28 37 36 2d
       -20 -94 6 13 49 1 12 -15 -72 95 -69 -26 40 55 54 45
0000c0 a4 f8 dd fe 26 31 40 2b dc 08 ea 23 13 e1 82 05
       -92 -8 -35 -2 38 49 64 43 -36 8 -22 35 19 -31 -126 5
0000d0 4c d0 2d f6 06 c0 b7 46 f6 e0 f7 df 0a c5 11 0e
       76 -48 45 -10 6 -64 -73 70 -10 -32 -9 -33 10 -59 17 14
0000e0 ca 28 c1 30 15 4f f2 27 53 0c 4f 00 dc 8f f6 af
       -54 40 -63 48 21 79 -14 39 83 12 79 0 -36 -113 -10 -81
0000f0 fd 1b 43 37 cd 35 da 3e 8f 48 07 c0 0c 02 dc 38
       -3 27 67 55 -51 53 -38 62 -113 72 7 -64 12 2 -36 56

model_80/tf.compat.v1.nn.depthwise_conv2d_15/depthwise i1 [1, 3, 3, 96]
000000 f0 de 25 f7 30 ca 2c 1f c9 a5 4c d2 37 1f c4 3b
       -16 -34 37 -9 48 -54 44 31 -55 -91 76 -46 55 31 -60 59
000010 f8 24 bd d8 3d 40 e2 2e e1 1c b4 b5 cb 43 28 ab
       -8 36 -67 -40 61 64 -30 46 -31 28 -76 -75 -53 67 40 -85
000020 3b cc ca 38 db 18 24 f7 d7 41 e8 35 48 40 2d 21
       59 -52 -54 56 -37 24 36 -9 -41 65 -24 53 72 64 45 33
000030 2e 2d 2e e9 bb 28 c9 bb e7 0f 4f 14 19 e3 46 d1
       46 45 46 -23 -69 40 -55 -69 -25 15 79 20 25 -29 70 -47
000040 d8 c4 12 14 da f8 13 e2 7f d4 c2 2e ea 3e d7 25
       -40 -60 18 20 -38 -8 19 -30 127 -44 -62 46 -22 62 -41 37
000050 2f d5 e1 fe ba 37 3a 32 3a 7f 27 c6 ec e6 30 18
       47 -43 -31 -2 -70 55 58 50 58 127 39 -58 -20 -26 48 24
000060 a6 c1 3b 57 26 bd 61 37 a0 81 7c 96 49 1f bb 5b
       -90 -63 59 87 38 -67 97 55 -96 -127 124 -106 73 31 -69 91
000070 9a 36 9e cf 65 5f b6 6c ae 5e 81 b8 a4 55 47 bb
       -102 54 -98 -49 101 95 -74 108 -82 94 -127 -72 -92 85 71 -69
000080 62 da ba 56 bf 56 52 2f ae 34 bb 25 27 4b 61 4b
       98 -38 -70 86 -65 86 82 47 -82 52 -69 37 39 75 97 75
000090 4f 6b 41 c9 ad 3b 9b b3 d5 51 4d 46 38 de 5e 85
       79 107 65 -55 -83 59 -101 -77 -43 81 77 70 56 -34 94 -123
0000a0 88 a1 29 3b 8c c4 3c b1 78 99 81 56 ca 64 b6 59
       -120 -95 41 59 -116 -60 60 -79 120 -103 -127 86 -54 100 -74 89
0000b0 57 a4 81 a3 93 3d 5c 70 78 6a 4b a3 c2 b8 6d 62
       87 -92 -127 -93 -109 61 92 112 120 106 75 -93 -62 -72 109 98
0000c0 a2 d9 21 2c 1f d0 5a 49 ab 93 69 ad 20 37 ca 50
       -94 -39 33 44 31 -48 90 73 -85 -109 105 -83 32 55 -54 80
0000d0 b6 27 a0 bc 4c 33 d2 6b ba 6a 9b a9 c4 27 70 b6
       -74 39 -96 -68 76 51 -46 107 -70 106 -101 -87 -60 39 112 -74
0000e0 3c 57 cf 34 cd 3c 3a 40 c9 0c c1 2a 34 50 56 20
       60 87 -49 52 -51 60 58 64 -55 12 -63 42 52 80 86 32
0000f0 2b 5e 1c de cb 3d b7 cb cf 49 39 36 1f d4 48 b1
       43 94 28 -34 -53 61 -73 -53 -49 73 57 54 31 -44 72 -79

model_80/tf.nn.convolution_27/convolution i1 [96, 1, 1, 96]
000000 29 ed d6 94 ab fd ba 3e cc a7 98 07 f7 04 ba 15
       41 -19 -42 -108 -85 -3 -70 62 -52 -89 -104 7 -9 4 -70 21
000010 bb ed cd 30 0f f5 0a fc f5 27 db af 04 f0 81 fd
       -69 -19 -51 48 15 -11 10 -4 -11 39 -37 -81 4 -16 -127 -3
000020 0f 2f 3f 21 02 1e ec ff db 03 17 f7 2e 0c 26 0e
       15 47 63 33 2 30 -20 -1 -37 3 23 -9 46 12 38 14
000030 fb de 0b 13 f8 30 02 e3 ff 24 10 f1 fc d8 ef 38
       -5 -34 11 19 -8 48 2 -29 -1 36 16 -15 -4 -40 -17 56
000040 fb ff 1d ec 03 0e d1 fa e6 16 ed 11 d1 0f 18 1a
       -5 -1 29 -20 3 14 -47 -6 -26 22 -19 17 -47 15 24 26
000050 ef 08 fd 0d fb f3 c1 ec 27 df fd e8 ee 1c 07 fc
       -17 8 -3 13 -5 -13 -63 -20 39 -33 -3 -24 -18 28 7 -4
000060 fb f6 f7 1e d8 f9 e7 d4 7f cf e0 c0 bf 01 fc 3f
       -5 -10 -9 30 -40 -7 -25 -44 127 -49 -32 -64 -65 1 -4 63
000070 f4 01 ef f9 eb 02 21 39 06 08 00 04 f7 dc de f2
       -12 1 -17 -7 -21 2 33 57 6 8 0 4 -9 -36 -34 -14
000080 06 19 06 fa f4 fd f3 17 03 2b 1a 07 05 f4 03 05
       6 25 6 -6 -12 -3 -13 23 3 43 26 7 5 -12 3 5
000090 25 01 11 ff e0 0e 0d 13 f1 00 13 ee 04 0a fc 00
       37 1 17 -1 -32 14 13 19 -15 0 19 -18 4 10 -4 0
0000a0 03 ff 09 f6 f6 dd e5 02 f8 da f7 05 21 fd fd 00
       3 -1 9 -10 -10 -35 -27 2 -8 -38 -9 5 33 -3 -3 0
0000b0 17 e7 0e 0f 1c fa f3 01 fa de 03 0d 07 0d f8 14
       23 -25 14 15 28 -6 -13 1 -6 -34 3 13 7 13 -8 20
0000c0 05 11 07 e3 ca 4d d4 4d 0f e2 fe e4 19 f9 2a 1a
       5 17 7 -29 -54 77 -44 77 15 -30 -2 -28 25 -7 42 26
0000d0 d0 5d 4d 0e e0 18 0f f7 33 da a8 eb 9b c5 20 25
       -48 93 77 14 -32 24 15 -9 51 -38 -88 -21 -101 -59 32 37
0000e0 d6 eb ff e5 ff fc d4 b8 0c 0d 81 de e5 f7 e6 e8
       -42 -21 -1 -27 -1 -4 -44 -72 12 13 -127 -34 -27 -9 -26 -24
0000f0 d8 02 8b aa 3e c6 ea 64 f3 a5 40 f5 16 c6 da 1f
       -40 2 -117 -86 62 -58 -22 100 -13 -91 64 -11 22 -58 -38 31
