models/ultraface_slim_quant_int8/ultraface_slim_ultraslim_npu16.tflite (tflite, 287024 bytes, 8 tensors)

NeutronMicrocode u1 [5760]
110 77 67 100 109 10 113 111
40 22 0 0 0 0 0 0
40 22 0 0 16 0 0 0
128 22 0 0 228 52 4 0
1 0 0 0 0 0 3 0
0 0 0 0 1 0 0 0
3 0 0 0 51 0 0 0
177 12 0 0 0 0 0 0
3 5 6 0 1 1 1 0
2 7 0 0 0 0 0 0
0 0 64 0 0 0 0 0
0 0 32 0 0 0 1 0
0 0 64 0 0 0 64 0
0 0 16 0 0 0 16 0
0 0 1 0 0 0 128 0
0 0 128 0 0 0 3 0
0 0 3 0 0 0 3 0
0 0 2 0 0 0 2 0
0 0 1 0 0 0 1 0
0 0 0 0 0 0 0 0
0 0 1 0 0 0 8 2
192 1 16 1 15 7 0 0
0 0 0 0 0 0 1 0
0 0 1 0 0 0 255 255
255 255 48 128 0 0 0 0
0 0 0 0 0 0 0 0
0 0 0 0 0 0 5 7
3 5 6 6 1 1 1 0
2 27 0 0 2 0 0 0
0 0 128 2 0 0 0 2
0 0 96 2 0 0 1 0
0 0 64 0 0 0 64 0
00000000: 6e4d 4364 6d0a 716f 2816 0000 0000 0000
00000010: 2816 0000 1000 0000 8016 0000 e434 0400
00000020: 0100 0000 0000 0300 0000 0000 0100 0000
00000030: 0300 0000 3300 0000 b10c 0000 0000 0000
00000040: 0305 0600 0101 0100 0207 0000 0000 0000
00000050: 0000 4000 0000 0000 0000 2000 0000 0100
00000060: 0000 4000 0000 4000 0000 1000 0000 1000
00000070: 0000 0100 0000 8000 0000 8000 0000 0300
00000080: 0000 0300 0000 0300 0000 0200 0000 0200
00000090: 0000 0100 0000 0100 0000 0000 0000 0000
000000a0: 0000 0100 0000 0802 c001 1001 0f07 0000
000000b0: 0000 0000 0000 0100 0000 0100 0000 ffff
000000c0: ffff 3080 0000 0000 0000 0000 0000 0000
000000d0: 0000 0000 0000 0507 0305 0606 0101 0100
000000e0: 021b 0000 0200 0000 0000 8002 0000 0002
000000f0: 0000 6002 0000 0100 0000 4000 0000 4000

NeutronWeights u1 [275684]
13 31 75 22 246 18 38 19
239 15 56 34 122 1 242 30
219 26 146 10 24 14 220 19
223 22 215 26 36 26 70 27
198 90 128 83 77 78 63 78
53 99 122 90 229 78 239 91
40 82 201 79 40 74 36 78
26 102 127 87 243 86 91 91
230 218 30 17 1 0 251 49
224 245 246 24 251 2 3 24
213 123 191 169 129 162 210 229
222 26 15 191 23 21 45 49
239 235 17 127 129 129 152 23
227 247 251 129 37 18 19 120
49 206 34 241 151 191 192 149
201 37 11 156 26 13 14 8
26 60 48 66 240 236 229 220
85 50 16 7 213 234 221 129
185 204 83 132 48 36 244 190
182 38 34 133 234 247 239 248
235 30 195 10 56 48 204 217
27 22 85 50 28 31 238 249
14 105 134 215 247 25 124 88
44 21 184 48 24 52 166 189
75 125 247 230 17 10 110 92
160 187 255 2 85 87 84 55
57 104 82 84 186 201 251 229
68 27 161 77 240 242 129 157
88 126 233 246 221 231 62 52
5 4 226 233 145 146 188 204
72 127 162 164 216 177 220 206
73 51 129 78 0 244 188 239
00000000: 0d1f 4b16 f612 2613 ef0f 3822 7a01 f21e
00000010: db1a 920a 180e dc13 df16 d71a 241a 461b
00000020: c65a 8053 4d4e 3f4e 3563 7a5a e54e ef5b
00000030: 2852 c94f 284a 244e 1a66 7f57 f356 5b5b
00000040: e6da 1e11 0100 fb31 e0f5 f618 fb02 0318
00000050: d57b bfa9 81a2 d2e5 de1a 0fbf 1715 2d31
00000060: efeb 117f 8181 9817 e3f7 fb81 2512 1378
00000070: 31ce 22f1 97bf c095 c925 0b9c 1a0d 0e08
00000080: 1a3c 3042 f0ec e5dc 5532 1007 d5ea dd81
00000090: b9cc 5384 3024 f4be b626 2285 eaf7 eff8
000000a0: eb1e c30a 3830 ccd9 1b16 5532 1c1f eef9
000000b0: 0e69 86d7 f719 7c58 2c15 b830 1834 a6bd
000000c0: 4b7d f7e6 110a 6e5c a0bb ff02 5557 5437
000000d0: 3968 5254 bac9 fbe5 441b a14d f0f2 819d
000000e0: 587e e9f6 dde7 3e34 0504 e2e9 9192 bccc
000000f0: 487f a2a4 d8b1 dcce 4933 814e 00f4 bcef

NeutronMicrocode u1 [136]
110 77 67 100 109 10 113 111
60 0 0 0 0 0 0 0
60 0 0 0 8 0 0 0
136 0 0 0 12 0 0 0
1 0 0 0 0 0 0 0
0 0 0 0 1 0 0 0
1 0 0 0 1 0 0 0
179 12 0 0 0 0 0 0
3 4 2 0 1 1 2 109
0 0 0 0 0 0 0 0
0 0 0 0 4 0 0 0
1 0 0 0 1 0 0 0
88 1 0 0 16 1 15 7
0 0 0 0 0 0 0 0
0 0 0 0 48 128 254 37
5 109 1 0 0 0 0 0
88 1 0 0 88 1 0 0
00000000: 6e4d 4364 6d0a 716f 3c00 0000 0000 0000
00000010: 3c00 0000 0800 0000 8800 0000 0c00 0000
00000020: 0100 0000 0000 0000 0000 0000 0100 0000
00000030: 0100 0000 0100 0000 b30c 0000 0000 0000
00000040: 0304 0200 0101 026d 0000 0000 0000 0000
00000050: 0000 0000 0400 0000 0100 0000 0100 0000
00000060: 5801 0000 1001 0f07 0000 0000 0000 0000
00000070: 0000 0000 3080 fe25 056d 0100 0000 0000
00000080: 5801 0000 5801 0000

NeutronWeights u1 [12]
1 1 1 1 128 0 128 0
128 0 128 0
00000000: 0101 0101 8000 8000 8000 8000

NeutronMicrocode u1 [480]
110 77 67 100 109 10 113 111
134 1 0 0 0 0 0 0
134 1 0 0 16 0 0 0
224 1 0 0 48 4 0 0
1 0 0 0 184 6 0 0
0 0 0 0 2 0 0 0
2 0 0 0 8 0 0 0
187 14 0 0 0 0 0 0
3 4 6 0 2 2 2 95
0 0 0 0 0 0 0 0
0 0 0 0 88 1 0 0
88 1 0 0 1 0 0 0
16 1 14 7 48 128 175 66
0 0 0 0 0 0 0 0
5 95 3 4 6 6 2 2
2 95 96 5 0 0 0 0
0 0 8 4 0 0 12 4
0 0 1 0 0 0 88 1
0 0 16 1 14 7 48 128
2 70 0 0 0 0 0 0
0 0 5 95 3 3 6 6
2 0 2 78 0 0 0 0
96 5 0 0 16 4 0 0
172 0 0 0 2 0 0 0
4 0 0 0 128 255 255 255
16 1 9 64 0 0 0 0
5 78 3 5 6 1 6 2
2 0 2 79 176 2 0 0
0 0 0 0 0 0 0 0
20 4 0 0 28 4 0 0
176 2 0 0 1 0 0 0
16 3 15 7 48 219 40 71
00000000: 6e4d 4364 6d0a 716f 8601 0000 0000 0000
00000010: 8601 0000 1000 0000 e001 0000 3004 0000
00000020: 0100 0000 b806 0000 0000 0000 0200 0000
00000030: 0200 0000 0800 0000 bb0e 0000 0000 0000
00000040: 0304 0600 0202 025f 0000 0000 0000 0000
00000050: 0000 0000 5801 0000 5801 0000 0100 0000
00000060: 1001 0e07 3080 af42 0000 0000 0000 0000
00000070: 055f 0304 0606 0202 025f 6005 0000 0000
00000080: 0000 0804 0000 0c04 0000 0100 0000 5801
00000090: 0000 1001 0e07 3080 0246 0000 0000 0000
000000a0: 0000 055f 0303 0606 0200 024e 0000 0000
000000b0: 6005 0000 1004 0000 ac00 0000 0200 0000
000000c0: 0400 0000 80ff ffff 1001 0940 0000 0000
000000d0: 054e 0305 0601 0602 0200 024f b002 0000
000000e0: 0000 0000 0000 0000 1404 0000 1c04 0000
000000f0: b002 0000 0100 0000 1003 0f07 30db 2847

NeutronWeights u1 [1072]
32 32 48 48 32 32 48 48
32 32 48 48 32 32 48 48
32 32 48 48 32 32 48 48
32 32 48 48 32 32 48 48
32 32 48 48 32 32 48 48
32 32 48 48 32 32 48 48
32 32 48 48 32 32 48 48
32 32 48 48 32 32 48 48
32 32 48 48 32 32 48 48
32 32 48 48 32 32 48 48
32 32 48 48 32 32 48 48
32 32 48 48 32 32 48 48
32 32 48 48 32 32 48 48
32 32 48 48 32 32 48 48
32 32 48 48 32 32 48 48
32 32 48 48 32 32 48 48
32 32 48 48 32 32 48 48
32 32 48 48 32 32 48 48
32 32 48 48 32 32 48 48
32 32 48 48 32 32 48 48
32 32 48 48 32 32 48 48
32 32 48 48 32 32 48 48
32 32 48 48 32 32 48 48
32 32 48 48 32 32 48 48
32 32 48 48 32 32 48 48
32 32 48 48 32 32 48 48
32 32 48 48 32 32 48 48
32 32 48 48 32 32 48 48
32 32 48 48 32 32 48 48
32 32 48 48 32 32 48 48
32 32 48 48 32 32 48 48
32 32 48 48 32 32 48 48
00000000: 2020 3030 2020 3030 2020 3030 2020 3030
00000010: 2020 3030 2020 3030 2020 3030 2020 3030
00000020: 2020 3030 2020 3030 2020 3030 2020 3030
00000030: 2020 3030 2020 3030 2020 3030 2020 3030
00000040: 2020 3030 2020 3030 2020 3030 2020 3030
00000050: 2020 3030 2020 3030 2020 3030 2020 3030
00000060: 2020 3030 2020 3030 2020 3030 2020 3030
00000070: 2020 3030 2020 3030 2020 3030 2020 3030
00000080: 2020 3030 2020 3030 2020 3030 2020 3030
00000090: 2020 3030 2020 3030 2020 3030 2020 3030
000000a0: 2020 3030 2020 3030 2020 3030 2020 3030
000000b0: 2020 3030 2020 3030 2020 3030 2020 3030
000000c0: 2020 3030 2020 3030 2020 3030 2020 3030
000000d0: 2020 3030 2020 3030 2020 3030 2020 3030
000000e0: 2020 3030 2020 3030 2020 3030 2020 3030
000000f0: 2020 3030 2020 3030 2020 3030 2020 3030

NeutronMicrocode u1 [136]
110 77 67 100 109 10 113 111
60 0 0 0 0 0 0 0
60 0 0 0 8 0 0 0
136 0 0 0 12 0 0 0
1 0 0 0 0 0 0 0
0 0 0 0 1 0 0 0
1 0 0 0 1 0 0 0
188 14 0 0 0 0 0 0
3 4 2 0 1 1 2 109
0 0 0 0 0 0 0 0
0 0 0 0 4 0 0 0
1 0 0 0 1 0 0 0
176 2 0 0 16 1 15 15
0 0 0 0 0 0 0 0
0 0 0 0 48 128 141 33
5 109 1 0 0 0 0 0
176 2 0 0 176 2 0 0
00000000: 6e4d 4364 6d0a 716f 3c00 0000 0000 0000
00000010: 3c00 0000 0800 0000 8800 0000 0c00 0000
00000020: 0100 0000 0000 0000 0000 0000 0100 0000
00000030: 0100 0000 0100 0000 bc0e 0000 0000 0000
00000040: 0304 0200 0101 026d 0000 0000 0000 0000
00000050: 0000 0000 0400 0000 0100 0000 0100 0000
00000060: b002 0000 1001 0f0f 0000 0000 0000 0000
00000070: 0000 0000 3080 8d21 056d 0100 0000 0000
00000080: b002 0000 b002 0000

NeutronWeights u1 [12]
1 1 1 1 37 0 37 0
37 0 37 0
00000000: 0101 0101 2500 2500 2500 2500
