models/ultraface_slim_quant_int8/ultraface_slim_ultraslim_npu64.tflite (tflite, 304112 bytes, 12 tensors)

NeutronMicrocode u1 [3128]
0	0x6e	110
1	0x4d	77
2	0x43	67
3	0x64	100
4	0x91	145
5	0x2c	44
6	0x7b	123
7	0x91	145
8	0xea	234
9	0x0b	11
10	0x00	0
11	0x00	0
12	0x00	0
13	0x00	0
14	0x00	0
15	0x00	0
16	0xea	234
17	0x0b	11
18	0x00	0
19	0x00	0
20	0x08	8
21	0x00	0
22	0x00	0
23	0x00	0
24	0x38	56
25	0x0c	12
26	0x00	0
27	0x00	0
28	0x20	32
29	0x36	54
30	0x01	1
31	0x00	0
32	0x01	1
33	0x00	0
34	0x00	0
35	0x00	0
36	0x00	0
37	0x00	0
38	0x03	3
39	0x00	0
40	0x00	0
41	0x00	0
42	0x00	0
43	0x00	0
44	0x01	1
45	0x00	0
46	0x00	0
47	0x00	0
48	0x01	1
49	0x00	0
50	0x00	0
51	0x00	0
52	0x15	21
53	0x00	0
54	0x00	0
55	0x00	0
56	0xc6	198
57	0x01	1
58	0x00	0
59	0x00	0
60	0x00	0
61	0x00	0
62	0x00	0
63	0x00	0
64	0x03	3
65	0x05	5
66	0x04	4
67	0x00	0
68	0x01	1
69	0x01	1
70	0x01	1
71	0x00	0
72	0x02	2
73	0x07	7
74	0x00	0
75	0x00	0
76	0x00	0
77	0x00	0
78	0x00	0
79	0x00	0
80	0x00	0
81	0x00	0
82	0x80	128
83	0x00	0
84	0x00	0
85	0x00	0
86	0x00	0
87	0x00	0
88	0x00	0
89	0x00	0
90	0x40	64
91	0x00	0
92	0x00	0
93	0x00	0
94	0x01	1
95	0x00	0
96	0x00	0
97	0x00	0
98	0x40	64
99	0x00	0
100	0x00	0
101	0x00	0
102	0x40	64
103	0x00	0
104	0x00	0
105	0x00	0
106	0x10	16
107	0x00	0
108	0x00	0
109	0x00	0
110	0x10	16
111	0x00	0
112	0x00	0
113	0x00	0
114	0x01	1
115	0x00	0
116	0x00	0
117	0x00	0
118	0x80	128
119	0x00	0
120	0x00	0
121	0x00	0
122	0x80	128
123	0x00	0
124	0x00	0
125	0x00	0
126	0x03	3
127	0x00	0
128	0x00	0
129	0x00	0
130	0x03	3
131	0x00	0
132	0x00	0
133	0x00	0
134	0x03	3
135	0x00	0
136	0x00	0
137	0x00	0
138	0x02	2
139	0x00	0
140	0x00	0
141	0x00	0
142	0x02	2
143	0x00	0
144	0x00	0
145	0x00	0
146	0x01	1
147	0x00	0
148	0x00	0
149	0x00	0
150	0x01	1
151	0x00	0
152	0x00	0
153	0x00	0
154	0x01	1
155	0x00	0
156	0x00	0
157	0x00	0
158	0x01	1
159	0x00	0
160	0x00	0
161	0x00	0
162	0x01	1
163	0x00	0
164	0x00	0
165	0x00	0
166	0x01	1
167	0x00	0
168	0x00	0
169	0x00	0
170	0x20	32
171	0x00	0
172	0x0f	15
173	0x07	7
174	0x00	0
175	0x00	0
176	0x00	0
177	0x00	0
178	0x00	0
179	0x00	0
180	0x00	0
181	0x00	0
182	0x01	1
183	0x00	0
184	0x00	0
185	0x00	0
186	0x01	1
187	0x00	0
188	0x00	0
189	0x00	0
190	0xff	255
191	0xff	255
192	0xff	255
193	0xff	255
194	0x00	0
195	0x80	128
196	0x00	0
197	0x00	0
198	0x00	0
199	0x00	0
200	0x00	0
201	0x00	0
202	0x00	0
203	0x00	0
204	0x00	0
205	0x00	0
206	0x00	0
207	0x00	0
208	0x00	0
209	0x00	0
210	0x00	0
211	0x00	0
212	0x00	0
213	0x00	0
214	0x05	5
215	0x07	7
216	0x03	3
217	0x05	5
218	0x04	4
219	0x04	4
220	0x01	1
221	0x01	1
222	0x01	1
223	0x00	0
224	0x02	2
225	0x19	25
226	0x00	0
227	0x00	0
228	0x02	2
229	0x00	0
230	0x00	0
231	0x00	0
232	0x00	0
233	0x00	0
234	0x30	48
235	0x03	3
236	0x00	0
237	0x00	0
238	0x30	48
239	0x02	2
240	0x00	0
241	0x00	0
242	0xf0	240
243	0x02	2
244	0x00	0
245	0x00	0
246	0x01	1
247	0x00	0
248	0x00	0
249	0x00	0
250	0x40	64
251	0x00	0
252	0x00	0
253	0x00	0
254	0x40	64
255	0x00	0

NeutronWeights u1 [79392]
0	0x5f	95
1	0x86	134
2	0x01	1
3	0x00	0
4	0x63	99
5	0x49	73
6	0x00	0
7	0x00	0
8	0x66	102
9	0x2f	47
10	0x00	0
11	0x00	0
12	0x63	99
13	0x32	50
14	0x00	0
15	0x00	0
16	0x74	116
17	0x1f	31
18	0x00	0
19	0x00	0
20	0x10	16
21	0x38	56
22	0x02	2
23	0x00	0
24	0x7a	122
25	0x01	1
26	0x00	0
27	0x00	0
28	0x33	51
29	0x79	121
30	0x01	1
31	0x00	0
32	0xb8	184
33	0xb6	182
34	0x00	0
35	0x00	0
36	0x49	73
37	0x0a	10
38	0x00	0
39	0x00	0
40	0xbe	190
41	0x10	16
42	0x00	0
43	0x00	0
44	0xc7	199
45	0x3d	61
46	0x00	0
47	0x00	0
48	0xd7	215
49	0x5b	91
50	0x00	0
51	0x00	0
52	0xb0	176
53	0xb5	181
54	0x00	0
55	0x00	0
56	0xfd	253
57	0x88	136
58	0x00	0
59	0x00	0
60	0x98	152
61	0xd1	209
62	0x00	0
63	0x00	0
64	0xb3	179
65	0x58	88
66	0x1b	27
67	0x00	0
68	0xfd	253
69	0x37	55
70	0x18	24
71	0x00	0
72	0x3b	59
73	0x93	147
74	0x19	25
75	0x00	0
76	0xa9	169
77	0x8f	143
78	0x19	25
79	0x00	0
80	0x33	51
81	0xcd	205
82	0x1e	30
83	0x00	0
84	0x6f	111
85	0x9e	158
86	0x1c	28
87	0x00	0
88	0x4d	77
89	0x2e	46
90	0x17	23
91	0x00	0
92	0xbf	191
93	0xfb	251
94	0x1c	28
95	0x00	0
96	0xf7	247
97	0x89	137
98	0x1a	26
99	0x00	0
100	0x89	137
101	0x3c	60
102	0x17	23
103	0x00	0
104	0xfb	251
105	0x89	137
106	0x18	24
107	0x00	0
108	0x81	129
109	0x44	68
110	0x18	24
111	0x00	0
112	0x35	53
113	0x43	67
114	0x1e	30
115	0x00	0
116	0xd7	215
117	0x6f	111
118	0x1a	26
119	0x00	0
120	0xc9	201
121	0xbc	188
122	0x1b	27
123	0x00	0
124	0xb7	183
125	0xd6	214
126	0x1c	28
127	0x00	0
128	0xe6	230
129	0xda	218
130	0x1e	30
131	0x11	17
132	0xeb	235
133	0x1e	30
134	0xc3	195
135	0x0a	10
136	0x01	1
137	0x00	0
138	0xfb	251
139	0x31	49
140	0x38	56
141	0x30	48
142	0xcc	204
143	0xd9	217
144	0xe0	224
145	0xf5	245
146	0xf6	246
147	0x18	24
148	0x1b	27
149	0x16	22
150	0x55	85
151	0x32	50
152	0xfb	251
153	0x02	2
154	0x03	3
155	0x18	24
156	0x1c	28
157	0x1f	31
158	0xee	238
159	0xf9	249
160	0xd5	213
161	0x7b	123
162	0xbf	191
163	0xa9	169
164	0x0e	14
165	0x69	105
166	0x86	134
167	0xd7	215
168	0x81	129
169	0xa2	162
170	0xd2	210
171	0xe5	229
172	0xf7	247
173	0x19	25
174	0x7c	124
175	0x58	88
176	0xde	222
177	0x1a	26
178	0x0f	15
179	0xbf	191
180	0x2c	44
181	0x15	21
182	0xb8	184
183	0x30	48
184	0x17	23
185	0x15	21
186	0x2d	45
187	0x31	49
188	0x18	24
189	0x34	52
190	0xa6	166
191	0xbd	189
192	0xb3	179
193	0xc3	195
194	0xcc	204
195	0x7f	127
196	0x77	119
197	0x50	80
198	0xcb	203
199	0xcc	204
200	0x04	4
201	0x12	18
202	0xeb	235
203	0x0e	14
204	0x1e	30
205	0xd5	213
206	0x1d	29
207	0x1b	27
208	0x0d	13
209	0xdb	219
210	0x1b	27
211	0x31	49
212	0xc5	197
213	0x0d	13
214	0x24	36
215	0xbf	191
216	0x37	55
217	0x24	36
218	0x20	32
219	0x5e	94
220	0x3f	63
221	0x40	64
222	0x2f	47
223	0x27	39
224	0x1b	27
225	0x1f	31
226	0x93	147
227	0xaa	170
228	0x30	48
229	0xd9	217
230	0xa8	168
231	0x9b	155
232	0x32	50
233	0x19	25
234	0x15	21
235	0xcb	203
236	0xe8	232
237	0xf0	240
238	0xfa	250
239	0xfb	251
240	0x2b	43
241	0x4a	74
242	0x7f	127
243	0x04	4
244	0xf3	243
245	0x1f	31
246	0xe1	225
247	0xc6	198
248	0xff	255
249	0xfe	254
250	0xf0	240
251	0x0a	10
252	0x0f	15
253	0x11	17
254	0xbb	187
255	0xcc	204

NeutronMicrocode u1 [1328]
0	0x6e	110
1	0x4d	77
2	0x43	67
3	0x64	100
4	0x91	145
5	0x2c	44
6	0x7b	123
7	0x91	145
8	0xde	222
9	0x04	4
10	0x00	0
11	0x00	0
12	0x00	0
13	0x00	0
14	0x00	0
15	0x00	0
16	0xde	222
17	0x04	4
18	0x00	0
19	0x00	0
20	0x10	16
21	0x00	0
22	0x00	0
23	0x00	0
24	0x30	48
25	0x05	5
26	0x00	0
27	0x00	0
28	0xa8	168
29	0xdb	219
30	0x02	2
31	0x00	0
32	0x01	1
33	0x00	0
34	0x00	0
35	0x00	0
36	0x00	0
37	0x20	32
38	0x00	0
39	0x00	0
40	0x00	0
41	0x00	0
42	0x00	0
43	0x00	0
44	0x01	1
45	0x00	0
46	0x00	0
47	0x00	0
48	0x03	3
49	0x00	0
50	0x00	0
51	0x00	0
52	0x0b	11
53	0x00	0
54	0x00	0
55	0x00	0
56	0x5f	95
57	0x02	2
58	0x00	0
59	0x00	0
60	0x00	0
61	0x00	0
62	0x00	0
63	0x00	0
64	0x03	3
65	0x05	5
66	0x06	6
67	0x00	0
68	0x01	1
69	0x01	1
70	0x01	1
71	0x00	0
72	0x02	2
73	0x19	25
74	0x00	0
75	0x10	16
76	0x00	0
77	0x00	0
78	0x00	0
79	0x00	0
80	0x00	0
81	0x00	0
82	0x00	0
83	0x04	4
84	0x00	0
85	0x00	0
86	0x00	0
87	0x00	0
88	0x00	0
89	0x00	0
90	0x00	0
91	0x02	2
92	0x00	0
93	0x00	0
94	0x01	1
95	0x00	0
96	0x00	0
97	0x00	0
98	0x04	4
99	0x00	0
100	0x00	0
101	0x00	0
102	0x04	4
103	0x00	0
104	0x00	0
105	0x00	0
106	0x80	128
107	0x00	0
108	0x00	0
109	0x00	0
110	0x80	128
111	0x00	0
112	0x00	0
113	0x00	0
114	0x01	1
115	0x00	0
116	0x00	0
117	0x00	0
118	0x0a	10
119	0x00	0
120	0x00	0
121	0x00	0
122	0x0a	10
123	0x00	0
124	0x00	0
125	0x00	0
126	0x80	128
127	0x00	0
128	0x00	0
129	0x00	0
130	0x03	3
131	0x00	0
132	0x00	0
133	0x00	0
134	0x03	3
135	0x00	0
136	0x00	0
137	0x00	0
138	0x02	2
139	0x00	0
140	0x00	0
141	0x00	0
142	0x02	2
143	0x00	0
144	0x00	0
145	0x00	0
146	0x00	0
147	0x00	0
148	0x00	0
149	0x00	0
150	0x00	0
151	0x00	0
152	0x00	0
153	0x00	0
154	0x00	0
155	0x00	0
156	0x00	0
157	0x00	0
158	0x00	0
159	0x00	0
160	0x00	0
161	0x00	0
162	0x01	1
163	0x00	0
164	0x00	0
165	0x00	0
166	0x01	1
167	0x00	0
168	0x00	0
169	0x00	0
170	0x20	32
171	0x00	0
172	0x0f	15
173	0x07	7
174	0x00	0
175	0x00	0
176	0x00	0
177	0x00	0
178	0x00	0
179	0x00	0
180	0x00	0
181	0x00	0
182	0x01	1
183	0x00	0
184	0x00	0
185	0x00	0
186	0x01	1
187	0x00	0
188	0x00	0
189	0x00	0
190	0x80	128
191	0xff	255
192	0xff	255
193	0xff	255
194	0x00	0
195	0x80	128
196	0x00	0
197	0x00	0
198	0x00	0
199	0x00	0
200	0x00	0
201	0x00	0
202	0x00	0
203	0x00	0
204	0x00	0
205	0x00	0
206	0x00	0
207	0x00	0
208	0x00	0
209	0x00	0
210	0x00	0
211	0x00	0
212	0x00	0
213	0x00	0
214	0x05	5
215	0x19	25
216	0x03	3
217	0x05	5
218	0x06	6
219	0x06	6
220	0x01	1
221	0x01	1
222	0x01	1
223	0x00	0
224	0x02	2
225	0x25	37
226	0x00	0
227	0x00	0
228	0x00	0
229	0x00	0
230	0x00	0
231	0x10	16
232	0x00	0
233	0x00	0
234	0x80	128
235	0x10	16
236	0x00	0
237	0x00	0
238	0x80	128
239	0x08	8
240	0x00	0
241	0x00	0
242	0x80	128
243	0x0c	12
244	0x00	0
245	0x00	0
246	0x01	1
247	0x00	0
248	0x00	0
249	0x00	0
250	0x04	4
251	0x00	0
252	0x00	0
253	0x00	0
254	0x04	4
255	0x00	0

NeutronWeights u1 [187304]
0	0xd9	217
1	0xe1	225
2	0xff	255
3	0xff	255
4	0xba	186
5	0x97	151
6	0x00	0
7	0x00	0
8	0x2b	43
9	0xe3	227
10	0x00	0
11	0x00	0
12	0xd9	217
13	0x50	80
14	0x00	0
15	0x00	0
16	0x9b	155
17	0x2e	46
18	0x00	0
19	0x00	0
20	0xd1	209
21	0xca	202
22	0xff	255
23	0xff	255
24	0x0f	15
25	0x1f	31
26	0x00	0
27	0x00	0
28	0x9c	156
29	0xf3	243
30	0xff	255
31	0xff	255
32	0xa9	169
33	0x59	89
34	0x00	0
35	0x00	0
36	0xe6	230
37	0x4c	76
38	0x00	0
39	0x00	0
40	0xef	239
41	0x71	113
42	0x00	0
43	0x00	0
44	0xaf	175
45	0xf6	246
46	0xff	255
47	0xff	255
48	0xd3	211
49	0x39	57
50	0x00	0
51	0x00	0
52	0x25	37
53	0xfa	250
54	0xff	255
55	0xff	255
56	0x9a	154
57	0xb4	180
58	0xff	255
59	0xff	255
60	0xa0	160
61	0x83	131
62	0x00	0
63	0x00	0
64	0xf0	240
65	0x5e	94
66	0xf8	248
67	0xff	255
68	0xa7	167
69	0x7d	125
70	0xff	255
71	0xff	255
72	0xf0	240
73	0xc4	196
74	0x00	0
75	0x00	0
76	0x57	87
77	0xd5	213
78	0x00	0
79	0x00	0
80	0x3b	59
81	0x7a	122
82	0x00	0
83	0x00	0
84	0xff	255
85	0x24	36
86	0x00	0
87	0x00	0
88	0xc2	194
89	0x10	16
90	0x00	0
91	0x00	0
92	0x9a	154
93	0x98	152
94	0x00	0
95	0x00	0
96	0x61	97
97	0x70	112
98	0x00	0
99	0x00	0
100	0x32	50
101	0x10	16
102	0x01	1
103	0x00	0
104	0xbd	189
105	0x3d	61
106	0x01	1
107	0x00	0
108	0x99	153
109	0x8b	139
110	0x00	0
111	0x00	0
112	0xc7	199
113	0x5d	93
114	0x00	0
115	0x00	0
116	0x50	80
117	0x39	57
118	0x01	1
119	0x00	0
120	0xe5	229
121	0x77	119
122	0x00	0
123	0x00	0
124	0xa5	165
125	0x94	148
126	0x00	0
127	0x00	0
128	0x7a	122
129	0x25	37
130	0x01	1
131	0x00	0
132	0xfd	253
133	0x7f	127
134	0x00	0
135	0x00	0
136	0xcf	207
137	0x3c	60
138	0x00	0
139	0x00	0
140	0x03	3
141	0xf9	249
142	0xff	255
143	0xff	255
144	0x54	84
145	0x51	81
146	0xff	255
147	0xff	255
148	0x83	131
149	0xfb	251
150	0xff	255
151	0xff	255
152	0x0d	13
153	0x31	49
154	0x00	0
155	0x00	0
156	0x54	84
157	0xb3	179
158	0xff	255
159	0xff	255
160	0xc5	197
161	0x74	116
162	0x00	0
163	0x00	0
164	0x12	18
165	0xd9	217
166	0xff	255
167	0xff	255
168	0xf6	246
169	0xae	174
170	0x00	0
171	0x00	0
172	0xe9	233
173	0xba	186
174	0x00	0
175	0x00	0
176	0x0a	10
177	0xbd	189
178	0xff	255
179	0xff	255
180	0xbd	189
181	0x1b	27
182	0x00	0
183	0x00	0
184	0x3e	62
185	0xaf	175
186	0x00	0
187	0x00	0
188	0xb7	183
189	0xfd	253
190	0xff	255
191	0xff	255
192	0x9d	157
193	0x1a	26
194	0x01	1
195	0x00	0
196	0x58	88
197	0xab	171
198	0xfe	254
199	0xff	255
200	0x36	54
201	0xc5	197
202	0x00	0
203	0x00	0
204	0x37	55
205	0x4e	78
206	0x00	0
207	0x00	0
208	0xbb	187
209	0x5d	93
210	0x00	0
211	0x00	0
212	0x55	85
213	0xd8	216
214	0xff	255
215	0xff	255
216	0xc5	197
217	0x2f	47
218	0xff	255
219	0xff	255
220	0x3c	60
221	0x35	53
222	0x01	1
223	0x00	0
224	0xe3	227
225	0x41	65
226	0x01	1
227	0x00	0
228	0x21	33
229	0x6c	108
230	0x00	0
231	0x00	0
232	0x64	100
233	0x51	81
234	0x00	0
235	0x00	0
236	0x7f	127
237	0x09	9
238	0x01	1
239	0x00	0
240	0x22	34
241	0x56	86
242	0x00	0
243	0x00	0
244	0xa1	161
245	0x59	89
246	0xfe	254
247	0xff	255
248	0xa5	165
249	0x77	119
250	0xff	255
251	0xff	255
252	0xe2	226
253	0x9d	157
254	0xff	255
255	0xff	255

NeutronMicrocode u1 [848]
0	0x6e	110
1	0x4d	77
2	0x43	67
3	0x64	100
4	0x91	145
5	0x2c	44
6	0x7b	123
7	0x91	145
8	0xfe	254
9	0x02	2
10	0x00	0
11	0x00	0
12	0x00	0
13	0x00	0
14	0x00	0
15	0x00	0
16	0xfe	254
17	0x02	2
18	0x00	0
19	0x00	0
20	0x10	16
21	0x00	0
22	0x00	0
23	0x00	0
24	0x50	80
25	0x03	3
26	0x00	0
27	0x00	0
28	0x08	8
29	0x26	38
30	0x00	0
31	0x00	0
32	0x01	1
33	0x00	0
34	0x00	0
35	0x00	0
36	0x00	0
37	0x32	50
38	0x00	0
39	0x00	0
40	0x00	0
41	0x00	0
42	0x00	0
43	0x00	0
44	0x03	3
45	0x00	0
46	0x00	0
47	0x00	0
48	0x01	1
49	0x00	0
50	0x00	0
51	0x00	0
52	0x09	9
53	0x00	0
54	0x00	0
55	0x00	0
56	0xb9	185
57	0x02	2
58	0x00	0
59	0x00	0
60	0x00	0
61	0x00	0
62	0x00	0
63	0x00	0
64	0x03	3
65	0x05	5
66	0x06	6
67	0x01	1
68	0x03	3
69	0x03	3
70	0x03	3
71	0x00	0
72	0x02	2
73	0x57	87
74	0x00	0
75	0x20	32
76	0x00	0
77	0x00	0
78	0x00	0
79	0x00	0
80	0x00	0
81	0x00	0
82	0x00	0
83	0x08	8
84	0x00	0
85	0x00	0
86	0x00	0
87	0x00	0
88	0x00	0
89	0x00	0
90	0x00	0
91	0x04	4
92	0x00	0
93	0x00	0
94	0x01	1
95	0x00	0
96	0x00	0
97	0x00	0
98	0x04	4
99	0x00	0
100	0x00	0
101	0x00	0
102	0x04	4
103	0x00	0
104	0x00	0
105	0x00	0
106	0x00	0
107	0x01	1
108	0x00	0
109	0x00	0
110	0x00	0
111	0x01	1
112	0x00	0
113	0x00	0
114	0x01	1
115	0x00	0
116	0x00	0
117	0x00	0
118	0x06	6
119	0x00	0
120	0x00	0
121	0x00	0
122	0x06	6
123	0x00	0
124	0x00	0
125	0x00	0
126	0x00	0
127	0x01	1
128	0x00	0
129	0x00	0
130	0x03	3
131	0x00	0
132	0x00	0
133	0x00	0
134	0x03	3
135	0x00	0
136	0x00	0
137	0x00	0
138	0x01	1
139	0x00	0
140	0x00	0
141	0x00	0
142	0x01	1
143	0x00	0
144	0x00	0
145	0x00	0
146	0x00	0
147	0x00	0
148	0x00	0
149	0x00	0
150	0x00	0
151	0x00	0
152	0x00	0
153	0x00	0
154	0x00	0
155	0x00	0
156	0x00	0
157	0x00	0
158	0x00	0
159	0x00	0
160	0x00	0
161	0x00	0
162	0x01	1
163	0x00	0
164	0x00	0
165	0x00	0
166	0x01	1
167	0x00	0
168	0x00	0
169	0x00	0
170	0x20	32
171	0x00	0
172	0x0f	15
173	0x07	7
174	0x00	0
175	0x00	0
176	0x00	0
177	0x00	0
178	0x00	0
179	0x00	0
180	0x00	0
181	0x00	0
182	0x01	1
183	0x00	0
184	0x00	0
185	0x00	0
186	0x01	1
187	0x00	0
188	0x00	0
189	0x00	0
190	0x80	128
191	0xff	255
192	0xff	255
193	0xff	255
194	0x00	0
195	0x80	128
196	0x00	0
197	0x00	0
198	0x00	0
199	0x00	0
200	0x00	0
201	0x00	0
202	0x00	0
203	0x00	0
204	0x00	0
205	0x00	0
206	0x00	0
207	0x00	0
208	0x00	0
209	0x00	0
210	0x00	0
211	0x00	0
212	0x00	0
213	0x00	0
214	0x05	5
215	0x57	87
216	0x03	3
217	0x05	5
218	0x06	6
219	0x00	0
220	0x03	3
221	0x03	3
222	0x03	3
223	0x00	0
224	0x02	2
225	0x19	25
226	0x00	0
227	0x00	0
228	0x00	0
229	0x00	0
230	0x00	0
231	0x00	0
232	0x00	0
233	0x00	0
234	0x00	0
235	0x15	21
236	0x00	0
237	0x00	0
238	0x00	0
239	0x11	17
240	0x00	0
241	0x00	0
242	0x00	0
243	0x13	19
244	0x00	0
245	0x00	0
246	0x01	1
247	0x00	0
248	0x00	0
249	0x00	0
250	0x08	8
251	0x00	0
252	0x00	0
253	0x00	0
254	0x08	8
255	0x00	0

NeutronWeights u1 [9736]
0	0xc2	194
1	0x3a	58
2	0x00	0
3	0x00	0
4	0xbd	189
5	0x8c	140
6	0x00	0
7	0x00	0
8	0x64	100
9	0x24	36
10	0x00	0
11	0x00	0
12	0x6a	106
13	0x9a	154
14	0xff	255
15	0xff	255
16	0x4b	75
17	0x8b	139
18	0x00	0
19	0x00	0
20	0x46	70
21	0x85	133
22	0xff	255
23	0xff	255
24	0x04	4
25	0x76	118
26	0x00	0
27	0x00	0
28	0xe9	233
29	0x87	135
30	0x00	0
31	0x00	0
32	0x1c	28
33	0x65	101
34	0x01	1
35	0x00	0
36	0x08	8
37	0x67	103
38	0x00	0
39	0x00	0
40	0xc8	200
41	0x0e	14
42	0x00	0
43	0x00	0
44	0x9e	158
45	0x49	73
46	0x00	0
47	0x00	0
48	0x0c	12
49	0xda	218
50	0x00	0
51	0x00	0
52	0xba	186
53	0xc3	195
54	0xff	255
55	0xff	255
56	0x93	147
57	0x70	112
58	0x00	0
59	0x00	0
60	0xa2	162
61	0xcd	205
62	0xff	255
63	0xff	255
64	0x5f	95
65	0xba	186
66	0x00	0
67	0x00	0
68	0x30	48
69	0x65	101
70	0x00	0
71	0x00	0
72	0xe3	227
73	0xe8	232
74	0x00	0
75	0x00	0
76	0x9b	155
77	0x60	96
78	0x00	0
79	0x00	0
80	0x8e	142
81	0x61	97
82	0xff	255
83	0xff	255
84	0x13	19
85	0xdc	220
86	0xff	255
87	0xff	255
88	0x5a	90
89	0x7e	126
90	0x00	0
91	0x00	0
92	0x99	153
93	0x32	50
94	0x00	0
95	0x00	0
96	0x38	56
97	0x2b	43
98	0x00	0
99	0x00	0
100	0xf1	241
101	0xe0	224
102	0x00	0
103	0x00	0
104	0xe2	226
105	0xf9	249
106	0x00	0
107	0x00	0
108	0x65	101
109	0x7c	124
110	0xff	255
111	0xff	255
112	0x7b	123
113	0x16	22
114	0xff	255
115	0xff	255
116	0x0d	13
117	0xf1	241
118	0x00	0
119	0x00	0
120	0xfc	252
121	0x7f	127
122	0x00	0
123	0x00	0
124	0x6b	107
125	0xdf	223
126	0xff	255
127	0xff	255
128	0x1c	28
129	0xc1	193
130	0xff	255
131	0xff	255
132	0x3b	59
133	0x3c	60
134	0x00	0
135	0x00	0
136	0x01	1
137	0xab	171
138	0xff	255
139	0xff	255
140	0x48	72
141	0x4c	76
142	0x00	0
143	0x00	0
144	0x91	145
145	0xd8	216
146	0xff	255
147	0xff	255
148	0xa9	169
149	0x41	65
150	0x00	0
151	0x00	0
152	0x38	56
153	0xe5	229
154	0xff	255
155	0xff	255
156	0xbd	189
157	0x4d	77
158	0xff	255
159	0xff	255
160	0xfe	254
161	0x3f	63
162	0x01	1
163	0x00	0
164	0x1b	27
165	0x42	66
166	0x00	0
167	0x00	0
168	0xd9	217
169	0x13	19
170	0x00	0
171	0x00	0
172	0x21	33
173	0x48	72
174	0x00	0
175	0x00	0
176	0xef	239
177	0x33	51
178	0x00	0
179	0x00	0
180	0xad	173
181	0x1d	29
182	0x00	0
183	0x00	0
184	0x4e	78
185	0x56	86
186	0x00	0
187	0x00	0
188	0xdd	221
189	0x31	49
190	0x00	0
191	0x00	0
192	0xe2	226
193	0x63	99
194	0x00	0
195	0x00	0
196	0x51	81
197	0x21	33
198	0x00	0
199	0x00	0
200	0xfd	253
201	0xec	236
202	0x00	0
203	0x00	0
204	0x04	4
205	0x8a	138
206	0x00	0
207	0x00	0
208	0xe0	224
209	0x40	64
210	0x00	0
211	0x00	0
212	0x79	121
213	0x18	24
214	0x00	0
215	0x00	0
216	0x7e	126
217	0x26	38
218	0x00	0
219	0x00	0
220	0xfd	253
221	0x31	49
222	0x01	1
223	0x00	0
224	0x66	102
225	0x1d	29
226	0xff	255
227	0xff	255
228	0x3d	61
229	0x2b	43
230	0x00	0
231	0x00	0
232	0x0e	14
233	0x4e	78
234	0x00	0
235	0x00	0
236	0x08	8
237	0x60	96
238	0xff	255
239	0xff	255
240	0x90	144
241	0x30	48
242	0x01	1
243	0x00	0
244	0x60	96
245	0x20	32
246	0xff	255
247	0xff	255
248	0x3e	62
249	0xb6	182
250	0xff	255
251	0xff	255
252	0xf2	242
253	0xfb	251
254	0xff	255
255	0xff	255

NeutronMicrocode u1 [768]
0	0x6e	110
1	0x4d	77
2	0x43	67
3	0x64	100
4	0x91	145
5	0x2c	44
6	0x7b	123
7	0x91	145
8	0xb0	176
9	0x02	2
10	0x00	0
11	0x00	0
12	0x00	0
13	0x00	0
14	0x00	0
15	0x00	0
16	0xb0	176
17	0x02	2
18	0x00	0
19	0x00	0
20	0x10	16
21	0x00	0
22	0x00	0
23	0x00	0
24	0x00	0
25	0x03	3
26	0x00	0
27	0x00	0
28	0x08	8
29	0x26	38
30	0x00	0
31	0x00	0
32	0x01	1
33	0x00	0
34	0x00	0
35	0x00	0
36	0x00	0
37	0x32	50
38	0x00	0
39	0x00	0
40	0x00	0
41	0x00	0
42	0x00	0
43	0x00	0
44	0x03	3
45	0x00	0
46	0x00	0
47	0x00	0
48	0x01	1
49	0x00	0
50	0x00	0
51	0x00	0
52	0x07	7
53	0x00	0
54	0x00	0
55	0x00	0
56	0x0e	14
57	0x03	3
58	0x00	0
59	0x00	0
60	0x00	0
61	0x00	0
62	0x00	0
63	0x00	0
64	0x03	3
65	0x05	5
66	0x06	6
67	0x01	1
68	0x03	3
69	0x03	3
70	0x03	3
71	0x00	0
72	0x02	2
73	0x57	87
74	0x00	0
75	0x20	32
76	0x00	0
77	0x00	0
78	0x00	0
79	0x00	0
80	0x00	0
81	0x00	0
82	0x00	0
83	0x08	8
84	0x00	0
85	0x00	0
86	0x00	0
87	0x00	0
88	0x00	0
89	0x00	0
90	0x00	0
91	0x04	4
92	0x00	0
93	0x00	0
94	0x01	1
95	0x00	0
96	0x00	0
97	0x00	0
98	0x04	4
99	0x00	0
100	0x00	0
101	0x00	0
102	0x04	4
103	0x00	0
104	0x00	0
105	0x00	0
106	0x00	0
107	0x01	1
108	0x00	0
109	0x00	0
110	0x00	0
111	0x01	1
112	0x00	0
113	0x00	0
114	0x01	1
115	0x00	0
116	0x00	0
117	0x00	0
118	0x06	6
119	0x00	0
120	0x00	0
121	0x00	0
122	0x06	6
123	0x00	0
124	0x00	0
125	0x00	0
126	0x00	0
127	0x01	1
128	0x00	0
129	0x00	0
130	0x03	3
131	0x00	0
132	0x00	0
133	0x00	0
134	0x03	3
135	0x00	0
136	0x00	0
137	0x00	0
138	0x01	1
139	0x00	0
140	0x00	0
141	0x00	0
142	0x01	1
143	0x00	0
144	0x00	0
145	0x00	0
146	0x00	0
147	0x00	0
148	0x00	0
149	0x00	0
150	0x00	0
151	0x00	0
152	0x00	0
153	0x00	0
154	0x00	0
155	0x00	0
156	0x00	0
157	0x00	0
158	0x00	0
159	0x00	0
160	0x00	0
161	0x00	0
162	0x01	1
163	0x00	0
164	0x00	0
165	0x00	0
166	0x01	1
167	0x00	0
168	0x00	0
169	0x00	0
170	0x20	32
171	0x00	0
172	0x0f	15
173	0x07	7
174	0x00	0
175	0x00	0
176	0x00	0
177	0x00	0
178	0x00	0
179	0x00	0
180	0x00	0
181	0x00	0
182	0x01	1
183	0x00	0
184	0x00	0
185	0x00	0
186	0x01	1
187	0x00	0
188	0x00	0
189	0x00	0
190	0x80	128
191	0xff	255
192	0xff	255
193	0xff	255
194	0x00	0
195	0x80	128
196	0x00	0
197	0x00	0
198	0x00	0
199	0x00	0
200	0x00	0
201	0x00	0
202	0x00	0
203	0x00	0
204	0x00	0
205	0x00	0
206	0x00	0
207	0x00	0
208	0x00	0
209	0x00	0
210	0x00	0
211	0x00	0
212	0x00	0
213	0x00	0
214	0x05	5
215	0x57	87
216	0x03	3
217	0x05	5
218	0x06	6
219	0x00	0
220	0x03	3
221	0x03	3
222	0x03	3
223	0x00	0
224	0x02	2
225	0x19	25
226	0x00	0
227	0x00	0
228	0x00	0
229	0x00	0
230	0x00	0
231	0x00	0
232	0x00	0
233	0x00	0
234	0x00	0
235	0x15	21
236	0x00	0
237	0x00	0
238	0x00	0
239	0x11	17
240	0x00	0
241	0x00	0
242	0x00	0
243	0x13	19
244	0x00	0
245	0x00	0
246	0x01	1
247	0x00	0
248	0x00	0
249	0x00	0
250	0x08	8
251	0x00	0
252	0x00	0
253	0x00	0
254	0x08	8
255	0x00	0

NeutronWeights u1 [9736]
0	0x44	68
1	0xef	239
2	0xff	255
3	0xff	255
4	0x17	23
5	0x41	65
6	0x00	0
7	0x00	0
8	0xfd	253
9	0x7b	123
10	0x00	0
11	0x00	0
12	0x73	115
13	0x1f	31
14	0x00	0
15	0x00	0
16	0x22	34
17	0xed	237
18	0xff	255
19	0xff	255
20	0x57	87
21	0x2e	46
22	0x00	0
23	0x00	0
24	0xf9	249
25	0x01	1
26	0xff	255
27	0xff	255
28	0x79	121
29	0x0c	12
30	0x00	0
31	0x00	0
32	0x84	132
33	0x95	149
34	0xfe	254
35	0xff	255
36	0xcb	203
37	0x06	6
38	0x00	0
39	0x00	0
40	0xe1	225
41	0x3d	61
42	0x01	1
43	0x00	0
44	0xf2	242
45	0x67	103
46	0xff	255
47	0xff	255
48	0x66	102
49	0x72	114
50	0xff	255
51	0xff	255
52	0xbd	189
53	0x15	21
54	0x00	0
55	0x00	0
56	0xdf	223
57	0x0e	14
58	0x00	0
59	0x00	0
60	0x25	37
61	0x9e	158
62	0x00	0
63	0x00	0
64	0x2f	47
65	0xac	172
66	0xff	255
67	0xff	255
68	0xed	237
69	0xb2	178
70	0x00	0
71	0x00	0
72	0xe6	230
73	0xf4	244
74	0xff	255
75	0xff	255
76	0x43	67
77	0x11	17
78	0x00	0
79	0x00	0
80	0x7b	123
81	0x9c	156
82	0x00	0
83	0x00	0
84	0x2c	44
85	0xdb	219
86	0xff	255
87	0xff	255
88	0x07	7
89	0xf3	243
90	0xff	255
91	0xff	255
92	0x1e	30
93	0xb9	185
94	0xff	255
95	0xff	255
96	0x38	56
97	0x91	145
98	0x00	0
99	0x00	0
100	0xb7	183
101	0x3a	58
102	0x00	0
103	0x00	0
104	0xd8	216
105	0x32	50
106	0x00	0
107	0x00	0
108	0xf1	241
109	0xee	238
110	0xff	255
111	0xff	255
112	0x32	50
113	0xce	206
114	0xff	255
115	0xff	255
116	0x61	97
117	0x9e	158
118	0x00	0
119	0x00	0
120	0x9f	159
121	0x67	103
122	0x00	0
123	0x00	0
124	0xce	206
125	0xd3	211
126	0x00	0
127	0x00	0
128	0x26	38
129	0x08	8
130	0x00	0
131	0x00	0
132	0x7d	125
133	0x78	120
134	0xff	255
135	0xff	255
136	0xe8	232
137	0x26	38
138	0x00	0
139	0x00	0
140	0x64	100
141	0x1b	27
142	0x00	0
143	0x00	0
144	0x20	32
145	0x87	135
146	0x00	0
147	0x00	0
148	0x7a	122
149	0xea	234
150	0xff	255
151	0xff	255
152	0x03	3
153	0x6c	108
154	0x00	0
155	0x00	0
156	0x42	66
157	0x60	96
158	0xff	255
159	0xff	255
160	0xe7	231
161	0xa9	169
162	0xff	255
163	0xff	255
164	0xee	238
165	0x90	144
166	0x00	0
167	0x00	0
168	0x1d	29
169	0x84	132
170	0x00	0
171	0x00	0
172	0xf5	245
173	0x3b	59
174	0x00	0
175	0x00	0
176	0x45	69
177	0x8b	139
178	0xff	255
179	0xff	255
180	0x0f	15
181	0x64	100
182	0xff	255
183	0xff	255
184	0x79	121
185	0x44	68
186	0x00	0
187	0x00	0
188	0xf7	247
189	0x60	96
190	0x00	0
191	0x00	0
192	0x60	96
193	0x7a	122
194	0x00	0
195	0x00	0
196	0xb0	176
197	0xdb	219
198	0xff	255
199	0xff	255
200	0x6a	106
201	0xe2	226
202	0xff	255
203	0xff	255
204	0x43	67
205	0xf8	248
206	0xfe	254
207	0xff	255
208	0x9c	156
209	0x52	82
210	0x00	0
211	0x00	0
212	0x28	40
213	0x5a	90
214	0x00	0
215	0x00	0
216	0x7c	124
217	0x61	97
218	0x00	0
219	0x00	0
220	0x31	49
221	0xa0	160
222	0xff	255
223	0xff	255
224	0xc1	193
225	0xb3	179
226	0x00	0
227	0x00	0
228	0xa7	167
229	0x51	81
230	0xff	255
231	0xff	255
232	0x75	117
233	0x5b	91
234	0xff	255
235	0xff	255
236	0x78	120
237	0x92	146
238	0xff	255
239	0xff	255
240	0xd2	210
241	0x73	115
242	0xff	255
243	0xff	255
244	0x7f	127
245	0x4a	74
246	0x00	0
247	0x00	0
248	0x3d	61
249	0xd4	212
250	0xff	255
251	0xff	255
252	0xd4	212
253	0x32	50
254	0xff	255
255	0xff	255

NeutronMicrocode u1 [528]
0	0x6e	110
1	0x4d	77
2	0x43	67
3	0x64	100
4	0x91	145
5	0x2c	44
6	0x7b	123
7	0x91	145
8	0xb6	182
9	0x01	1
10	0x00	0
11	0x00	0
12	0x00	0
13	0x00	0
14	0x00	0
15	0x00	0
16	0xb6	182
17	0x01	1
18	0x00	0
19	0x00	0
20	0x10	16
21	0x00	0
22	0x00	0
23	0x00	0
24	0x10	16
25	0x02	2
26	0x00	0
27	0x00	0
28	0x40	64
29	0x14	20
30	0x00	0
31	0x00	0
32	0x01	1
33	0x00	0
34	0x00	0
35	0x00	0
36	0x08	8
37	0x04	4
38	0x00	0
39	0x00	0
40	0x00	0
41	0x00	0
42	0x00	0
43	0x00	0
44	0x02	2
45	0x00	0
46	0x00	0
47	0x00	0
48	0x02	2
49	0x00	0
50	0x00	0
51	0x00	0
52	0x08	8
53	0x00	0
54	0x00	0
55	0x00	0
56	0x7f	127
57	0x03	3
58	0x00	0
59	0x00	0
60	0x00	0
61	0x00	0
62	0x00	0
63	0x00	0
64	0x03	3
65	0x04	4
66	0x06	6
67	0x00	0
68	0x02	2
69	0x02	2
70	0x02	2
71	0x4e	78
72	0x58	88
73	0x01	1
74	0x00	0
75	0x00	0
76	0x00	0
77	0x00	0
78	0x00	0
79	0x00	0
80	0x00	0
81	0x00	0
82	0x00	0
83	0x00	0
84	0x40	64
85	0x04	4
86	0x00	0
87	0x00	0
88	0x58	88
89	0x01	1
90	0x00	0
91	0x00	0
92	0x20	32
93	0x00	0
94	0x0f	15
95	0x07	7
96	0x01	1
97	0x00	0
98	0x00	0
99	0x00	0
100	0x04	4
101	0x00	0
102	0x00	0
103	0x00	0
104	0x06	6
105	0x00	0
106	0x00	0
107	0x00	0
108	0x87	135
109	0x00	0
110	0x00	0
111	0x80	128
112	0xc1	193
113	0x0f	15
114	0x00	0
115	0x00	0
116	0x00	0
117	0xfe	254
118	0xff	255
119	0xff	255
120	0x05	5
121	0x4e	78
122	0x03	3
123	0x04	4
124	0x06	6
125	0x01	1
126	0x02	2
127	0x02	2
128	0x02	2
129	0x4e	78
130	0xb0	176
131	0x02	2
132	0x00	0
133	0x00	0
134	0x00	0
135	0x00	0
136	0x00	0
137	0x00	0
138	0x60	96
139	0x04	4
140	0x00	0
141	0x00	0
142	0x40	64
143	0x04	4
144	0x00	0
145	0x00	0
146	0x58	88
147	0x01	1
148	0x00	0
149	0x00	0
150	0x20	32
151	0x00	0
152	0x0f	15
153	0x07	7
154	0x01	1
155	0x00	0
156	0x00	0
157	0x00	0
158	0x01	1
159	0x00	0
160	0x00	0
161	0x00	0
162	0x07	7
163	0x00	0
164	0x00	0
165	0x00	0
166	0x87	135
167	0x00	0
168	0x00	0
169	0x80	128
170	0x01	1
171	0x0e	14
172	0x00	0
173	0x00	0
174	0x00	0
175	0x0f	15
176	0x00	0
177	0x00	0
178	0x05	5
179	0x4e	78
180	0x03	3
181	0x04	4
182	0x06	6
183	0x06	6
184	0x02	2
185	0x02	2
186	0x02	2
187	0x54	84
188	0x00	0
189	0x00	0
190	0x00	0
191	0x00	0
192	0x58	88
193	0x01	1
194	0x00	0
195	0x00	0
196	0xa0	160
197	0x06	6
198	0x00	0
199	0x00	0
200	0xf8	248
201	0x07	7
202	0x00	0
203	0x00	0
204	0x58	88
205	0x01	1
206	0x00	0
207	0x00	0
208	0x01	1
209	0x00	0
210	0x00	0
211	0x00	0
212	0x20	32
213	0x00	0
214	0x0e	14
215	0x07	7
216	0x93	147
217	0xfc	252
218	0x37	55
219	0x25	37
220	0x00	0
221	0x00	0
222	0x00	0
223	0x00	0
224	0x00	0
225	0x00	0
226	0x00	0
227	0x00	0
228	0x05	5
229	0x54	84
230	0x02	2
231	0x54	84
232	0x58	88
233	0x01	1
234	0x00	0
235	0x00	0
236	0xb0	176
237	0x02	2
238	0x00	0
239	0x00	0
240	0xa0	160
241	0x06	6
242	0x00	0
243	0x00	0
244	0x58	88
245	0x0d	13
246	0x00	0
247	0x00	0
248	0x58	88
249	0x01	1
250	0x00	0
251	0x00	0
252	0x01	1
253	0x00	0
254	0x00	0
255	0x00	0

NeutronWeights u1 [5184]
0	0x01	1
1	0x00	0
2	0x00	0
3	0x00	0
4	0x00	0
5	0x00	0
6	0x00	0
7	0x00	0
8	0x00	0
9	0x01	1
10	0x00	0
11	0x00	0
12	0x00	0
13	0x00	0
14	0x00	0
15	0x00	0
16	0x00	0
17	0x00	0
18	0x01	1
19	0x00	0
20	0x00	0
21	0x00	0
22	0x00	0
23	0x00	0
24	0x00	0
25	0x00	0
26	0x00	0
27	0x01	1
28	0x00	0
29	0x00	0
30	0x00	0
31	0x00	0
32	0x00	0
33	0x00	0
34	0x00	0
35	0x00	0
36	0x01	1
37	0x00	0
38	0x00	0
39	0x00	0
40	0x00	0
41	0x00	0
42	0x00	0
43	0x00	0
44	0x00	0
45	0x01	1
46	0x00	0
47	0x00	0
48	0x00	0
49	0x00	0
50	0x00	0
51	0x00	0
52	0x00	0
53	0x00	0
54	0x01	1
55	0x00	0
56	0x00	0
57	0x00	0
58	0x00	0
59	0x00	0
60	0x00	0
61	0x00	0
62	0x00	0
63	0x01	1
64	0x00	0
65	0x00	0
66	0x00	0
67	0x00	0
68	0x00	0
69	0x00	0
70	0x10	16
71	0x04	4
72	0x08	8
73	0x02	2
74	0x00	0
75	0x00	0
76	0x00	0
77	0x00	0
78	0x00	0
79	0x00	0
80	0x00	0
81	0x00	0
82	0x00	0
83	0x00	0
84	0x00	0
85	0x00	0
86	0x10	16
87	0x04	4
88	0x18	24
89	0x06	6
90	0x00	0
91	0x00	0
92	0x00	0
93	0x00	0
94	0x00	0
95	0x00	0
96	0x00	0
97	0x00	0
98	0x00	0
99	0x00	0
100	0x00	0
101	0x00	0
102	0x10	16
103	0x04	4
104	0x28	40
105	0x0a	10
106	0x00	0
107	0x00	0
108	0x00	0
109	0x00	0
110	0x00	0
111	0x00	0
112	0x00	0
113	0x00	0
114	0x00	0
115	0x00	0
116	0x00	0
117	0x00	0
118	0x10	16
119	0x04	4
120	0x38	56
121	0x0e	14
122	0x00	0
123	0x00	0
124	0x00	0
125	0x00	0
126	0x00	0
127	0x00	0
128	0x00	0
129	0x00	0
130	0x00	0
131	0x00	0
132	0x00	0
133	0x00	0
134	0x10	16
135	0x04	4
136	0x48	72
137	0x12	18
138	0x00	0
139	0x00	0
140	0x00	0
141	0x00	0
142	0x00	0
143	0x00	0
144	0x00	0
145	0x00	0
146	0x00	0
147	0x00	0
148	0x00	0
149	0x00	0
150	0x10	16
151	0x04	4
152	0x58	88
153	0x16	22
154	0x00	0
155	0x00	0
156	0x00	0
157	0x00	0
158	0x00	0
159	0x00	0
160	0x00	0
161	0x00	0
162	0x00	0
163	0x00	0
164	0x00	0
165	0x00	0
166	0x10	16
167	0x04	4
168	0x68	104
169	0x1a	26
170	0x00	0
171	0x00	0
172	0x00	0
173	0x00	0
174	0x00	0
175	0x00	0
176	0x00	0
177	0x00	0
178	0x00	0
179	0x00	0
180	0x00	0
181	0x00	0
182	0x10	16
183	0x04	4
184	0x78	120
185	0x1e	30
186	0x00	0
187	0x00	0
188	0x00	0
189	0x00	0
190	0x00	0
191	0x00	0
192	0x00	0
193	0x00	0
194	0x00	0
195	0x00	0
196	0x00	0
197	0x00	0
198	0x10	16
199	0x04	4
200	0x88	136
201	0x22	34
202	0x00	0
203	0x00	0
204	0x00	0
205	0x00	0
206	0x00	0
207	0x00	0
208	0x00	0
209	0x00	0
210	0x00	0
211	0x00	0
212	0x00	0
213	0x00	0
214	0x10	16
215	0x04	4
216	0x98	152
217	0x26	38
218	0x00	0
219	0x00	0
220	0x00	0
221	0x00	0
222	0x00	0
223	0x00	0
224	0x00	0
225	0x00	0
226	0x00	0
227	0x00	0
228	0x00	0
229	0x00	0
230	0x10	16
231	0x04	4
232	0xa8	168
233	0x2a	42
234	0x00	0
235	0x00	0
236	0x00	0
237	0x00	0
238	0x00	0
239	0x00	0
240	0x00	0
241	0x00	0
242	0x00	0
243	0x00	0
244	0x00	0
245	0x00	0
246	0x10	16
247	0x04	4
248	0xb8	184
249	0x2e	46
250	0x00	0
251	0x00	0
252	0x00	0
253	0x00	0
254	0x00	0
255	0x00	0

NeutronMicrocode u1 [136]
0	0x6e	110
1	0x4d	77
2	0x43	67
3	0x64	100
4	0x91	145
5	0x2c	44
6	0x7b	123
7	0x91	145
8	0x3c	60
9	0x00	0
10	0x00	0
11	0x00	0
12	0x00	0
13	0x00	0
14	0x00	0
15	0x00	0
16	0x3c	60
17	0x00	0
18	0x00	0
19	0x00	0
20	0x08	8
21	0x00	0
22	0x00	0
23	0x00	0
24	0x88	136
25	0x00	0
26	0x00	0
27	0x00	0
28	0x28	40
29	0x00	0
30	0x00	0
31	0x00	0
32	0x01	1
33	0x00	0
34	0x00	0
35	0x00	0
36	0x00	0
37	0x00	0
38	0x00	0
39	0x00	0
40	0x00	0
41	0x00	0
42	0x00	0
43	0x00	0
44	0x01	1
45	0x00	0
46	0x00	0
47	0x00	0
48	0x01	1
49	0x00	0
50	0x00	0
51	0x00	0
52	0x01	1
53	0x00	0
54	0x00	0
55	0x00	0
56	0x81	129
57	0x03	3
58	0x00	0
59	0x00	0
60	0x00	0
61	0x00	0
62	0x00	0
63	0x00	0
64	0x03	3
65	0x04	4
66	0x02	2
67	0x00	0
68	0x01	1
69	0x01	1
70	0x02	2
71	0x49	73
72	0x00	0
73	0x00	0
74	0x00	0
75	0x00	0
76	0x00	0
77	0x00	0
78	0x00	0
79	0x00	0
80	0x00	0
81	0x00	0
82	0x00	0
83	0x00	0
84	0x08	8
85	0x00	0
86	0x00	0
87	0x00	0
88	0x01	1
89	0x00	0
90	0x00	0
91	0x00	0
92	0x01	1
93	0x00	0
94	0x00	0
95	0x00	0
96	0xb0	176
97	0x02	2
98	0x00	0
99	0x00	0
100	0x20	32
101	0x00	0
102	0x0f	15
103	0x0f	15
104	0x00	0
105	0x00	0
106	0x00	0
107	0x00	0
108	0x00	0
109	0x00	0
110	0x00	0
111	0x00	0
112	0x00	0
113	0x00	0
114	0x00	0
115	0x00	0
116	0x8d	141
117	0x80	128
118	0x9f	159
119	0x31	49
120	0x05	5
121	0x49	73
122	0x01	1
123	0x00	0
124	0x00	0
125	0x00	0
126	0x00	0
127	0x00	0
128	0xb0	176
129	0x02	2
130	0x00	0
131	0x00	0
132	0xb0	176
133	0x02	2
134	0x00	0
135	0x00	0

NeutronWeights u1 [40]
0	0x01	1
1	0x01	1
2	0x01	1
3	0x01	1
4	0x01	1
5	0x01	1
6	0x01	1
7	0x01	1
8	0x25	37
9	0x00	0
10	0x00	0
11	0x00	0
12	0x25	37
13	0x00	0
14	0x00	0
15	0x00	0
16	0x25	37
17	0x00	0
18	0x00	0
19	0x00	0
20	0x25	37
21	0x00	0
22	0x00	0
23	0x00	0
24	0x25	37
25	0x00	0
26	0x00	0
27	0x00	0
28	0x25	37
29	0x00	0
30	0x00	0
31	0x00	0
32	0x25	37
33	0x00	0
34	0x00	0
35	0x00	0
36	0x25	37
37	0x00	0
38	0x00	0
39	0x00	0
