models/ultraface_slim_quant_int8/ultraface_slim_ultraslim_npu64.tflite (tflite, 301504 bytes, 8 tensors)

NeutronMicrocode u1 [5452]
00000000: 6e4d 4364 6d0a 716f fa14 0000 0000 0000
00000010: fa14 0000 0c00 0000 4c15 0000 185d 0400
00000020: 0100 0000 0000 0300 0000 0000 0100 0000
00000030: 0200 0000 2c00 0000 0a03 0000 0000 0000
00000040: 0305 0500 0101 0100 0207 0000 0000 0000
00000050: 0000 8000 0000 0000 0000 4000 0000 0100
00000060: 0000 4000 0000 4000 0000 1000 0000 1000
00000070: 0000 0100 0000 8000 0000 8000 0000 0300
00000080: 0000 0300 0000 0300 0000 0200 0000 0200
00000090: 0000 0100 0000 0100 0000 0000 0000 0000
000000a0: 0000 0100 0000 0802 0001 2000 0f07 0000
000000b0: 0000 0000 0000 0100 0000 0100 0000 ffff
000000c0: ffff 0080 0000 0000 0000 0000 0000 0000
000000d0: 0000 0000 0000 0507 0305 0505 0101 0100
000000e0: 021b 0000 0200 0000 0000 8003 0000 8002
000000f0: 0000 4003 0000 0100 0000 4000 0000 4000
110 77 67 100 109 10 113 111
250 20 0 0 0 0 0 0
250 20 0 0 12 0 0 0
76 21 0 0 24 93 4 0
1 0 0 0 0 0 3 0
0 0 0 0 1 0 0 0
2 0 0 0 44 0 0 0
10 3 0 0 0 0 0 0
3 5 5 0 1 1 1 0
2 7 0 0 0 0 0 0
0 0 128 0 0 0 0 0
0 0 64 0 0 0 1 0
0 0 64 0 0 0 64 0
0 0 16 0 0 0 16 0
0 0 1 0 0 0 128 0
0 0 128 0 0 0 3 0
0 0 3 0 0 0 3 0
0 0 2 0 0 0 2 0
0 0 1 0 0 0 1 0
0 0 0 0 0 0 0 0
0 0 1 0 0 0 8 2
0 1 32 0 15 7 0 0
0 0 0 0 0 0 1 0
0 0 1 0 0 0 255 255
255 255 0 128 0 0 0 0
0 0 0 0 0 0 0 0
0 0 0 0 0 0 5 7
3 5 5 5 1 1 1 0
2 27 0 0 2 0 0 0
0 0 128 3 0 0 128 2
0 0 64 3 0 0 1 0
0 0 64 0 0 0 64 0

NeutronWeights u1 [285976]
00000000: 5f86 0100 6349 0000 662f 0000 6332 0000
00000010: 741f 0000 1038 0200 7a01 0000 3379 0100
00000020: b8b6 0000 490a 0000 be10 0000 c73d 0000
00000030: d75b 0000 b0b5 0000 fd88 0000 98d1 0000
00000040: b358 1b00 fd37 1800 3b93 1900 a98f 1900
00000050: 33cd 1e00 6f9e 1c00 4d2e 1700 bffb 1c00
00000060: f789 1a00 893c 1700 fb89 1800 8144 1800
00000070: 3543 1e00 d76f 1a00 c9bc 1b00 b7d6 1c00
00000080: e6da 1e11 eb1e c30a 0100 fb31 3830 ccd9
00000090: e0f5 f618 1b16 5532 fb02 0318 1c1f eef9
000000a0: d57b bfa9 0e69 86d7 81a2 d2e5 f719 7c58
000000b0: de1a 0fbf 2c15 b830 1715 2d31 1834 a6bd
000000c0: b3c3 cc7f 7750 cbcc 0412 eb0e 1ed5 1d1b
000000d0: 0ddb 1b31 c50d 24bf 3724 205e 3f40 2f27
000000e0: 1b1f 93aa 30d9 a89b 3219 15cb e8f0 fafb
000000f0: 2b4a 7f04 f31f e1c6 fffe f00a 0f11 bbcc
95 134 1 0 99 73 0 0
102 47 0 0 99 50 0 0
116 31 0 0 16 56 2 0
122 1 0 0 51 121 1 0
184 182 0 0 73 10 0 0
190 16 0 0 199 61 0 0
215 91 0 0 176 181 0 0
253 136 0 0 152 209 0 0
179 88 27 0 253 55 24 0
59 147 25 0 169 143 25 0
51 205 30 0 111 158 28 0
77 46 23 0 191 251 28 0
247 137 26 0 137 60 23 0
251 137 24 0 129 68 24 0
53 67 30 0 215 111 26 0
201 188 27 0 183 214 28 0
230 218 30 17 235 30 195 10
1 0 251 49 56 48 204 217
224 245 246 24 27 22 85 50
251 2 3 24 28 31 238 249
213 123 191 169 14 105 134 215
129 162 210 229 247 25 124 88
222 26 15 191 44 21 184 48
23 21 45 49 24 52 166 189
179 195 204 127 119 80 203 204
4 18 235 14 30 213 29 27
13 219 27 49 197 13 36 191
55 36 32 94 63 64 47 39
27 31 147 170 48 217 168 155
50 25 21 203 232 240 250 251
43 74 127 4 243 31 225 198
255 254 240 10 15 17 187 204

NeutronMicrocode u1 [136]
00000000: 6e4d 4364 6d0a 716f 3c00 0000 0000 0000
00000010: 3c00 0000 0800 0000 8800 0000 2800 0000
00000020: 0100 0000 0000 0000 0000 0000 0100 0000
00000030: 0100 0000 0100 0000 0c03 0000 0000 0000
00000040: 0304 0200 0101 026d 0000 0000 0000 0000
00000050: 0000 0000 0800 0000 0100 0000 0100 0000
00000060: 5801 0000 2000 0f07 0000 0000 0000 0000
00000070: 0000 0000 8880 ff00 056d 0100 0000 0000
00000080: 5801 0000 5801 0000
110 77 67 100 109 10 113 111
60 0 0 0 0 0 0 0
60 0 0 0 8 0 0 0
136 0 0 0 40 0 0 0
1 0 0 0 0 0 0 0
0 0 0 0 1 0 0 0
1 0 0 0 1 0 0 0
12 3 0 0 0 0 0 0
3 4 2 0 1 1 2 109
0 0 0 0 0 0 0 0
0 0 0 0 8 0 0 0
1 0 0 0 1 0 0 0
88 1 0 0 32 0 15 7
0 0 0 0 0 0 0 0
0 0 0 0 136 128 255 0
5 109 1 0 0 0 0 0
88 1 0 0 88 1 0 0

NeutronWeights u1 [40]
00000000: 0101 0101 0101 0101 8000 0000 8000 0000
00000010: 8000 0000 8000 0000 8000 0000 8000 0000
00000020: 8000 0000 8000 0000
1 1 1 1 1 1 1 1
128 0 0 0 128 0 0 0
128 0 0 0 128 0 0 0
128 0 0 0 128 0 0 0
128 0 0 0 128 0 0 0

NeutronMicrocode u1 [736]
00000000: 6e4d 4364 6d0a 716f 8e02 0000 0000 0000
00000010: 8e02 0000 1000 0000 e002 0000 9813 0000
00000020: 0100 0000 7811 0000 0000 0000 0200 0000
00000030: 0200 0000 0d00 0000 9803 0000 0000 0000
00000040: 0304 0600 0202 0259 b002 0000 0000 0000
00000050: 0000 0000 8000 0000 5801 0000 2000 0f07
00000060: 0100 0000 0100 0000 0400 0000 8700 0080
00000070: 0010 0000 0000 0000 0559 0304 0601 0202
00000080: 0259 5801 0000 0000 0000 a000 0000 8000
00000090: 0000 5801 0000 2000 0f07 0100 0000 0200
000000a0: 0000 0500 0000 8700 0080 0010 0000 0000
000000b0: 0000 0559 0304 0606 0202 025f 0000 0000
000000c0: b002 0000 e001 0000 3803 0000 5801 0000
000000d0: 0100 0000 2000 0e07 93fc 3725 0000 0000
000000e0: 0000 0000 055f 025f b002 0000 5801 0000
000000f0: e001 0000 9808 0000 5801 0000 0100 0000
110 77 67 100 109 10 113 111
142 2 0 0 0 0 0 0
142 2 0 0 16 0 0 0
224 2 0 0 152 19 0 0
1 0 0 0 120 17 0 0
0 0 0 0 2 0 0 0
2 0 0 0 13 0 0 0
152 3 0 0 0 0 0 0
3 4 6 0 2 2 2 89
176 2 0 0 0 0 0 0
0 0 0 0 128 0 0 0
88 1 0 0 32 0 15 7
1 0 0 0 1 0 0 0
4 0 0 0 135 0 0 128
0 16 0 0 0 0 0 0
5 89 3 4 6 1 2 2
2 89 88 1 0 0 0 0
0 0 160 0 0 0 128 0
0 0 88 1 0 0 32 0
15 7 1 0 0 0 2 0
0 0 5 0 0 0 135 0
0 128 0 16 0 0 0 0
0 0 5 89 3 4 6 6
2 2 2 95 0 0 0 0
176 2 0 0 224 1 0 0
56 3 0 0 88 1 0 0
1 0 0 0 32 0 14 7
147 252 55 37 0 0 0 0
0 0 0 0 5 95 2 95
176 2 0 0 88 1 0 0
224 1 0 0 152 8 0 0
88 1 0 0 1 0 0 0

NeutronWeights u1 [5016]
00000000: 0100 0000 0000 0000 0001 0000 0000 0000
00000010: 0000 0100 0000 0000 0000 0001 0000 0000
00000020: 0000 0000 0100 0000 0000 0000 0001 0000
00000030: 0000 0000 0000 0100 0000 0000 0000 0001
00000040: 0010 0000 0010 0010 0010 0020 0010 0030
00000050: 0010 0040 0010 0050 0010 0060 0010 0070
00000060: 0010 0080 0010 0090 0010 00a0 0010 00b0
00000070: 0010 00c0 0010 00d0 0010 00e0 0010 00f0
00000080: 0000 0000 0000 0000 0000 0000 0000 0000
00000090: 0000 0000 0000 0000 0000 0000 0000 0000
000000a0: 0100 0000 0000 0000 0001 0000 0000 0000
000000b0: 0000 0100 0000 0000 0000 0001 0000 0000
000000c0: 0000 0000 0100 0000 0000 0000 0001 0000
000000d0: 0000 0000 0000 0100 0000 0000 0000 0001
000000e0: 55fd 000b 4bee 0000 6200 7a09 60f7 0000
000000f0: dbfe 920b e000 0000 0000 db0a c00b 0000
1 0 0 0 0 0 0 0
0 1 0 0 0 0 0 0
0 0 1 0 0 0 0 0
0 0 0 1 0 0 0 0
0 0 0 0 1 0 0 0
0 0 0 0 0 1 0 0
0 0 0 0 0 0 1 0
0 0 0 0 0 0 0 1
0 16 0 0 0 16 0 16
0 16 0 32 0 16 0 48
0 16 0 64 0 16 0 80
0 16 0 96 0 16 0 112
0 16 0 128 0 16 0 144
0 16 0 160 0 16 0 176
0 16 0 192 0 16 0 208
0 16 0 224 0 16 0 240
0 0 0 0 0 0 0 0
0 0 0 0 0 0 0 0
0 0 0 0 0 0 0 0
0 0 0 0 0 0 0 0
1 0 0 0 0 0 0 0
0 1 0 0 0 0 0 0
0 0 1 0 0 0 0 0
0 0 0 1 0 0 0 0
0 0 0 0 1 0 0 0
0 0 0 0 0 1 0 0
0 0 0 0 0 0 1 0
0 0 0 0 0 0 0 1
85 253 0 11 75 238 0 0
98 0 122 9 96 247 0 0
219 254 146 11 224 0 0 0
0 0 219 10 192 11 0 0

NeutronMicrocode u1 [136]
00000000: 6e4d 4364 6d0a 716f 3c00 0000 0000 0000
00000010: 3c00 0000 0800 0000 8800 0000 2800 0000
00000020: 0100 0000 0000 0000 0000 0000 0100 0000
00000030: 0100 0000 0100 0000 9a03 0000 0000 0000
00000040: 0304 0200 0101 026d 0000 0000 0000 0000
00000050: 0000 0000 0800 0000 0100 0000 0100 0000
00000060: b002 0000 2000 0f0f 0000 0000 0000 0000
00000070: 0000 0000 8d80 9f31 056d 0100 0000 0000
00000080: b002 0000 b002 0000
110 77 67 100 109 10 113 111
60 0 0 0 0 0 0 0
60 0 0 0 8 0 0 0
136 0 0 0 40 0 0 0
1 0 0 0 0 0 0 0
0 0 0 0 1 0 0 0
1 0 0 0 1 0 0 0
154 3 0 0 0 0 0 0
3 4 2 0 1 1 2 109
0 0 0 0 0 0 0 0
0 0 0 0 8 0 0 0
1 0 0 0 1 0 0 0
176 2 0 0 32 0 15 15
0 0 0 0 0 0 0 0
0 0 0 0 141 128 159 49
5 109 1 0 0 0 0 0
176 2 0 0 176 2 0 0

NeutronWeights u1 [40]
00000000: 0101 0101 0101 0101 2500 0000 2500 0000
00000010: 2500 0000 2500 0000 2500 0000 2500 0000
00000020: 2500 0000 2500 0000
1 1 1 1 1 1 1 1
37 0 0 0 37 0 0 0
37 0 0 0 37 0 0 0
37 0 0 0 37 0 0 0
37 0 0 0 37 0 0 0
