models/mobilenet_v1_0.25_128_quant_int8/mobilenet_v1_0.25_128_quant_int8_npu64.tflite (tflite, 505824 bytes, 2 tensors)

NeutronMicrocode u1 [4152]
00000000: 6e4d 4364 6d0a 716f e20f 0000 0000 0000
00000010: e20f 0000 0800 0000 3810 0000 88a2 0700
00000020: 0100 0000 0080 0100 0000 0000 0100 0000
00000030: 0100 0000 1e00 0000 9d02 0000 0000 0000
00000040: 0305 0400 0101 0100 0207 0000 0000 0000
00000050: 0000 4000 0000 0000 0000 2000 0000 0100
00000060: 0000 4000 0000 4000 0000 0800 0000 0800
00000070: 0000 0100 0000 8000 0000 8000 0000 0300
00000080: 0000 0300 0000 0300 0000 0200 0000 0200
00000090: 0000 0000 0000 0000 0000 0100 0000 0100
000000a0: 0000 0100 0000 0802 0001 2000 0f07 0000
000000b0: 0000 0000 0000 0100 0000 0100 0000 ffff
000000c0: ffff 0080 0000 0000 0000 0000 0000 0000
000000d0: 0000 0000 0000 0507 0305 0404 0101 0100
000000e0: 021b 0000 0100 0000 0000 c001 0000 4001
000000f0: 0000 a001 0000 0100 0000 4000 0000 4000
110 77 67 100 109 10 113 111
226 15 0 0 0 0 0 0
226 15 0 0 8 0 0 0
56 16 0 0 136 162 7 0
1 0 0 0 0 128 1 0
0 0 0 0 1 0 0 0
1 0 0 0 30 0 0 0
157 2 0 0 0 0 0 0
3 5 4 0 1 1 1 0
2 7 0 0 0 0 0 0
0 0 64 0 0 0 0 0
0 0 32 0 0 0 1 0
0 0 64 0 0 0 64 0
0 0 8 0 0 0 8 0
0 0 1 0 0 0 128 0
0 0 128 0 0 0 3 0
0 0 3 0 0 0 3 0
0 0 2 0 0 0 2 0
0 0 0 0 0 0 0 0
0 0 1 0 0 0 1 0
0 0 1 0 0 0 8 2
0 1 32 0 15 7 0 0
0 0 0 0 0 0 1 0
0 0 1 0 0 0 255 255
255 255 0 128 0 0 0 0
0 0 0 0 0 0 0 0
0 0 0 0 0 0 5 7
3 5 4 4 1 1 1 0
2 27 0 0 1 0 0 0
0 0 192 1 0 0 64 1
0 0 160 1 0 0 1 0
0 0 64 0 0 0 64 0

NeutronWeights u1 [500360]
00000000: 6862 c0ff c113 0100 1222 0300 20cf 0400
00000010: ddd7 0000 26da 0200 a526 0100 6b8e 0300
00000020: ddf4 2100 1763 1800 112c 1a00 57a1 1a00
00000030: 2b41 1700 358b 1d00 2768 1800 2f15 1700
00000040: aec5 90a8 bb8e cec4 e144 deca 68cf e03e
00000050: 7256 376d 5031 674b a318 489e 194c e807
00000060: 2c49 0a26 4411 f4f1 6172 5663 7157 697b
00000070: d0b2 ecb1 81df dac8 e1c0 eee2 c7f1 04f9
00000080: bdc1 9cb5 aa84 cdd2 da50 d7bd 7fc1 dc47
00000090: 7054 376c 4f32 6648 8822 5781 235e e30a
000000a0: ba81 f0cb 8de7 060a 6778 5d68 765c 6d7d
000000b0: f3f7 f8e3 e8f6 f0f2 b281 e0bb 89e1 fdfc
000000c0: a2a8 81b3 b993 e4d7 f41a f1e6 33e5 fa12
000000d0: 7f5f 407c 5b3d 7455 cf15 1bca 1123 02fd
000000e0: 1837 0213 360a f5f0 6375 6164 735c 6c7f
000000f0: 161c 0724 2b0d 0f10 cfc3 f1d6 c1ee fe08
104 98 192 255 193 19 1 0
18 34 3 0 32 207 4 0
221 215 0 0 38 218 2 0
165 38 1 0 107 142 3 0
221 244 33 0 23 99 24 0
17 44 26 0 87 161 26 0
43 65 23 0 53 139 29 0
39 104 24 0 47 21 23 0
174 197 144 168 187 142 206 196
225 68 222 202 104 207 224 62
114 86 55 109 80 49 103 75
163 24 72 158 25 76 232 7
44 73 10 38 68 17 244 241
97 114 86 99 113 87 105 123
208 178 236 177 129 223 218 200
225 192 238 226 199 241 4 249
189 193 156 181 170 132 205 210
218 80 215 189 127 193 220 71
112 84 55 108 79 50 102 72
136 34 87 129 35 94 227 10
186 129 240 203 141 231 6 10
103 120 93 104 118 92 109 125
243 247 248 227 232 246 240 242
178 129 224 187 137 225 253 252
162 168 129 179 185 147 228 215
244 26 241 230 51 229 250 18
127 95 64 124 91 61 116 85
207 21 27 202 17 35 2 253
24 55 2 19 54 10 245 240
99 117 97 100 115 92 108 127
22 28 7 36 43 13 15 16
207 195 241 214 193 238 254 8
