models/mobilenet_v1_0.25_128_quant_int8/mobilenet_v1_0.25_128_quant_int8_npu16.tflite (tflite, 488800 bytes, 2 tensors)

NeutronMicrocode u1 [4152]
0	0x6e	110
1	0x4d	77
2	0x43	67
3	0x64	100
4	0x6d	109
5	0x0a	10
6	0x71	113
7	0x6f	111
8	0xe2	226
9	0x0f	15
10	0x00	0
11	0x00	0
12	0x00	0
13	0x00	0
14	0x00	0
15	0x00	0
16	0xe2	226
17	0x0f	15
18	0x00	0
19	0x00	0
20	0x08	8
21	0x00	0
22	0x00	0
23	0x00	0
24	0x38	56
25	0x10	16
26	0x00	0
27	0x00	0
28	0x10	16
29	0x60	96
30	0x07	7
31	0x00	0
32	0x01	1
33	0x00	0
34	0x00	0
35	0x00	0
36	0x00	0
37	0x80	128
38	0x01	1
39	0x00	0
40	0x00	0
41	0x00	0
42	0x00	0
43	0x00	0
44	0x01	1
45	0x00	0
46	0x00	0
47	0x00	0
48	0x01	1
49	0x00	0
50	0x00	0
51	0x00	0
52	0x1e	30
53	0x00	0
54	0x00	0
55	0x00	0
56	0x6a	106
57	0x08	8
58	0x00	0
59	0x00	0
60	0x00	0
61	0x00	0
62	0x00	0
63	0x00	0
64	0x03	3
65	0x05	5
66	0x04	4
67	0x00	0
68	0x01	1
69	0x01	1
70	0x01	1
71	0x00	0
72	0x02	2
73	0x07	7
74	0x00	0
75	0x00	0
76	0x00	0
77	0x00	0
78	0x00	0
79	0x00	0
80	0x00	0
81	0x00	0
82	0x20	32
83	0x00	0
84	0x00	0
85	0x00	0
86	0x00	0
87	0x00	0
88	0x00	0
89	0x00	0
90	0x10	16
91	0x00	0
92	0x00	0
93	0x00	0
94	0x01	1
95	0x00	0
96	0x00	0
97	0x00	0
98	0x40	64
99	0x00	0
100	0x00	0
101	0x00	0
102	0x40	64
103	0x00	0
104	0x00	0
105	0x00	0
106	0x08	8
107	0x00	0
108	0x00	0
109	0x00	0
110	0x08	8
111	0x00	0
112	0x00	0
113	0x00	0
114	0x01	1
115	0x00	0
116	0x00	0
117	0x00	0
118	0x80	128
119	0x00	0
120	0x00	0
121	0x00	0
122	0x80	128
123	0x00	0
124	0x00	0
125	0x00	0
126	0x03	3
127	0x00	0
128	0x00	0
129	0x00	0
130	0x03	3
131	0x00	0
132	0x00	0
133	0x00	0
134	0x03	3
135	0x00	0
136	0x00	0
137	0x00	0
138	0x02	2
139	0x00	0
140	0x00	0
141	0x00	0
142	0x02	2
143	0x00	0
144	0x00	0
145	0x00	0
146	0x00	0
147	0x00	0
148	0x00	0
149	0x00	0
150	0x00	0
151	0x00	0
152	0x00	0
153	0x00	0
154	0x01	1
155	0x00	0
156	0x00	0
157	0x00	0
158	0x01	1
159	0x00	0
160	0x00	0
161	0x00	0
162	0x01	1
163	0x00	0
164	0x00	0
165	0x00	0
166	0x08	8
167	0x02	2
168	0xc0	192
169	0x01	1
170	0x10	16
171	0x01	1
172	0x0f	15
173	0x07	7
174	0x00	0
175	0x00	0
176	0x00	0
177	0x00	0
178	0x00	0
179	0x00	0
180	0x00	0
181	0x00	0
182	0x01	1
183	0x00	0
184	0x00	0
185	0x00	0
186	0x01	1
187	0x00	0
188	0x00	0
189	0x00	0
190	0xff	255
191	0xff	255
192	0xff	255
193	0xff	255
194	0x30	48
195	0x80	128
196	0x00	0
197	0x00	0
198	0x00	0
199	0x00	0
200	0x00	0
201	0x00	0
202	0x00	0
203	0x00	0
204	0x00	0
205	0x00	0
206	0x00	0
207	0x00	0
208	0x00	0
209	0x00	0
210	0x00	0
211	0x00	0
212	0x00	0
213	0x00	0
214	0x05	5
215	0x07	7
216	0x03	3
217	0x05	5
218	0x04	4
219	0x04	4
220	0x01	1
221	0x01	1
222	0x01	1
223	0x00	0
224	0x02	2
225	0x1b	27
226	0x00	0
227	0x00	0
228	0x01	1
229	0x00	0
230	0x00	0
231	0x00	0
232	0x00	0
233	0x00	0
234	0x40	64
235	0x01	1
236	0x00	0
237	0x00	0
238	0x00	0
239	0x01	1
240	0x00	0
241	0x00	0
242	0x30	48
243	0x01	1
244	0x00	0
245	0x00	0
246	0x01	1
247	0x00	0
248	0x00	0
249	0x00	0
250	0x40	64
251	0x00	0
252	0x00	0
253	0x00	0
254	0x40	64
255	0x00	0

NeutronWeights u1 [483344]
0	0xfa	250
1	0xb3	179
2	0x28	40
3	0x1e	30
4	0x22	34
5	0x23	35
6	0x68	104
7	0x26	38
8	0x5f	95
9	0x1b	27
10	0xda	218
11	0x22	34
12	0x4d	77
13	0x1e	30
14	0x8e	142
15	0x23	35
16	0xd3	211
17	0x6f	111
18	0x19	25
19	0x4f	79
20	0xc1	193
21	0x5a	90
22	0x85	133
23	0x52	82
24	0x09	9
25	0x4a	74
26	0x2d	45
27	0x5e	94
28	0x41	65
29	0x4f	79
30	0xa6	166
31	0x52	82
32	0xae	174
33	0xc5	197
34	0x90	144
35	0xa8	168
36	0xe1	225
37	0x44	68
38	0xde	222
39	0xca	202
40	0x72	114
41	0x56	86
42	0x37	55
43	0x6d	109
44	0xa3	163
45	0x18	24
46	0x48	72
47	0x9e	158
48	0x2c	44
49	0x49	73
50	0x0a	10
51	0x26	38
52	0x61	97
53	0x72	114
54	0x56	86
55	0x63	99
56	0xd0	208
57	0xb2	178
58	0xec	236
59	0xb1	177
60	0xe1	225
61	0xc0	192
62	0xee	238
63	0xe2	226
64	0xbd	189
65	0xc1	193
66	0x9c	156
67	0xb5	181
68	0xda	218
69	0x50	80
70	0xd7	215
71	0xbd	189
72	0x70	112
73	0x54	84
74	0x37	55
75	0x6c	108
76	0x88	136
77	0x22	34
78	0x57	87
79	0x81	129
80	0xba	186
81	0x81	129
82	0xf0	240
83	0xcb	203
84	0x67	103
85	0x78	120
86	0x5d	93
87	0x68	104
88	0xf3	243
89	0xf7	247
90	0xf8	248
91	0xe3	227
92	0xb2	178
93	0x81	129
94	0xe0	224
95	0xbb	187
96	0xa2	162
97	0xa8	168
98	0x81	129
99	0xb3	179
100	0xf4	244
101	0x1a	26
102	0xf1	241
103	0xe6	230
104	0x7f	127
105	0x5f	95
106	0x40	64
107	0x7c	124
108	0xcf	207
109	0x15	21
110	0x1b	27
111	0xca	202
112	0x18	24
113	0x37	55
114	0x02	2
115	0x13	19
116	0x63	99
117	0x75	117
118	0x61	97
119	0x64	100
120	0x16	22
121	0x1c	28
122	0x07	7
123	0x24	36
124	0xcf	207
125	0xc3	195
126	0xf1	241
127	0xd6	214
128	0xbb	187
129	0x8e	142
130	0xce	206
131	0xc4	196
132	0x68	104
133	0xcf	207
134	0xe0	224
135	0x3e	62
136	0x50	80
137	0x31	49
138	0x67	103
139	0x4b	75
140	0x19	25
141	0x4c	76
142	0xe8	232
143	0x07	7
144	0x44	68
145	0x11	17
146	0xf4	244
147	0xf1	241
148	0x71	113
149	0x57	87
150	0x69	105
151	0x7b	123
152	0x81	129
153	0xdf	223
154	0xda	218
155	0xc8	200
156	0xc7	199
157	0xf1	241
158	0x04	4
159	0xf9	249
160	0xaa	170
161	0x84	132
162	0xcd	205
163	0xd2	210
164	0x7f	127
165	0xc1	193
166	0xdc	220
167	0x47	71
168	0x4f	79
169	0x32	50
170	0x66	102
171	0x48	72
172	0x23	35
173	0x5e	94
174	0xe3	227
175	0x0a	10
176	0x8d	141
177	0xe7	231
178	0x06	6
179	0x0a	10
180	0x76	118
181	0x5c	92
182	0x6d	109
183	0x7d	125
184	0xe8	232
185	0xf6	246
186	0xf0	240
187	0xf2	242
188	0x89	137
189	0xe1	225
190	0xfd	253
191	0xfc	252
192	0xb9	185
193	0x93	147
194	0xe4	228
195	0xd7	215
196	0x33	51
197	0xe5	229
198	0xfa	250
199	0x12	18
200	0x5b	91
201	0x3d	61
202	0x74	116
203	0x55	85
204	0x11	17
205	0x23	35
206	0x02	2
207	0xfd	253
208	0x36	54
209	0x0a	10
210	0xf5	245
211	0xf0	240
212	0x73	115
213	0x5c	92
214	0x6c	108
215	0x7f	127
216	0x2b	43
217	0x0d	13
218	0x0f	15
219	0x10	16
220	0xc1	193
221	0xee	238
222	0xfe	254
223	0x08	8
224	0x9d	157
225	0xa2	162
226	0xa3	163
227	0x00	0
228	0xe2	226
229	0xdc	220
230	0xf4	244
231	0x00	0
232	0x32	50
233	0x30	48
234	0x3b	59
235	0x00	0
236	0x12	18
237	0x15	21
238	0x01	1
239	0x00	0
240	0x05	5
241	0xf5	245
242	0x02	2
243	0x00	0
244	0x5c	92
245	0x63	99
246	0x66	102
247	0x00	0
248	0xf3	243
249	0xfe	254
250	0x0b	11
251	0x00	0
252	0x01	1
253	0xfe	254
254	0x00	0
255	0x00	0
