models/nanodet_m_320_quant_int8/nanodet_m_0.5x_nhwc_nopermute_npu64.tflite (tflite, 262992 bytes, 38 tensors)

NeutronMicrocode u1 [680]
00000000: 6e4d 4364 912c 7b91 5602 0000 0000 0000
00000010: 5602 0000 0800 0000 a802 0000 b819 0000
00000020: 0100 0000 00e1 0000 0000 0000 0100 0000
00000030: 0100 0000 0700 0000 0401 0000 0000 0000
00000040: 0303 0400 0100 024b 0000 0000 0000 0000
00000050: 0000 0000 9001 0000 6000 0000 3000 0000
00000060: 2000 0100 8000 0100 054b 024b 0096 0000
00000070: 3000 0000 0000 0000 9001 0000 6000 0000
00000080: 3000 0000 2000 0100 8000 0100 054b 0305
00000090: 0404 0101 0100 0225 004b 0000 0096 0000
000000a0: 8801 0000 0800 0000 c800 0000 0100 0000
000000b0: 1400 0000 1400 0000 3000 0000 3000 0000
000000c0: 0100 0000 1400 0000 1400 0000 3000 0000
000000d0: 0100 0000 0100 0000 0100 0000 0100 0000
000000e0: 0000 0000 0000 0000 0000 0000 0000 0000
000000f0: 0100 0000 0100 0000 2000 0f3f 0000 0000
110 77 67 100 145 44 123 145
86 2 0 0 0 0 0 0
86 2 0 0 8 0 0 0
168 2 0 0 184 25 0 0
1 0 0 0 0 225 0 0
0 0 0 0 1 0 0 0
1 0 0 0 7 0 0 0
4 1 0 0 0 0 0 0
3 3 4 0 1 0 2 75
0 0 0 0 0 0 0 0
0 0 0 0 144 1 0 0
96 0 0 0 48 0 0 0
32 0 1 0 128 0 1 0
5 75 2 75 0 150 0 0
48 0 0 0 0 0 0 0
144 1 0 0 96 0 0 0
48 0 0 0 32 0 1 0
128 0 1 0 5 75 3 5
4 4 1 1 1 0 2 37
0 75 0 0 0 150 0 0
136 1 0 0 8 0 0 0
200 0 0 0 1 0 0 0
20 0 0 0 20 0 0 0
48 0 0 0 48 0 0 0
1 0 0 0 20 0 0 0
20 0 0 0 48 0 0 0
1 0 0 0 1 0 0 0
1 0 0 0 1 0 0 0
0 0 0 0 0 0 0 0
0 0 0 0 0 0 0 0
1 0 0 0 1 0 0 0
32 0 15 63 0 0 0 0

NeutronWeights u1 [6584]
00000000: 0101 0101 0101 0101 6860 ffff 6e4a ffff
00000010: d62d 0100 4935 0000 16ce 0000 14a0 ffff
00000020: d52e 0000 ba1b ffff 62c2 ffff bad1 ffff
00000030: 2507 0000 21e0 ffff ff15 0000 3cf1 ffff
00000040: e49a 0000 96f2 0000 4d0a 0000 9d9b ffff
00000050: e3f5 ffff e835 0000 c74e ffff 2073 ffff
00000060: 9390 ffff 3f4d 0200 8f71 ffff 53f2 0000
00000070: f2a0 ffff 2bd5 0000 520a 0000 d9b7 ffff
00000080: 4ee2 0000 dca8 ffff 8ab7 ffff 48cb 0000
00000090: ed82 ffff 9a1a 0000 3860 ffff a9e6 ffff
000000a0: 946a 0000 40c2 ffff dc66 0000 2ad3 ffff
000000b0: 87e8 feff 2643 ffff 9338 0000 c4ce ffff
000000c0: 08c1 ffff 16d2 feff 6563 1600 f7b1 1800
000000d0: 1308 1300 7b74 1600 5974 1700 8139 1600
000000e0: 9518 1400 fd19 1400 4b15 1400 6b9d 1700
000000f0: 27ab 1700 bfde 1700 198b 1600 0373 1700
1 1 1 1 1 1 1 1
104 96 255 255 110 74 255 255
214 45 1 0 73 53 0 0
22 206 0 0 20 160 255 255
213 46 0 0 186 27 255 255
98 194 255 255 186 209 255 255
37 7 0 0 33 224 255 255
255 21 0 0 60 241 255 255
228 154 0 0 150 242 0 0
77 10 0 0 157 155 255 255
227 245 255 255 232 53 0 0
199 78 255 255 32 115 255 255
147 144 255 255 63 77 2 0
143 113 255 255 83 242 0 0
242 160 255 255 43 213 0 0
82 10 0 0 217 183 255 255
78 226 0 0 220 168 255 255
138 183 255 255 72 203 0 0
237 130 255 255 154 26 0 0
56 96 255 255 169 230 255 255
148 106 0 0 64 194 255 255
220 102 0 0 42 211 255 255
135 232 254 255 38 67 255 255
147 56 0 0 196 206 255 255
8 193 255 255 22 210 254 255
101 99 22 0 247 177 24 0
19 8 19 0 123 116 22 0
89 116 23 0 129 57 22 0
149 24 20 0 253 25 20 0
75 21 20 0 107 157 23 0
39 171 23 0 191 222 23 0
25 139 22 0 3 115 23 0

NeutronMicrocode u1 [680]
00000000: 6e4d 4364 912c 7b91 5602 0000 0000 0000
00000010: 5602 0000 0800 0000 a802 0000 b819 0000
00000020: 0100 0000 00e1 0000 0000 0000 0100 0000
00000030: 0100 0000 0700 0000 0802 0000 0000 0000
00000040: 0303 0400 0100 024b 0000 0000 0000 0000
00000050: 0000 0000 9001 0000 6000 0000 3000 0000
00000060: 2000 0100 8000 0100 054b 024b 0096 0000
00000070: 3000 0000 0000 0000 9001 0000 6000 0000
00000080: 3000 0000 2000 0100 8000 0100 054b 0305
00000090: 0404 0101 0100 0225 004b 0000 0096 0000
000000a0: 8801 0000 0800 0000 c800 0000 0100 0000
000000b0: 1400 0000 1400 0000 3000 0000 3000 0000
000000c0: 0100 0000 1400 0000 1400 0000 3000 0000
000000d0: 0100 0000 0100 0000 0100 0000 0100 0000
000000e0: 0000 0000 0000 0000 0000 0000 0000 0000
000000f0: 0100 0000 0100 0000 2000 0f3f 0000 0000
110 77 67 100 145 44 123 145
86 2 0 0 0 0 0 0
86 2 0 0 8 0 0 0
168 2 0 0 184 25 0 0
1 0 0 0 0 225 0 0
0 0 0 0 1 0 0 0
1 0 0 0 7 0 0 0
8 2 0 0 0 0 0 0
3 3 4 0 1 0 2 75
0 0 0 0 0 0 0 0
0 0 0 0 144 1 0 0
96 0 0 0 48 0 0 0
32 0 1 0 128 0 1 0
5 75 2 75 0 150 0 0
48 0 0 0 0 0 0 0
144 1 0 0 96 0 0 0
48 0 0 0 32 0 1 0
128 0 1 0 5 75 3 5
4 4 1 1 1 0 2 37
0 75 0 0 0 150 0 0
136 1 0 0 8 0 0 0
200 0 0 0 1 0 0 0
20 0 0 0 20 0 0 0
48 0 0 0 48 0 0 0
1 0 0 0 20 0 0 0
20 0 0 0 48 0 0 0
1 0 0 0 1 0 0 0
1 0 0 0 1 0 0 0
0 0 0 0 0 0 0 0
0 0 0 0 0 0 0 0
1 0 0 0 1 0 0 0
32 0 15 63 0 0 0 0

NeutronWeights u1 [6584]
00000000: 0101 0101 0101 0101 1a6f ffff 89d4 ffff
00000010: 2331 ffff 96d8 ffff 2668 ffff 6a49 0000
00000020: ccf2 0000 86c7 feff 010e 0000 b8ff feff
00000030: f9a5 0000 1f0e 0000 6857 0000 5413 0000
00000040: 933f 0100 0943 0000 d03d 0000 3d6d 0000
00000050: fef7 ffff bb17 ffff 488d 0000 cdfc ffff
00000060: 223b ffff 4543 0000 b409 0000 dd69 feff
00000070: 5d80 ffff 6daa ffff a01a 0000 b3cb ffff
00000080: b34d ffff fd7a 0000 5504 0000 d250 ffff
00000090: 537e ffff 593d 0000 2173 ffff 9e1f 0000
000000a0: eb29 0000 3e54 ffff 7f02 ffff 5352 ffff
000000b0: 9da5 ffff 19b8 ffff da22 0000 2c30 ffff
000000c0: 325e 0000 c386 0000 5f63 1600 210f 1300
000000d0: 3946 1600 536b 1600 afaf 1600 f7a0 1600
000000e0: 5fd1 1700 d76a 1600 29c6 1700 8198 1800
000000f0: c547 1600 1dd9 1600 1357 1600 8dd8 1700
1 1 1 1 1 1 1 1
26 111 255 255 137 212 255 255
35 49 255 255 150 216 255 255
38 104 255 255 106 73 0 0
204 242 0 0 134 199 254 255
1 14 0 0 184 255 254 255
249 165 0 0 31 14 0 0
104 87 0 0 84 19 0 0
147 63 1 0 9 67 0 0
208 61 0 0 61 109 0 0
254 247 255 255 187 23 255 255
72 141 0 0 205 252 255 255
34 59 255 255 69 67 0 0
180 9 0 0 221 105 254 255
93 128 255 255 109 170 255 255
160 26 0 0 179 203 255 255
179 77 255 255 253 122 0 0
85 4 0 0 210 80 255 255
83 126 255 255 89 61 0 0
33 115 255 255 158 31 0 0
235 41 0 0 62 84 255 255
127 2 255 255 83 82 255 255
157 165 255 255 25 184 255 255
218 34 0 0 44 48 255 255
50 94 0 0 195 134 0 0
95 99 22 0 33 15 19 0
57 70 22 0 83 107 22 0
175 175 22 0 247 160 22 0
95 209 23 0 215 106 22 0
41 198 23 0 129 152 24 0
197 71 22 0 29 217 22 0
19 87 22 0 141 216 23 0

NeutronMicrocode u1 [1120]
00000000: 6e4d 4364 912c 7b91 0204 0000 0000 0000
00000010: 0204 0000 1000 0000 6004 0000 f889 0000
00000020: 0100 0000 4051 0000 0000 0000 0200 0000
00000030: 0200 0000 0b00 0000 ce03 0000 0000 0000
00000040: 0305 0600 0102 0200 0243 8025 0000 0000
00000050: 0000 0000 0000 0000 0000 0800 0000 8025
00000060: 0000 0100 0000 2002 0e07 9705 d1c4 0000
00000070: 0000 0000 0000 0543 0305 0606 0202 0200
00000080: 0257 0000 0000 8025 0000 1003 0000 1000
00000090: 0000 9001 0000 0100 0000 0a00 0000 0a00
000000a0: 0000 6000 0000 6000 0000 0100 0000 0a00
000000b0: 0000 0a00 0000 6000 0000 0300 0000 0300
000000c0: 0000 0100 0000 0100 0000 0100 0000 0100
000000d0: 0000 0100 0000 0100 0000 0100 0000 0100
000000e0: 0000 2000 0f07 0000 0000 0000 0000 0100
000000f0: 0000 0100 0000 0500 0000 0001 0000 0000
110 77 67 100 145 44 123 145
2 4 0 0 0 0 0 0
2 4 0 0 16 0 0 0
96 4 0 0 248 137 0 0
1 0 0 0 64 81 0 0
0 0 0 0 2 0 0 0
2 0 0 0 11 0 0 0
206 3 0 0 0 0 0 0
3 5 6 0 1 2 2 0
2 67 128 37 0 0 0 0
0 0 0 0 0 0 0 0
0 0 8 0 0 0 128 37
0 0 1 0 0 0 32 2
14 7 151 5 209 196 0 0
0 0 0 0 0 0 5 67
3 5 6 6 2 2 2 0
2 87 0 0 0 0 128 37
0 0 16 3 0 0 16 0
0 0 144 1 0 0 1 0
0 0 10 0 0 0 10 0
0 0 96 0 0 0 96 0
0 0 1 0 0 0 10 0
0 0 10 0 0 0 96 0
0 0 3 0 0 0 3 0
0 0 1 0 0 0 1 0
0 0 1 0 0 0 1 0
0 0 1 0 0 0 1 0
0 0 1 0 0 0 1 0
0 0 32 0 15 7 0 0
0 0 0 0 0 0 1 0
0 0 1 0 0 0 5 0
0 0 0 1 0 0 0 0

NeutronWeights u1 [35320]
00000000: 3d95 0000 0000 3d95 1c01 0000 1c01 0000
00000010: 91fe ffff ec02 0000 e3f9 ffff 38d1 ffff
00000020: 1819 0000 4b02 0000 65fe ffff e738 0000
00000030: 4827 0000 712e 0000 9209 0000 84be ffff
00000040: ed0c 0000 5b1c 0000 1602 0000 2610 0000
00000050: cc07 0000 36c2 ffff d40a 0000 c40c 0000
00000060: f8ee ffff 740d 0000 462c 0000 6101 0000
00000070: 660d 0000 6b1a 0000 551b 0000 ef23 0000
00000080: 922b 0000 ae01 0000 6e17 0000 a819 0000
00000090: 6c22 0000 f0fb ffff eff7 ffff 88fc ffff
000000a0: 4e1e 0000 e433 0000 ce02 0000 01f0 ffff
000000b0: 5a19 0000 04f2 ffff d9df ffff d003 0000
000000c0: 0829 0000 890f 0000 8a05 0000 bff7 ffff
000000d0: 2020 0000 6da0 ffff c016 0000 851b 0000
000000e0: 620a 0000 7f0e 0000 d419 0000 ba14 0000
000000f0: 3d14 0000 0dec ffff bf07 0000 b416 0000
61 149 0 0 0 0 61 149
28 1 0 0 28 1 0 0
145 254 255 255 236 2 0 0
227 249 255 255 56 209 255 255
24 25 0 0 75 2 0 0
101 254 255 255 231 56 0 0
72 39 0 0 113 46 0 0
146 9 0 0 132 190 255 255
237 12 0 0 91 28 0 0
22 2 0 0 38 16 0 0
204 7 0 0 54 194 255 255
212 10 0 0 196 12 0 0
248 238 255 255 116 13 0 0
70 44 0 0 97 1 0 0
102 13 0 0 107 26 0 0
85 27 0 0 239 35 0 0
146 43 0 0 174 1 0 0
110 23 0 0 168 25 0 0
108 34 0 0 240 251 255 255
239 247 255 255 136 252 255 255
78 30 0 0 228 51 0 0
206 2 0 0 1 240 255 255
90 25 0 0 4 242 255 255
217 223 255 255 208 3 0 0
8 41 0 0 137 15 0 0
138 5 0 0 191 247 255 255
32 32 0 0 109 160 255 255
192 22 0 0 133 27 0 0
98 10 0 0 127 14 0 0
212 25 0 0 186 20 0 0
61 20 0 0 13 236 255 255
191 7 0 0 180 22 0 0

NeutronMicrocode u1 [680]
00000000: 6e4d 4364 912c 7b91 5602 0000 0000 0000
00000010: 5602 0000 0800 0000 a802 0000 6854 0000
00000020: 0100 0000 8070 0000 0000 0000 0100 0000
00000030: 0100 0000 0700 0000 b604 0000 0000 0000
00000040: 0303 0400 0100 024b 0000 0000 0000 0000
00000050: 0000 0000 6400 0000 c000 0000 6000 0000
00000060: 2000 0100 8000 0100 054b 024b 004b 0000
00000070: 6000 0000 0000 0000 6400 0000 c000 0000
00000080: 6000 0000 2000 0100 8000 0100 054b 0305
00000090: 0404 0101 0100 0225 8025 0000 004b 0000
000000a0: 0803 0000 0800 0000 8801 0000 0100 0000
000000b0: 0a00 0000 0a00 0000 6000 0000 6000 0000
000000c0: 0100 0000 0a00 0000 0a00 0000 6000 0000
000000d0: 0100 0000 0100 0000 0100 0000 0100 0000
000000e0: 0000 0000 0000 0000 0000 0000 0000 0000
000000f0: 0100 0000 0100 0000 2000 0f3f 0000 0000
110 77 67 100 145 44 123 145
86 2 0 0 0 0 0 0
86 2 0 0 8 0 0 0
168 2 0 0 104 84 0 0
1 0 0 0 128 112 0 0
0 0 0 0 1 0 0 0
1 0 0 0 7 0 0 0
182 4 0 0 0 0 0 0
3 3 4 0 1 0 2 75
0 0 0 0 0 0 0 0
0 0 0 0 100 0 0 0
192 0 0 0 96 0 0 0
32 0 1 0 128 0 1 0
5 75 2 75 0 75 0 0
96 0 0 0 0 0 0 0
100 0 0 0 192 0 0 0
96 0 0 0 32 0 1 0
128 0 1 0 5 75 3 5
4 4 1 1 1 0 2 37
128 37 0 0 0 75 0 0
8 3 0 0 8 0 0 0
136 1 0 0 1 0 0 0
10 0 0 0 10 0 0 0
96 0 0 0 96 0 0 0
1 0 0 0 10 0 0 0
10 0 0 0 96 0 0 0
1 0 0 0 1 0 0 0
1 0 0 0 1 0 0 0
0 0 0 0 0 0 0 0
0 0 0 0 0 0 0 0
1 0 0 0 1 0 0 0
32 0 15 63 0 0 0 0

NeutronWeights u1 [21608]
00000000: 0101 0101 0101 0101 7529 0000 f399 feff
00000010: 8fae feff df8c 0000 b86b feff bfd9 ffff
00000020: 6e99 ffff 27af ffff aa00 ffff 20c2 ffff
00000030: 3845 feff ae61 0000 9501 ffff 0c3b 0000
00000040: 0738 0100 5c13 fdff d79a ffff 5382 feff
00000050: e62c ffff 9252 feff 3ddc ffff b609 ffff
00000060: bc90 ffff ef6c 0000 5f51 ffff 43ba feff
00000070: 7109 ffff acaa ffff 7ef4 ffff 5a81 ffff
00000080: 6f2e 0400 94b7 feff 020a 0000 7f62 ffff
00000090: 2866 ffff 97a4 ffff 6a07 0000 57dc ffff
000000a0: e6c1 feff 570f ffff 9122 ffff cf3e 0100
000000b0: e677 ffff 946f ffff d25c fdff d416 0000
000000c0: 3fd6 ffff 9f57 ffff 7267 ffff e50d ffff
000000d0: 3553 ffff 9167 feff c1e3 feff f2ef 0000
000000e0: 40bf feff e3ff feff 0f14 ffff 57ad ffff
000000f0: 55ea ffff 5d2d ffff d6e1 ffff e299 0000
1 1 1 1 1 1 1 1
117 41 0 0 243 153 254 255
143 174 254 255 223 140 0 0
184 107 254 255 191 217 255 255
110 153 255 255 39 175 255 255
170 0 255 255 32 194 255 255
56 69 254 255 174 97 0 0
149 1 255 255 12 59 0 0
7 56 1 0 92 19 253 255
215 154 255 255 83 130 254 255
230 44 255 255 146 82 254 255
61 220 255 255 182 9 255 255
188 144 255 255 239 108 0 0
95 81 255 255 67 186 254 255
113 9 255 255 172 170 255 255
126 244 255 255 90 129 255 255
111 46 4 0 148 183 254 255
2 10 0 0 127 98 255 255
40 102 255 255 151 164 255 255
106 7 0 0 87 220 255 255
230 193 254 255 87 15 255 255
145 34 255 255 207 62 1 0
230 119 255 255 148 111 255 255
210 92 253 255 212 22 0 0
63 214 255 255 159 87 255 255
114 103 255 255 229 13 255 255
53 83 255 255 145 103 254 255
193 227 254 255 242 239 0 0
64 191 254 255 227 255 254 255
15 20 255 255 87 173 255 255
85 234 255 255 93 45 255 255
214 225 255 255 226 153 0 0

NeutronMicrocode u1 [140]
00000000: 6e4d 4364 912c 7b91 3a00 0000 0000 0000
00000010: 3a00 0000 0c00 0000 8c00 0000 1000 0000
00000020: 0100 0000 0000 0000 0000 0000 0200 0000
00000030: 0100 0000 0100 0000 e304 0000 0000 0000
00000040: 0305 0300 0102 0200 0243 0000 0000 0000
00000050: 0000 0000 0000 0000 0000 0800 0000 0096
00000060: 0000 0100 0000 2002 0e07 98fa dba0 0000
00000070: 0000 0000 0000 0543 0100 0000 0000 0000
00000080: 0096 0000 0096 0000 0096 0000
110 77 67 100 145 44 123 145
58 0 0 0 0 0 0 0
58 0 0 0 12 0 0 0
140 0 0 0 16 0 0 0
1 0 0 0 0 0 0 0
0 0 0 0 2 0 0 0
1 0 0 0 1 0 0 0
227 4 0 0 0 0 0 0
3 5 3 0 1 2 2 0
2 67 0 0 0 0 0 0
0 0 0 0 0 0 0 0
0 0 8 0 0 0 0 150
0 0 1 0 0 0 32 2
14 7 152 250 219 160 0 0
0 0 0 0 0 0 5 67
1 0 0 0 0 0 0 0
0 150 0 0 0 150 0 0
0 150 0 0

NeutronWeights u1 [16]
00000000: dcfa 0000 0000 dcfa 4010 0000 4010 0000
220 250 0 0 0 0 220 250
64 16 0 0 64 16 0 0

NeutronMicrocode u1 [680]
00000000: 6e4d 4364 912c 7b91 5602 0000 0000 0000
00000010: 5602 0000 0800 0000 a802 0000 b819 0000
00000020: 0100 0000 00e1 0000 0000 0000 0100 0000
00000030: 0100 0000 0700 0000 e705 0000 0000 0000
00000040: 0303 0400 0100 024b 0000 0000 0000 0000
00000050: 0000 0000 9001 0000 6000 0000 3000 0000
00000060: 2000 0100 8000 0100 054b 024b 0096 0000
00000070: 3000 0000 0000 0000 9001 0000 6000 0000
00000080: 3000 0000 2000 0100 8000 0100 054b 0305
00000090: 0404 0101 0100 0225 004b 0000 0096 0000
000000a0: 8801 0000 0800 0000 c800 0000 0100 0000
000000b0: 1400 0000 1400 0000 3000 0000 3000 0000
000000c0: 0100 0000 1400 0000 1400 0000 3000 0000
000000d0: 0100 0000 0100 0000 0100 0000 0100 0000
000000e0: 0000 0000 0000 0000 0000 0000 0000 0000
000000f0: 0100 0000 0100 0000 2000 0f3f 0000 0000
110 77 67 100 145 44 123 145
86 2 0 0 0 0 0 0
86 2 0 0 8 0 0 0
168 2 0 0 184 25 0 0
1 0 0 0 0 225 0 0
0 0 0 0 1 0 0 0
1 0 0 0 7 0 0 0
231 5 0 0 0 0 0 0
3 3 4 0 1 0 2 75
0 0 0 0 0 0 0 0
0 0 0 0 144 1 0 0
96 0 0 0 48 0 0 0
32 0 1 0 128 0 1 0
5 75 2 75 0 150 0 0
48 0 0 0 0 0 0 0
144 1 0 0 96 0 0 0
48 0 0 0 32 0 1 0
128 0 1 0 5 75 3 5
4 4 1 1 1 0 2 37
0 75 0 0 0 150 0 0
136 1 0 0 8 0 0 0
200 0 0 0 1 0 0 0
20 0 0 0 20 0 0 0
48 0 0 0 48 0 0 0
1 0 0 0 20 0 0 0
20 0 0 0 48 0 0 0
1 0 0 0 1 0 0 0
1 0 0 0 1 0 0 0
0 0 0 0 0 0 0 0
0 0 0 0 0 0 0 0
1 0 0 0 1 0 0 0
32 0 15 63 0 0 0 0

NeutronWeights u1 [6584]
00000000: 0101 0101 0101 0101 b7a5 ffff 8877 0000
00000010: a6e5 0000 4675 ffff fb31 ffff c738 0000
00000020: 1202 0000 04e6 ffff 83a2 ffff 3d4b 0000
00000030: d139 ffff d63a 0000 7ecf ffff 2952 0000
00000040: cfaa ffff cd6c ffff 7d7d ffff 79b5 ffff
00000050: 26ee ffff 0c43 ffff 9c33 0000 1ab0 ffff
00000060: 3517 0000 8e49 0000 3156 ffff 0db6 0000
00000070: 8f43 ffff da44 0000 d4a0 0000 e0eb ffff
00000080: e7d5 ffff 54f6 ffff 6fbb ffff cca0 ffff
00000090: 5874 0000 9b08 ffff 2e9e 0000 3b2c 0000
000000a0: 2caf ffff ddce ffff 37e7 ffff 4158 ffff
000000b0: 2e6e ffff c50a 0000 1c4c 0000 9369 ffff
000000c0: e12b ffff 6f24 0000 79b7 1700 3d14 1400
000000d0: 2de3 1700 5963 1600 8f4d 1600 3f33 1500
000000e0: 5716 1300 9764 1600 3f87 1700 4395 1600
000000f0: c1a5 1700 7565 1600 6711 1400 c9df 1700
1 1 1 1 1 1 1 1
183 165 255 255 136 119 0 0
166 229 0 0 70 117 255 255
251 49 255 255 199 56 0 0
18 2 0 0 4 230 255 255
131 162 255 255 61 75 0 0
209 57 255 255 214 58 0 0
126 207 255 255 41 82 0 0
207 170 255 255 205 108 255 255
125 125 255 255 121 181 255 255
38 238 255 255 12 67 255 255
156 51 0 0 26 176 255 255
53 23 0 0 142 73 0 0
49 86 255 255 13 182 0 0
143 67 255 255 218 68 0 0
212 160 0 0 224 235 255 255
231 213 255 255 84 246 255 255
111 187 255 255 204 160 255 255
88 116 0 0 155 8 255 255
46 158 0 0 59 44 0 0
44 175 255 255 221 206 255 255
55 231 255 255 65 88 255 255
46 110 255 255 197 10 0 0
28 76 0 0 147 105 255 255
225 43 255 255 111 36 0 0
121 183 23 0 61 20 20 0
45 227 23 0 89 99 22 0
143 77 22 0 63 51 21 0
87 22 19 0 151 100 22 0
63 135 23 0 67 149 22 0
193 165 23 0 117 101 22 0
103 17 20 0 201 223 23 0

NeutronMicrocode u1 [680]
00000000: 6e4d 4364 912c 7b91 5602 0000 0000 0000
00000010: 5602 0000 0800 0000 a802 0000 6854 0000
00000020: 0100 0000 8070 0000 0000 0000 0100 0000
00000030: 0100 0000 0700 0000 cf06 0000 0000 0000
00000040: 0303 0400 0100 024b 0000 0000 0000 0000
00000050: 0000 0000 6400 0000 c000 0000 6000 0000
00000060: 2000 0100 8000 0100 054b 024b 004b 0000
00000070: 6000 0000 0000 0000 6400 0000 c000 0000
00000080: 6000 0000 2000 0100 8000 0100 054b 0305
00000090: 0404 0101 0100 0225 8025 0000 004b 0000
000000a0: 0803 0000 0800 0000 8801 0000 0100 0000
000000b0: 0a00 0000 0a00 0000 6000 0000 6000 0000
000000c0: 0100 0000 0a00 0000 0a00 0000 6000 0000
000000d0: 0100 0000 0100 0000 0100 0000 0100 0000
000000e0: 0000 0000 0000 0000 0000 0000 0000 0000
000000f0: 0100 0000 0100 0000 2000 0f3f 0000 0000
110 77 67 100 145 44 123 145
86 2 0 0 0 0 0 0
86 2 0 0 8 0 0 0
168 2 0 0 104 84 0 0
1 0 0 0 128 112 0 0
0 0 0 0 1 0 0 0
1 0 0 0 7 0 0 0
207 6 0 0 0 0 0 0
3 3 4 0 1 0 2 75
0 0 0 0 0 0 0 0
0 0 0 0 100 0 0 0
192 0 0 0 96 0 0 0
32 0 1 0 128 0 1 0
5 75 2 75 0 75 0 0
96 0 0 0 0 0 0 0
100 0 0 0 192 0 0 0
96 0 0 0 32 0 1 0
128 0 1 0 5 75 3 5
4 4 1 1 1 0 2 37
128 37 0 0 0 75 0 0
8 3 0 0 8 0 0 0
136 1 0 0 1 0 0 0
10 0 0 0 10 0 0 0
96 0 0 0 96 0 0 0
1 0 0 0 10 0 0 0
10 0 0 0 96 0 0 0
1 0 0 0 1 0 0 0
1 0 0 0 1 0 0 0
0 0 0 0 0 0 0 0
0 0 0 0 0 0 0 0
1 0 0 0 1 0 0 0
32 0 15 63 0 0 0 0

NeutronWeights u1 [21608]
00000000: 0101 0101 0101 0101 3bab 0000 26c2 feff
00000010: 654c ffff 2c7f 0000 9928 0000 8189 ffff
00000020: 66c9 feff daac ffff 0d81 0000 536a feff
00000030: 95f7 fdff 73ca feff baaf ffff e398 feff
00000040: 0896 0000 c8fa ffff b4f1 feff 5dbf ffff
00000050: a887 ffff b5ad feff 3501 feff a63c ffff
00000060: 4a3e ffff 2251 ffff 7d7e fdff c405 0000
00000070: f661 0000 e546 ffff a7b0 ffff 4667 fdff
00000080: c3da fdff ecab feff 9703 ffff 58e6 feff
00000090: d374 feff 23d4 ffff de53 ffff 67d3 ffff
000000a0: 2525 0000 e347 feff 89a4 feff e6bd ffff
000000b0: dc90 0200 4d20 feff fe34 feff 0e43 feff
000000c0: 0ee2 ffff 0fb3 feff 5948 ffff c408 0000
000000d0: 55aa feff 2932 0000 5914 ffff 5f65 feff
000000e0: 5d81 feff 88a9 0000 6501 ffff 32cf feff
000000f0: 2c4d fdff 1912 0000 d1ee feff f324 0000
1 1 1 1 1 1 1 1
59 171 0 0 38 194 254 255
101 76 255 255 44 127 0 0
153 40 0 0 129 137 255 255
102 201 254 255 218 172 255 255
13 129 0 0 83 106 254 255
149 247 253 255 115 202 254 255
186 175 255 255 227 152 254 255
8 150 0 0 200 250 255 255
180 241 254 255 93 191 255 255
168 135 255 255 181 173 254 255
53 1 254 255 166 60 255 255
74 62 255 255 34 81 255 255
125 126 253 255 196 5 0 0
246 97 0 0 229 70 255 255
167 176 255 255 70 103 253 255
195 218 253 255 236 171 254 255
151 3 255 255 88 230 254 255
211 116 254 255 35 212 255 255
222 83 255 255 103 211 255 255
37 37 0 0 227 71 254 255
137 164 254 255 230 189 255 255
220 144 2 0 77 32 254 255
254 52 254 255 14 67 254 255
14 226 255 255 15 179 254 255
89 72 255 255 196 8 0 0
85 170 254 255 41 50 0 0
89 20 255 255 95 101 254 255
93 129 254 255 136 169 0 0
101 1 255 255 50 207 254 255
44 77 253 255 25 18 0 0
209 238 254 255 243 36 0 0

NeutronMicrocode u1 [488]
00000000: 6e4d 4364 912c 7b91 8601 0000 0000 0000
00000010: 8601 0000 1800 0000 e801 0000 e84b 0000
00000020: 0100 0000 0058 0200 0000 0000 0300 0000
00000030: 0300 0000 0500 0000 6c09 0000 0000 0000
00000040: 0305 0400 0303 0300 0225 0000 0000 0000
00000050: 0000 0003 0000 0000 0000 8001 0000 0100
00000060: 0000 0a00 0000 0a00 0000 6000 0000 6000
00000070: 0000 0100 0000 0a00 0000 0a00 0000 c000
00000080: 0000 0100 0000 0100 0000 0100 0000 0100
00000090: 0000 0000 0000 0000 0000 0000 0000 0000
000000a0: 0000 0100 0000 0100 0000 2000 0f07 0000
000000b0: 0000 0000 0000 0100 0000 0100 0000 9cff
000000c0: ffff 000a 0000 0000 0000 0000 0000 0000
000000d0: 0000 0000 0000 0525 0303 0804 0300 0247
000000e0: 0000 0000 0000 0000 004b 0000 0100 0000
000000f0: 0a00 0000 0a00 0000 6000 0000 0a00 0000
110 77 67 100 145 44 123 145
134 1 0 0 0 0 0 0
134 1 0 0 24 0 0 0
232 1 0 0 232 75 0 0
1 0 0 0 0 88 2 0
0 0 0 0 3 0 0 0
3 0 0 0 5 0 0 0
108 9 0 0 0 0 0 0
3 5 4 0 3 3 3 0
2 37 0 0 0 0 0 0
0 0 0 3 0 0 0 0
0 0 128 1 0 0 1 0
0 0 10 0 0 0 10 0
0 0 96 0 0 0 96 0
0 0 1 0 0 0 10 0
0 0 10 0 0 0 192 0
0 0 1 0 0 0 1 0
0 0 1 0 0 0 1 0
0 0 0 0 0 0 0 0
0 0 0 0 0 0 0 0
0 0 1 0 0 0 1 0
0 0 32 0 15 7 0 0
0 0 0 0 0 0 1 0
0 0 1 0 0 0 156 255
255 255 0 10 0 0 0 0
0 0 0 0 0 0 0 0
0 0 0 0 0 0 5 37
3 3 8 4 3 0 2 71
0 0 0 0 0 0 0 0
0 75 0 0 1 0 0 0
10 0 0 0 10 0 0 0
96 0 0 0 10 0 0 0

NeutronWeights u1 [19432]
00000000: 1897 0000 6de0 0000 b778 0100 8e62 feff
00000010: 447c 0000 8cbd 0000 5080 ffff 774c 0100
00000020: 39d6 0100 0f52 0000 b717 ffff ec39 ffff
00000030: ee28 0200 d226 ffff a28a feff f5e1 feff
00000040: 6de5 feff 920e 0100 44a7 ffff 0618 0000
00000050: 589a 0000 d7b2 ffff 971c feff 928f ffff
00000060: 5c7e 0000 041e 0000 a19e 0100 8c26 0100
00000070: 0d55 ffff 155d 0000 6408 ffff df8f ffff
00000080: bc39 0100 5905 0000 fddf 0000 dca4 ffff
00000090: 3d05 0100 fbec ffff f9b7 ffff 5d4d ffff
000000a0: 0c70 0000 4b33 ffff a831 0000 bb04 ffff
000000b0: fdab ffff 369b 0000 55d7 feff 38a1 0000
000000c0: 0bf5 feff dfac 0000 5b96 0000 48d6 feff
000000d0: 4665 ffff 3c58 ffff 03da 0000 3072 fdff
000000e0: c6cf feff 6a86 ffff 49d2 0000 2872 ffff
000000f0: d527 ffff 8b89 0000 f32c 0000 35e0 ffff
24 151 0 0 109 224 0 0
183 120 1 0 142 98 254 255
68 124 0 0 140 189 0 0
80 128 255 255 119 76 1 0
57 214 1 0 15 82 0 0
183 23 255 255 236 57 255 255
238 40 2 0 210 38 255 255
162 138 254 255 245 225 254 255
109 229 254 255 146 14 1 0
68 167 255 255 6 24 0 0
88 154 0 0 215 178 255 255
151 28 254 255 146 143 255 255
92 126 0 0 4 30 0 0
161 158 1 0 140 38 1 0
13 85 255 255 21 93 0 0
100 8 255 255 223 143 255 255
188 57 1 0 89 5 0 0
253 223 0 0 220 164 255 255
61 5 1 0 251 236 255 255
249 183 255 255 93 77 255 255
12 112 0 0 75 51 255 255
168 49 0 0 187 4 255 255
253 171 255 255 54 155 0 0
85 215 254 255 56 161 0 0
11 245 254 255 223 172 0 0
91 150 0 0 72 214 254 255
70 101 255 255 60 88 255 255
3 218 0 0 48 114 253 255
198 207 254 255 106 134 255 255
73 210 0 0 40 114 255 255
213 39 255 255 139 137 0 0
243 44 0 0 53 224 255 255

NeutronMicrocode u1 [956]
00000000: 6e4d 4364 912c 7b91 7003 0000 0000 0000
00000010: 7003 0000 0c00 0000 bc03 0000 683c 0000
00000020: 0100 0000 00c2 0100 0000 0000 0100 0000
00000030: 0200 0000 0800 0000 270a 0000 0000 0000
00000040: 0305 0500 0101 0100 0219 002c 0100 0000
00000050: 0000 4002 0000 0000 0000 8001 0000 0100
00000060: 0000 1400 0000 1400 0000 3000 0000 3000
00000070: 0000 0100 0000 2800 0000 2800 0000 3000
00000080: 0000 0300 0000 0300 0000 0200 0000 0200
00000090: 0000 0100 0000 0100 0000 0100 0000 0100
000000a0: 0000 0100 0000 0100 0000 2000 0f07 0000
000000b0: 0000 0000 0000 0100 0000 0100 0000 9eff
000000c0: ffff 000b 0000 0000 0000 0000 0000 0000
000000d0: 0000 0000 0000 0519 0225 0000 0000 0000
000000e0: 0000 7005 0000 f003 0000 b004 0000 0100
000000f0: 0000 2800 0000 2800 0000 3000 0000 3000
110 77 67 100 145 44 123 145
112 3 0 0 0 0 0 0
112 3 0 0 12 0 0 0
188 3 0 0 104 60 0 0
1 0 0 0 0 194 1 0
0 0 0 0 1 0 0 0
2 0 0 0 8 0 0 0
39 10 0 0 0 0 0 0
3 5 5 0 1 1 1 0
2 25 0 44 1 0 0 0
0 0 64 2 0 0 0 0
0 0 128 1 0 0 1 0
0 0 20 0 0 0 20 0
0 0 48 0 0 0 48 0
0 0 1 0 0 0 40 0
0 0 40 0 0 0 48 0
0 0 3 0 0 0 3 0
0 0 2 0 0 0 2 0
0 0 1 0 0 0 1 0
0 0 1 0 0 0 1 0
0 0 1 0 0 0 1 0
0 0 32 0 15 7 0 0
0 0 0 0 0 0 1 0
0 0 1 0 0 0 158 255
255 255 0 11 0 0 0 0
0 0 0 0 0 0 0 0
0 0 0 0 0 0 5 25
2 37 0 0 0 0 0 0
0 0 112 5 0 0 240 3
0 0 176 4 0 0 1 0
0 0 40 0 0 0 40 0
0 0 48 0 0 0 48 0

NeutronWeights u1 [15464]
00000000: d477 ffff b3a3 0000 cfa9 0000 b48e 0000
00000010: b0a1 0000 2950 ffff 6da4 0000 38d4 ffff
00000020: 1a4e ffff 93ce 0000 29c1 0000 c4c2 0000
00000030: 18ce 0000 d126 ffff 83d3 0000 7e3d 0000
00000040: aa8f ffff 595d ffff ed82 ffff 716d 0000
00000050: 439c 0000 07aa 0000 b38a 0000 dc56 ffff
00000060: 76db ffff e12d ffff f34c ffff b398 0000
00000070: 6fc9 0000 0dd6 0000 a9b3 0000 103c ffff
00000080: 88d1 ffff 9093 0000 7d7e ffff 0cb3 0000
00000090: c889 ffff 3a73 ffff 4b8c 0000 0e78 ffff
000000a0: 0cf7 ffff dcc6 0000 ef50 ffff ecdd 0000
000000b0: ac5f ffff a23d ffff 77b9 0000 dc4f ffff
000000c0: 3961 ffff ff9b 0000 2965 ffff 2fa0 0000
000000d0: 3961 ffff ed9d 0000 7aa6 0000 1e9c 0000
000000e0: 4d40 ffff 17b9 0000 d736 ffff b9c0 0000
000000f0: 0739 ffff 0dd5 0000 06b5 0000 b6d1 0000
212 119 255 255 179 163 0 0
207 169 0 0 180 142 0 0
176 161 0 0 41 80 255 255
109 164 0 0 56 212 255 255
26 78 255 255 147 206 0 0
41 193 0 0 196 194 0 0
24 206 0 0 209 38 255 255
131 211 0 0 126 61 0 0
170 143 255 255 89 93 255 255
237 130 255 255 113 109 0 0
67 156 0 0 7 170 0 0
179 138 0 0 220 86 255 255
118 219 255 255 225 45 255 255
243 76 255 255 179 152 0 0
111 201 0 0 13 214 0 0
169 179 0 0 16 60 255 255
136 209 255 255 144 147 0 0
125 126 255 255 12 179 0 0
200 137 255 255 58 115 255 255
75 140 0 0 14 120 255 255
12 247 255 255 220 198 0 0
239 80 255 255 236 221 0 0
172 95 255 255 162 61 255 255
119 185 0 0 220 79 255 255
57 97 255 255 255 155 0 0
41 101 255 255 47 160 0 0
57 97 255 255 237 157 0 0
122 166 0 0 30 156 0 0
77 64 255 255 23 185 0 0
215 54 255 255 185 192 0 0
7 57 255 255 13 213 0 0
6 181 0 0 182 209 0 0

NeutronMicrocode u1 [940]
00000000: 6e4d 4364 912c 7b91 5603 0000 0000 0000
00000010: 5603 0000 0c00 0000 ac03 0000 c8ab 0000
00000020: 0100 0000 00e1 0000 0000 0000 0100 0000
00000030: 0200 0000 0800 0000 c50a 0000 0000 0000
00000040: 0305 0500 0101 0100 0219 0096 0000 0000
00000050: 0000 8004 0000 0000 0000 0003 0000 0100
00000060: 0000 0a00 0000 0a00 0000 6000 0000 6000
00000070: 0000 0100 0000 1400 0000 1400 0000 6000
00000080: 0000 0300 0000 0300 0000 0200 0000 0200
00000090: 0000 0100 0000 0100 0000 0100 0000 0100
000000a0: 0000 0100 0000 0100 0000 2000 0f07 0000
000000b0: 0000 0000 0000 0100 0000 0100 0000 92ff
000000c0: ffff 0001 0000 0000 0000 0000 0000 0000
000000d0: 0000 0000 0000 0519 0225 0000 0000 0000
000000e0: 0000 e00a 0000 e007 0000 6009 0000 0100
000000f0: 0000 1400 0000 1400 0000 6000 0000 6000
110 77 67 100 145 44 123 145
86 3 0 0 0 0 0 0
86 3 0 0 12 0 0 0
172 3 0 0 200 171 0 0
1 0 0 0 0 225 0 0
0 0 0 0 1 0 0 0
2 0 0 0 8 0 0 0
197 10 0 0 0 0 0 0
3 5 5 0 1 1 1 0
2 25 0 150 0 0 0 0
0 0 128 4 0 0 0 0
0 0 0 3 0 0 1 0
0 0 10 0 0 0 10 0
0 0 96 0 0 0 96 0
0 0 1 0 0 0 20 0
0 0 20 0 0 0 96 0
0 0 3 0 0 0 3 0
0 0 2 0 0 0 2 0
0 0 1 0 0 0 1 0
0 0 1 0 0 0 1 0
0 0 1 0 0 0 1 0
0 0 32 0 15 7 0 0
0 0 0 0 0 0 1 0
0 0 1 0 0 0 146 255
255 255 0 1 0 0 0 0
0 0 0 0 0 0 0 0
0 0 0 0 0 0 5 25
2 37 0 0 0 0 0 0
0 0 224 10 0 0 224 7
0 0 96 9 0 0 1 0
0 0 20 0 0 0 20 0
0 0 96 0 0 0 96 0

NeutronWeights u1 [43976]
00000000: 1031 ffff 1fb6 0000 e04c ffff d3db 0000
00000010: 29c2 0000 4c22 ffff c6ea 0000 2d46 ffff
00000020: 2ef0 feff efdb 0000 6e0f ffff 9f32 0100
00000030: 0900 0100 9cf5 feff 1c35 0100 3b24 ffff
00000040: 428e 0000 3b0c ffff b465 ffff e0ff feff
00000050: 4e10 ffff f82c ffff 97ea 0000 80c4 0000
00000060: b4cb 0000 4bb6 feff 1820 ffff caa7 feff
00000070: e4de feff f8f5 feff 0928 0100 f404 0100
00000080: dcb2 0000 64da 0000 5723 ffff 743a ffff
00000090: 3e59 ffff 01b5 0000 8ea7 0000 8b7a 0000
000000a0: c6ff 0000 b821 0100 2be1 feff 7200 ffff
000000b0: aa1f ffff f3d6 0000 fadb 0000 bd8e 0000
000000c0: 83d5 0000 debd 0000 a5d7 0000 7e2a ffff
000000d0: 1dd2 0000 33e1 0000 4812 ffff 74ac 0000
000000e0: ef09 0100 c0fe 0000 1715 0100 c8f4 feff
000000f0: 35f6 0000 6126 0100 a8c6 feff 84c4 0000
16 49 255 255 31 182 0 0
224 76 255 255 211 219 0 0
41 194 0 0 76 34 255 255
198 234 0 0 45 70 255 255
46 240 254 255 239 219 0 0
110 15 255 255 159 50 1 0
9 0 1 0 156 245 254 255
28 53 1 0 59 36 255 255
66 142 0 0 59 12 255 255
180 101 255 255 224 255 254 255
78 16 255 255 248 44 255 255
151 234 0 0 128 196 0 0
180 203 0 0 75 182 254 255
24 32 255 255 202 167 254 255
228 222 254 255 248 245 254 255
9 40 1 0 244 4 1 0
220 178 0 0 100 218 0 0
87 35 255 255 116 58 255 255
62 89 255 255 1 181 0 0
142 167 0 0 139 122 0 0
198 255 0 0 184 33 1 0
43 225 254 255 114 0 255 255
170 31 255 255 243 214 0 0
250 219 0 0 189 142 0 0
131 213 0 0 222 189 0 0
165 215 0 0 126 42 255 255
29 210 0 0 51 225 0 0
72 18 255 255 116 172 0 0
239 9 1 0 192 254 0 0
23 21 1 0 200 244 254 255
53 246 0 0 97 38 1 0
168 198 254 255 132 196 0 0

NeutronMicrocode u1 [680]
00000000: 6e4d 4364 912c 7b91 5602 0000 0000 0000
00000010: 5602 0000 0800 0000 a802 0000 6008 0000
00000020: 0100 0000 00c2 0100 0000 0000 0100 0000
00000030: 0100 0000 0700 0000 160e 0000 0000 0000
00000040: 0303 0400 0100 024b 0000 0000 0000 0000
00000050: 0000 0000 4006 0000 3000 0000 1800 0000
00000060: 2000 0100 8000 0100 054b 024b 002c 0100
00000070: 1800 0000 0000 0000 4006 0000 3000 0000
00000080: 1800 0000 2000 0100 8000 0100 054b 0305
00000090: 0404 0101 0100 0225 0096 0000 002c 0100
000000a0: c800 0000 0800 0000 6800 0000 0100 0000
000000b0: 2800 0000 2800 0000 1800 0000 1800 0000
000000c0: 0100 0000 2800 0000 2800 0000 1800 0000
000000d0: 0100 0000 0100 0000 0100 0000 0100 0000
000000e0: 0000 0000 0000 0000 0000 0000 0000 0000
000000f0: 0100 0000 0100 0000 2000 0f3f 0000 0000
110 77 67 100 145 44 123 145
86 2 0 0 0 0 0 0
86 2 0 0 8 0 0 0
168 2 0 0 96 8 0 0
1 0 0 0 0 194 1 0
0 0 0 0 1 0 0 0
1 0 0 0 7 0 0 0
22 14 0 0 0 0 0 0
3 3 4 0 1 0 2 75
0 0 0 0 0 0 0 0
0 0 0 0 64 6 0 0
48 0 0 0 24 0 0 0
32 0 1 0 128 0 1 0
5 75 2 75 0 44 1 0
24 0 0 0 0 0 0 0
64 6 0 0 48 0 0 0
24 0 0 0 32 0 1 0
128 0 1 0 5 75 3 5
4 4 1 1 1 0 2 37
0 150 0 0 0 44 1 0
200 0 0 0 8 0 0 0
104 0 0 0 1 0 0 0
40 0 0 0 40 0 0 0
24 0 0 0 24 0 0 0
1 0 0 0 40 0 0 0
40 0 0 0 24 0 0 0
1 0 0 0 1 0 0 0
1 0 0 0 1 0 0 0
0 0 0 0 0 0 0 0
0 0 0 0 0 0 0 0
1 0 0 0 1 0 0 0
32 0 15 63 0 0 0 0

NeutronWeights u1 [2144]
00000000: 0101 0101 0101 0101 f62d 0000 c7f4 ffff
00000010: 0074 0000 dcbc ffff 363c 0000 28a2 ffff
00000020: 1c14 0000 7774 ffff 6cad ffff 64f9 ffff
00000030: a6fe ffff ccde ffff b7ff ffff 0f64 0000
00000040: d012 0000 4f1b 0000 8285 0000 fb6f 0000
00000050: 46e6 ffff fc7f 0000 00e8 ffff a61d 0100
00000060: d4fd ffff 598f ffff 0b82 1800 bf46 1600
00000070: e736 1500 5591 1700 0339 1700 2352 1600
00000080: d725 1600 3b9d 1700 f1c8 1700 cbd0 1700
00000090: 87c3 1800 bf01 1100 2dcb 1800 af09 1400
000000a0: a723 1500 c736 1600 c937 1600 5bf2 1a00
000000b0: 7521 1500 2de5 1900 4f8d 1700 81d4 1a00
000000c0: d7b1 1700 9dd7 1900 431c 08e9 cd0f f107
000000d0: 0302 fe00 560c f60a 3201 04fa 7604 00f3
000000e0: e700 0301 81fc 00fc 0c4f 6111 e90c 8111
000000f0: 0cf7 09c2 f204 e8f1 e8c8 19d8 10e9 e018
1 1 1 1 1 1 1 1
246 45 0 0 199 244 255 255
0 116 0 0 220 188 255 255
54 60 0 0 40 162 255 255
28 20 0 0 119 116 255 255
108 173 255 255 100 249 255 255
166 254 255 255 204 222 255 255
183 255 255 255 15 100 0 0
208 18 0 0 79 27 0 0
130 133 0 0 251 111 0 0
70 230 255 255 252 127 0 0
0 232 255 255 166 29 1 0
212 253 255 255 89 143 255 255
11 130 24 0 191 70 22 0
231 54 21 0 85 145 23 0
3 57 23 0 35 82 22 0
215 37 22 0 59 157 23 0
241 200 23 0 203 208 23 0
135 195 24 0 191 1 17 0
45 203 24 0 175 9 20 0
167 35 21 0 199 54 22 0
201 55 22 0 91 242 26 0
117 33 21 0 45 229 25 0
79 141 23 0 129 212 26 0
215 177 23 0 157 215 25 0
67 28 8 233 205 15 241 7
3 2 254 0 86 12 246 10
50 1 4 250 118 4 0 243
231 0 3 1 129 252 0 252
12 79 97 17 233 12 129 17
12 247 9 194 242 4 232 241
232 200 25 216 16 233 224 24

NeutronMicrocode u1 [680]
00000000: 6e4d 4364 912c 7b91 5602 0000 0000 0000
00000010: 5602 0000 0800 0000 a802 0000 b819 0000
00000020: 0100 0000 00e1 0000 0000 0000 0100 0000
00000030: 0100 0000 0700 0000 1a0f 0000 0000 0000
00000040: 0303 0400 0100 024b 0000 0000 0000 0000
00000050: 0000 0000 9001 0000 6000 0000 3000 0000
00000060: 2000 0100 8000 0100 054b 024b 0096 0000
00000070: 3000 0000 0000 0000 9001 0000 6000 0000
00000080: 3000 0000 2000 0100 8000 0100 054b 0305
00000090: 0404 0101 0100 0225 004b 0000 0096 0000
000000a0: 8801 0000 0800 0000 c800 0000 0100 0000
000000b0: 1400 0000 1400 0000 3000 0000 3000 0000
000000c0: 0100 0000 1400 0000 1400 0000 3000 0000
000000d0: 0100 0000 0100 0000 0100 0000 0100 0000
000000e0: 0000 0000 0000 0000 0000 0000 0000 0000
000000f0: 0100 0000 0100 0000 2000 0f3f 0000 0000
110 77 67 100 145 44 123 145
86 2 0 0 0 0 0 0
86 2 0 0 8 0 0 0
168 2 0 0 184 25 0 0
1 0 0 0 0 225 0 0
0 0 0 0 1 0 0 0
1 0 0 0 7 0 0 0
26 15 0 0 0 0 0 0
3 3 4 0 1 0 2 75
0 0 0 0 0 0 0 0
0 0 0 0 144 1 0 0
96 0 0 0 48 0 0 0
32 0 1 0 128 0 1 0
5 75 2 75 0 150 0 0
48 0 0 0 0 0 0 0
144 1 0 0 96 0 0 0
48 0 0 0 32 0 1 0
128 0 1 0 5 75 3 5
4 4 1 1 1 0 2 37
0 75 0 0 0 150 0 0
136 1 0 0 8 0 0 0
200 0 0 0 1 0 0 0
20 0 0 0 20 0 0 0
48 0 0 0 48 0 0 0
1 0 0 0 20 0 0 0
20 0 0 0 48 0 0 0
1 0 0 0 1 0 0 0
1 0 0 0 1 0 0 0
0 0 0 0 0 0 0 0
0 0 0 0 0 0 0 0
1 0 0 0 1 0 0 0
32 0 15 63 0 0 0 0

NeutronWeights u1 [6584]
00000000: 0101 0101 0101 0101 78c2 ffff bd60 ffff
00000010: 44bf feff 4aea 0000 900b ffff ad3a 0100
00000020: 32db ffff a3f3 ffff 646a 0000 2245 ffff
00000030: ede2 ffff 07d3 ffff c28b ffff 5dd5 ffff
00000040: 5f6e 0000 047c 0000 7f96 0000 3a9b 0000
00000050: ec97 ffff ffe2 ffff b5f3 ffff 8257 0000
00000060: 72af ffff ba13 0000 f49f ffff b95a 0000
00000070: 9457 0000 5f8a ffff 3174 ffff 3052 0000
00000080: ac2f 0000 1865 0100 e6c5 0000 510f 0000
00000090: c134 ffff c9ac ffff 5322 0000 e1f0 ffff
000000a0: e0fa ffff 4555 ffff 9aef 0100 df3b 0000
000000b0: 2c22 ffff 0ea7 ffff ccd8 ffff e575 0000
000000c0: d31e 0000 5d7e 0000 eff3 1800 d7f4 1700
000000d0: d777 1600 abba 1800 ad20 1600 fd54 1700
000000e0: adc9 1700 55bd 1700 5f35 1500 b346 1600
000000f0: 2768 1600 5735 1500 6dba 1700 0b32 1500
1 1 1 1 1 1 1 1
120 194 255 255 189 96 255 255
68 191 254 255 74 234 0 0
144 11 255 255 173 58 1 0
50 219 255 255 163 243 255 255
100 106 0 0 34 69 255 255
237 226 255 255 7 211 255 255
194 139 255 255 93 213 255 255
95 110 0 0 4 124 0 0
127 150 0 0 58 155 0 0
236 151 255 255 255 226 255 255
181 243 255 255 130 87 0 0
114 175 255 255 186 19 0 0
244 159 255 255 185 90 0 0
148 87 0 0 95 138 255 255
49 116 255 255 48 82 0 0
172 47 0 0 24 101 1 0
230 197 0 0 81 15 0 0
193 52 255 255 201 172 255 255
83 34 0 0 225 240 255 255
224 250 255 255 69 85 255 255
154 239 1 0 223 59 0 0
44 34 255 255 14 167 255 255
204 216 255 255 229 117 0 0
211 30 0 0 93 126 0 0
239 243 24 0 215 244 23 0
215 119 22 0 171 186 24 0
173 32 22 0 253 84 23 0
173 201 23 0 85 189 23 0
95 53 21 0 179 70 22 0
39 104 22 0 87 53 21 0
109 186 23 0 11 50 21 0

NeutronMicrocode u1 [680]
00000000: 6e4d 4364 912c 7b91 5602 0000 0000 0000
00000010: 5602 0000 0800 0000 a802 0000 b819 0000
00000020: 0100 0000 00e1 0000 0000 0000 0100 0000
00000030: 0100 0000 0700 0000 1e10 0000 0000 0000
00000040: 0303 0400 0100 024b 0000 0000 0000 0000
00000050: 0000 0000 9001 0000 6000 0000 3000 0000
00000060: 2000 0100 8000 0100 054b 024b 0096 0000
00000070: 3000 0000 0000 0000 9001 0000 6000 0000
00000080: 3000 0000 2000 0100 8000 0100 054b 0305
00000090: 0404 0101 0100 0225 004b 0000 0096 0000
000000a0: 8801 0000 0800 0000 c800 0000 0100 0000
000000b0: 1400 0000 1400 0000 3000 0000 3000 0000
000000c0: 0100 0000 1400 0000 1400 0000 3000 0000
000000d0: 0100 0000 0100 0000 0100 0000 0100 0000
000000e0: 0000 0000 0000 0000 0000 0000 0000 0000
000000f0: 0100 0000 0100 0000 2000 0f3f 0000 0000
110 77 67 100 145 44 123 145
86 2 0 0 0 0 0 0
86 2 0 0 8 0 0 0
168 2 0 0 184 25 0 0
1 0 0 0 0 225 0 0
0 0 0 0 1 0 0 0
1 0 0 0 7 0 0 0
30 16 0 0 0 0 0 0
3 3 4 0 1 0 2 75
0 0 0 0 0 0 0 0
0 0 0 0 144 1 0 0
96 0 0 0 48 0 0 0
32 0 1 0 128 0 1 0
5 75 2 75 0 150 0 0
48 0 0 0 0 0 0 0
144 1 0 0 96 0 0 0
48 0 0 0 32 0 1 0
128 0 1 0 5 75 3 5
4 4 1 1 1 0 2 37
0 75 0 0 0 150 0 0
136 1 0 0 8 0 0 0
200 0 0 0 1 0 0 0
20 0 0 0 20 0 0 0
48 0 0 0 48 0 0 0
1 0 0 0 20 0 0 0
20 0 0 0 48 0 0 0
1 0 0 0 1 0 0 0
1 0 0 0 1 0 0 0
0 0 0 0 0 0 0 0
0 0 0 0 0 0 0 0
1 0 0 0 1 0 0 0
32 0 15 63 0 0 0 0

NeutronWeights u1 [6584]
00000000: 0101 0101 0101 0101 fe29 0000 4142 ffff
00000010: c3bb ffff 227a ffff ce82 feff 1f34 0000
00000020: a5e4 ffff a42f 0000 f6a7 ffff 9b20 0000
00000030: d23c 0000 d7aa 0000 20ba feff 95ab 0000
00000040: 27b8 ffff 0bfa feff 7f46 feff 7929 0100
00000050: 61dc 0000 8de4 feff 6905 0100 7f4a 0000
00000060: 9120 ffff 6b87 0100 bd04 ffff 1a40 ffff
00000070: e6d9 ffff db04 0000 5c21 ffff d54d 0000
00000080: f52e 0100 5c0d 0000 bcdb ffff 45ab 0000
00000090: 27a9 0000 b287 ffff 5202 0100 5c90 0000
000000a0: c27d 0000 e9b6 feff edac feff e4c3 ffff
000000b0: 6fea feff de7e ffff bd95 ffff 2216 0000
000000c0: e087 ffff 3f88 ffff 3785 1800 ed91 1700
000000d0: e147 1600 cb5b 1600 a722 1500 1331 1600
000000e0: 2525 1600 aba9 1900 cf1c 1400 bf61 1600
000000f0: 3d60 1600 e53c 1600 955c 1600 0dfb 1800
1 1 1 1 1 1 1 1
254 41 0 0 65 66 255 255
195 187 255 255 34 122 255 255
206 130 254 255 31 52 0 0
165 228 255 255 164 47 0 0
246 167 255 255 155 32 0 0
210 60 0 0 215 170 0 0
32 186 254 255 149 171 0 0
39 184 255 255 11 250 254 255
127 70 254 255 121 41 1 0
97 220 0 0 141 228 254 255
105 5 1 0 127 74 0 0
145 32 255 255 107 135 1 0
189 4 255 255 26 64 255 255
230 217 255 255 219 4 0 0
92 33 255 255 213 77 0 0
245 46 1 0 92 13 0 0
188 219 255 255 69 171 0 0
39 169 0 0 178 135 255 255
82 2 1 0 92 144 0 0
194 125 0 0 233 182 254 255
237 172 254 255 228 195 255 255
111 234 254 255 222 126 255 255
189 149 255 255 34 22 0 0
224 135 255 255 63 136 255 255
55 133 24 0 237 145 23 0
225 71 22 0 203 91 22 0
167 34 21 0 19 49 22 0
37 37 22 0 171 169 25 0
207 28 20 0 191 97 22 0
61 96 22 0 229 60 22 0
149 92 22 0 13 251 24 0

NeutronMicrocode u1 [680]
00000000: 6e4d 4364 912c 7b91 5602 0000 0000 0000
00000010: 5602 0000 0800 0000 a802 0000 6008 0000
00000020: 0100 0000 00c2 0100 0000 0000 0100 0000
00000030: 0100 0000 0700 0000 6f13 0000 0000 0000
00000040: 0303 0400 0100 024b 0000 0000 0000 0000
00000050: 0000 0000 4006 0000 3000 0000 1800 0000
00000060: 2000 0100 8000 0100 054b 024b 002c 0100
00000070: 1800 0000 0000 0000 4006 0000 3000 0000
00000080: 1800 0000 2000 0100 8000 0100 054b 0305
00000090: 0404 0101 0100 0225 0096 0000 002c 0100
000000a0: c800 0000 0800 0000 6800 0000 0100 0000
000000b0: 2800 0000 2800 0000 1800 0000 1800 0000
000000c0: 0100 0000 2800 0000 2800 0000 1800 0000
000000d0: 0100 0000 0100 0000 0100 0000 0100 0000
000000e0: 0000 0000 0000 0000 0000 0000 0000 0000
000000f0: 0100 0000 0100 0000 2000 0f3f 0000 0000
110 77 67 100 145 44 123 145
86 2 0 0 0 0 0 0
86 2 0 0 8 0 0 0
168 2 0 0 96 8 0 0
1 0 0 0 0 194 1 0
0 0 0 0 1 0 0 0
1 0 0 0 7 0 0 0
111 19 0 0 0 0 0 0
3 3 4 0 1 0 2 75
0 0 0 0 0 0 0 0
0 0 0 0 64 6 0 0
48 0 0 0 24 0 0 0
32 0 1 0 128 0 1 0
5 75 2 75 0 44 1 0
24 0 0 0 0 0 0 0
64 6 0 0 48 0 0 0
24 0 0 0 32 0 1 0
128 0 1 0 5 75 3 5
4 4 1 1 1 0 2 37
0 150 0 0 0 44 1 0
200 0 0 0 8 0 0 0
104 0 0 0 1 0 0 0
40 0 0 0 40 0 0 0
24 0 0 0 24 0 0 0
1 0 0 0 40 0 0 0
40 0 0 0 24 0 0 0
1 0 0 0 1 0 0 0
1 0 0 0 1 0 0 0
0 0 0 0 0 0 0 0
0 0 0 0 0 0 0 0
1 0 0 0 1 0 0 0
32 0 15 63 0 0 0 0

NeutronWeights u1 [2144]
00000000: 0101 0101 0101 0101 7712 0000 2633 0000
00000010: fbd2 ffff ec68 0000 a871 ffff 5fe3 ffff
00000020: e5e1 ffff 8faf ffff 0012 0000 ee0c 0000
00000030: d7f1 ffff a7bd ffff f4ef ffff 7d17 0000
00000040: 649a ffff c731 0000 f9f1 ffff 8bd1 ffff
00000050: e991 ffff 1a69 0000 1cd3 ffff 50a6 0000
00000060: c77f 0000 0c7e ffff 4f49 1500 0d47 1700
00000070: b7d1 1700 7f26 1500 4358 1600 c9a0 1600
00000080: c1c5 1800 1127 1400 dd62 1600 456e 1600
00000090: 4198 1600 0144 1500 6573 1600 8761 1600
000000a0: 3909 1200 65d8 1800 fd2b 1600 15a9 1800
000000b0: 0b46 1500 119e 1800 afc7 1700 f753 1700
000000c0: f15f 1700 8b1e 1400 f5f8 ad20 ec00 1b05
000000d0: f5f3 4bd0 121b 0c04 f30d f608 1dfb 0901
000000e0: 41f1 d934 f012 0f33 e9bf cfb6 fffb c1f0
000000f0: 16e4 01be f400 fc81 f2d9 db3e eed1 12f4
1 1 1 1 1 1 1 1
119 18 0 0 38 51 0 0
251 210 255 255 236 104 0 0
168 113 255 255 95 227 255 255
229 225 255 255 143 175 255 255
0 18 0 0 238 12 0 0
215 241 255 255 167 189 255 255
244 239 255 255 125 23 0 0
100 154 255 255 199 49 0 0
249 241 255 255 139 209 255 255
233 145 255 255 26 105 0 0
28 211 255 255 80 166 0 0
199 127 0 0 12 126 255 255
79 73 21 0 13 71 23 0
183 209 23 0 127 38 21 0
67 88 22 0 201 160 22 0
193 197 24 0 17 39 20 0
221 98 22 0 69 110 22 0
65 152 22 0 1 68 21 0
101 115 22 0 135 97 22 0
57 9 18 0 101 216 24 0
253 43 22 0 21 169 24 0
11 70 21 0 17 158 24 0
175 199 23 0 247 83 23 0
241 95 23 0 139 30 20 0
245 248 173 32 236 0 27 5
245 243 75 208 18 27 12 4
243 13 246 8 29 251 9 1
65 241 217 52 240 18 15 51
233 191 207 182 255 251 193 240
22 228 1 190 244 0 252 129
242 217 219 62 238 209 18 244

NeutronMicrocode u1 [680]
00000000: 6e4d 4364 912c 7b91 5602 0000 0000 0000
00000010: 5602 0000 0800 0000 a802 0000 b819 0000
00000020: 0100 0000 00e1 0000 0000 0000 0100 0000
00000030: 0100 0000 0700 0000 7314 0000 0000 0000
00000040: 0303 0400 0100 024b 0000 0000 0000 0000
00000050: 0000 0000 9001 0000 6000 0000 3000 0000
00000060: 2000 0100 8000 0100 054b 024b 0096 0000
00000070: 3000 0000 0000 0000 9001 0000 6000 0000
00000080: 3000 0000 2000 0100 8000 0100 054b 0305
00000090: 0404 0101 0100 0225 004b 0000 0096 0000
000000a0: 8801 0000 0800 0000 c800 0000 0100 0000
000000b0: 1400 0000 1400 0000 3000 0000 3000 0000
000000c0: 0100 0000 1400 0000 1400 0000 3000 0000
000000d0: 0100 0000 0100 0000 0100 0000 0100 0000
000000e0: 0000 0000 0000 0000 0000 0000 0000 0000
000000f0: 0100 0000 0100 0000 2000 0f3f 0000 0000
110 77 67 100 145 44 123 145
86 2 0 0 0 0 0 0
86 2 0 0 8 0 0 0
168 2 0 0 184 25 0 0
1 0 0 0 0 225 0 0
0 0 0 0 1 0 0 0
1 0 0 0 7 0 0 0
115 20 0 0 0 0 0 0
3 3 4 0 1 0 2 75
0 0 0 0 0 0 0 0
0 0 0 0 144 1 0 0
96 0 0 0 48 0 0 0
32 0 1 0 128 0 1 0
5 75 2 75 0 150 0 0
48 0 0 0 0 0 0 0
144 1 0 0 96 0 0 0
48 0 0 0 32 0 1 0
128 0 1 0 5 75 3 5
4 4 1 1 1 0 2 37
0 75 0 0 0 150 0 0
136 1 0 0 8 0 0 0
200 0 0 0 1 0 0 0
20 0 0 0 20 0 0 0
48 0 0 0 48 0 0 0
1 0 0 0 20 0 0 0
20 0 0 0 48 0 0 0
1 0 0 0 1 0 0 0
1 0 0 0 1 0 0 0
0 0 0 0 0 0 0 0
0 0 0 0 0 0 0 0
1 0 0 0 1 0 0 0
32 0 15 63 0 0 0 0

NeutronWeights u1 [6584]
00000000: 0101 0101 0101 0101 6b7d 0000 dc57 0000
00000010: 8ac8 ffff 2100 0000 4137 0100 0ecb feff
00000020: b51d ffff f3b3 ffff f5f7 ffff 434e ffff
00000030: 4d6b ffff 78e1 ffff 5bb7 ffff fa7b ffff
00000040: dcae ffff 43ea ffff c995 0000 1320 0000
00000050: bbed ffff 66a1 ffff 2e57 0000 6a23 0000
00000060: 66af ffff a3ab ffff 43f4 0000 1b61 0000
00000070: ad1b 0000 07bf ffff cdbc ffff 2698 ffff
00000080: a3cf 0000 263f 0000 af2c 0000 4361 0000
00000090: 9b13 0000 6361 0000 a60c 0000 4102 0000
000000a0: ac6c ffff 3875 ffff 1cbe ffff 9a3b 0000
000000b0: 2b89 0100 5168 ffff 8fc2 ffff 7b6d 0000
000000c0: 58d8 ffff cf76 0000 5924 1500 5791 1800
000000d0: 3b78 1600 9706 1200 e548 1600 b55b 1600
000000e0: a34a 1600 45b0 1700 3585 1600 6968 1600
000000f0: 3d00 0e00 7b25 1400 4122 1500 8b07 1300
1 1 1 1 1 1 1 1
107 125 0 0 220 87 0 0
138 200 255 255 33 0 0 0
65 55 1 0 14 203 254 255
181 29 255 255 243 179 255 255
245 247 255 255 67 78 255 255
77 107 255 255 120 225 255 255
91 183 255 255 250 123 255 255
220 174 255 255 67 234 255 255
201 149 0 0 19 32 0 0
187 237 255 255 102 161 255 255
46 87 0 0 106 35 0 0
102 175 255 255 163 171 255 255
67 244 0 0 27 97 0 0
173 27 0 0 7 191 255 255
205 188 255 255 38 152 255 255
163 207 0 0 38 63 0 0
175 44 0 0 67 97 0 0
155 19 0 0 99 97 0 0
166 12 0 0 65 2 0 0
172 108 255 255 56 117 255 255
28 190 255 255 154 59 0 0
43 137 1 0 81 104 255 255
143 194 255 255 123 109 0 0
88 216 255 255 207 118 0 0
89 36 21 0 87 145 24 0
59 120 22 0 151 6 18 0
229 72 22 0 181 91 22 0
163 74 22 0 69 176 23 0
53 133 22 0 105 104 22 0
61 0 14 0 123 37 20 0
65 34 21 0 139 7 19 0

NeutronMicrocode u1 [680]
00000000: 6e4d 4364 912c 7b91 5602 0000 0000 0000
00000010: 5602 0000 0800 0000 a802 0000 6008 0000
00000020: 0100 0000 00c2 0100 0000 0000 0100 0000
00000030: 0100 0000 0700 0000 c417 0000 0000 0000
00000040: 0303 0400 0100 024b 0000 0000 0000 0000
00000050: 0000 0000 4006 0000 3000 0000 1800 0000
00000060: 2000 0100 8000 0100 054b 024b 002c 0100
00000070: 1800 0000 0000 0000 4006 0000 3000 0000
00000080: 1800 0000 2000 0100 8000 0100 054b 0305
00000090: 0404 0101 0100 0225 0096 0000 002c 0100
000000a0: c800 0000 0800 0000 6800 0000 0100 0000
000000b0: 2800 0000 2800 0000 1800 0000 1800 0000
000000c0: 0100 0000 2800 0000 2800 0000 1800 0000
000000d0: 0100 0000 0100 0000 0100 0000 0100 0000
000000e0: 0000 0000 0000 0000 0000 0000 0000 0000
000000f0: 0100 0000 0100 0000 2000 0f3f 0000 0000
110 77 67 100 145 44 123 145
86 2 0 0 0 0 0 0
86 2 0 0 8 0 0 0
168 2 0 0 96 8 0 0
1 0 0 0 0 194 1 0
0 0 0 0 1 0 0 0
1 0 0 0 7 0 0 0
196 23 0 0 0 0 0 0
3 3 4 0 1 0 2 75
0 0 0 0 0 0 0 0
0 0 0 0 64 6 0 0
48 0 0 0 24 0 0 0
32 0 1 0 128 0 1 0
5 75 2 75 0 44 1 0
24 0 0 0 0 0 0 0
64 6 0 0 48 0 0 0
24 0 0 0 32 0 1 0
128 0 1 0 5 75 3 5
4 4 1 1 1 0 2 37
0 150 0 0 0 44 1 0
200 0 0 0 8 0 0 0
104 0 0 0 1 0 0 0
40 0 0 0 40 0 0 0
24 0 0 0 24 0 0 0
1 0 0 0 40 0 0 0
40 0 0 0 24 0 0 0
1 0 0 0 1 0 0 0
1 0 0 0 1 0 0 0
0 0 0 0 0 0 0 0
0 0 0 0 0 0 0 0
1 0 0 0 1 0 0 0
32 0 15 63 0 0 0 0

NeutronWeights u1 [2144]
00000000: 0101 0101 0101 0101 f457 0000 b607 0000
00000010: 70cb ffff 38b1 0000 40ff ffff dcbe 0000
00000020: 5c46 0000 f1cb ffff 3d68 0000 e531 0000
00000030: 4d99 0000 044e 0000 b44f 0000 813b 0000
00000040: d2d9 ffff 6432 0000 3b35 0000 d19b 0000
00000050: d779 0000 9f70 0000 3d87 0000 e401 0000
00000060: 272f 0000 c008 0000 8196 1700 4dcd 1900
00000070: bd46 1600 d5f1 1900 0789 1700 83cc 1900
00000080: 8b02 1200 d961 1700 8500 0f00 8504 1300
00000090: 7d12 1500 fdb7 1800 677e 1700 8581 1700
000000a0: dd0a 1400 2d46 1700 af45 1700 d3ce 1900
000000b0: 9564 1800 9398 1800 4bd4 1800 8f47 1700
000000c0: 5784 1800 2dca 1800 0c18 1e07 9fe9 f77f
000000d0: 14aa 25f2 412d 030a 04f0 e8ff e912 fc00
000000e0: 552d 72ff 0b19 11b6 d71a 0003 7f24 30ce
000000f0: 0df3 540e ed1c 0cf6 ff02 037f 0010 03ed
1 1 1 1 1 1 1 1
244 87 0 0 182 7 0 0
112 203 255 255 56 177 0 0
64 255 255 255 220 190 0 0
92 70 0 0 241 203 255 255
61 104 0 0 229 49 0 0
77 153 0 0 4 78 0 0
180 79 0 0 129 59 0 0
210 217 255 255 100 50 0 0
59 53 0 0 209 155 0 0
215 121 0 0 159 112 0 0
61 135 0 0 228 1 0 0
39 47 0 0 192 8 0 0
129 150 23 0 77 205 25 0
189 70 22 0 213 241 25 0
7 137 23 0 131 204 25 0
139 2 18 0 217 97 23 0
133 0 15 0 133 4 19 0
125 18 21 0 253 183 24 0
103 126 23 0 133 129 23 0
221 10 20 0 45 70 23 0
175 69 23 0 211 206 25 0
149 100 24 0 147 152 24 0
75 212 24 0 143 71 23 0
87 132 24 0 45 202 24 0
12 24 30 7 159 233 247 127
20 170 37 242 65 45 3 10
4 240 232 255 233 18 252 0
85 45 114 255 11 25 17 182
215 26 0 3 127 36 48 206
13 243 84 14 237 28 12 246
255 2 3 127 0 16 3 237

NeutronMicrocode u1 [1048]
00000000: 6e4d 4364 912c 7b91 c403 0000 0000 0000
00000010: c403 0000 0800 0000 1804 0000 4010 0000
00000020: 0100 0000 00b8 0b00 0000 0000 0100 0000
00000030: 0100 0000 0900 0000 fa19 0000 0000 0000
00000040: 0305 0400 0101 0100 0207 0000 0000 0000
00000050: 0000 c000 0000 0000 0000 6000 0000 0100
00000060: 0000 a000 0000 a000 0000 1800 0000 1800
00000070: 0000 0100 0000 4001 0000 4001 0000 0300
00000080: 0000 0300 0000 0300 0000 0200 0000 0200
00000090: 0000 0100 0000 0100 0000 0100 0000 0100
000000a0: 0000 0100 0000 0100 0000 2000 0f3f 0000
000000b0: 0000 1a00 0000 0100 0000 0100 0000 f2ff
000000c0: ffff 0096 0000 0000 0000 0000 0000 0000
000000d0: 0000 0000 0000 0507 0302 0404 0233 0060
000000e0: 0900 0000 0000 0100 0000 5000 0000 5000
000000f0: 0000 1800 0000 1800 0000 0100 0000 a000
110 77 67 100 145 44 123 145
196 3 0 0 0 0 0 0
196 3 0 0 8 0 0 0
24 4 0 0 64 16 0 0
1 0 0 0 0 184 11 0
0 0 0 0 1 0 0 0
1 0 0 0 9 0 0 0
250 25 0 0 0 0 0 0
3 5 4 0 1 1 1 0
2 7 0 0 0 0 0 0
0 0 192 0 0 0 0 0
0 0 96 0 0 0 1 0
0 0 160 0 0 0 160 0
0 0 24 0 0 0 24 0
0 0 1 0 0 0 64 1
0 0 64 1 0 0 3 0
0 0 3 0 0 0 3 0
0 0 2 0 0 0 2 0
0 0 1 0 0 0 1 0
0 0 1 0 0 0 1 0
0 0 1 0 0 0 1 0
0 0 32 0 15 63 0 0
0 0 26 0 0 0 1 0
0 0 1 0 0 0 242 255
255 255 0 150 0 0 0 0
0 0 0 0 0 0 0 0
0 0 0 0 0 0 5 7
3 2 4 4 2 51 0 96
9 0 0 0 0 0 1 0
0 0 80 0 0 0 80 0
0 0 24 0 0 0 24 0
0 0 1 0 0 0 160 0

NeutronWeights u1 [4160]
00000000: a565 0200 5fff ffff 6319 0000 4c91 0000
00000010: cf54 0300 6d2b 0000 94ff ffff ae93 0100
00000020: 9612 0000 2a6c 0000 48fb ffff 302d 0000
00000030: 6901 0000 5a1c 0000 6d25 feff e00b 0700
00000040: d9ff ffff 4c20 0000 b5ff ffff 5424 0000
00000050: 4f23 0000 c322 0000 c4c2 0000 84ff ffff
00000060: 9523 1900 f3e7 2c00 9db2 1900 5954 1900
00000070: d588 1b00 f9d1 1900 f3e7 2c00 43d2 1c00
00000080: e902 1300 b18e 1a00 f3e7 2c00 b5d0 1900
00000090: cf51 1700 9f28 1700 fd09 1700 2b25 1a00
000000a0: f3e7 2c00 9d57 1800 f3e7 2c00 9f4c 1800
000000b0: 93a1 1900 c3c0 1900 7590 1b00 f3e7 2c00
000000c0: 6300 ad7f fd89 5802 0000 0000 0000 0000
000000d0: f5da c9eb bdae 0930 14af 3d13 9b52 14be
000000e0: f938 2816 3e36 e61e fe02 0d1f 371a d7ac
000000f0: 0000 0000 0000 0000 1700 127f 4224 5a45
165 101 2 0 95 255 255 255
99 25 0 0 76 145 0 0
207 84 3 0 109 43 0 0
148 255 255 255 174 147 1 0
150 18 0 0 42 108 0 0
72 251 255 255 48 45 0 0
105 1 0 0 90 28 0 0
109 37 254 255 224 11 7 0
217 255 255 255 76 32 0 0
181 255 255 255 84 36 0 0
79 35 0 0 195 34 0 0
196 194 0 0 132 255 255 255
149 35 25 0 243 231 44 0
157 178 25 0 89 84 25 0
213 136 27 0 249 209 25 0
243 231 44 0 67 210 28 0
233 2 19 0 177 142 26 0
243 231 44 0 181 208 25 0
207 81 23 0 159 40 23 0
253 9 23 0 43 37 26 0
243 231 44 0 157 87 24 0
243 231 44 0 159 76 24 0
147 161 25 0 195 192 25 0
117 144 27 0 243 231 44 0
99 0 173 127 253 137 88 2
0 0 0 0 0 0 0 0
245 218 201 235 189 174 9 48
20 175 61 19 155 82 20 190
249 56 40 22 62 54 230 30
254 2 13 31 55 26 215 172
0 0 0 0 0 0 0 0
23 0 18 127 66 36 90 69
