models/nanodet_m_320_quant_int8/nanodet_m_0.5x_nhwc_nopermute.tflite (tflite, 372120 bytes, 63 tensors)

model/conv2d/Conv2D i1 [24, 3, 3, 3]
99 0 -83 127 -3 -119 88 2
-77 117 -4 -101 115 -3 -108 109
-5 -93 117 -8 -102 116 -7 -102
122 -18 -95 0 0 0 0 0
0 0 0 0 0 0 0 0
0 0 0 0 0 0 0 0
0 0 0 0 0 0 -11 -38
-55 -21 -67 -82 9 48 44 -54
-106 -127 -9 -16 -40 35 99 114
-8 -30 -59 17 55 66 21 64
109 20 -81 61 19 -101 82 20
-66 48 16 -94 76 -2 -127 122
17 -78 59 19 -76 55 13 -91
77 19 -63 44 -7 56 40 22
62 54 -26 30 12 37 57 70
127 117 125 47 58 59 -6 16
31 40 41 54 23 27 31 -2
2 13 31 55 26 -41 -84 -80
-12 -34 0 66 127 110 5 -19
-41 -55 -81 -61 22 46 59 16
3 -15 0 0 0 0 0 0
0 0 0 0 0 0 0 0
0 0 0 0 0 0 0 0
0 0 0 0 0 23 0 18
127 66 36 90 69 41 57 -12
-3 57 -12 -22 31 -9 9 48
-17 2 19 -13 -2 -9 -16 27
35 81 82 61 127 123 37 86
86 -8 -37 -43 -10 -50 -56 -13
-42 -47 -32 -45 -46 -53 -73 -72
-28 -45 -48 -52 103 -48 -72 121
-51 -48 98 -48 -72 110 -41 -103
00000000: 6300 ad7f fd89 5802 b375 fc9b 73fd 946d
00000010: fba3 75f8 9a74 f99a 7aee a100 0000 0000
00000020: 0000 0000 0000 0000 0000 0000 0000 0000
00000030: 0000 0000 0000 f5da c9eb bdae 0930 2cca
00000040: 9681 f7f0 d823 6372 f8e2 c511 3742 1540
00000050: 6d14 af3d 139b 5214 be30 10a2 4cfe 817a
00000060: 11b2 3b13 b437 0da5 4d13 c12c f938 2816
00000070: 3e36 e61e 0c25 3946 7f75 7d2f 3a3b fa10
00000080: 1f28 2936 171b 1ffe 020d 1f37 1ad7 acb0
00000090: f4de 0042 7f6e 05ed d7c9 afc3 162e 3b10
000000a0: 03f1 0000 0000 0000 0000 0000 0000 0000
000000b0: 0000 0000 0000 0000 0000 0000 0017 0012
000000c0: 7f42 245a 4529 39f4 fd39 f4ea 1ff7 0930
000000d0: ef02 13f3 fef7 f01b 2351 523d 7f7b 2556
000000e0: 56f8 dbd5 f6ce c8f3 d6d1 e0d3 d2cb b7b8
000000f0: e4d3 d0cc 67d0 b879 cdd0 62d0 b86e d799

model/conv2d_2/Conv2D i1 [24, 1, 1, 24]
16 0 1 10 22 3 0 14
-61 7 0 2 11 7 15 47
0 -127 0 -9 15 -89 8 0
28 0 -127 11 50 31 0 13
-29 16 0 -119 6 66 -21 71
0 -25 0 65 -124 -12 20 0
29 0 103 6 71 -92 0 13
-78 -5 0 64 41 -111 -7 58
0 -85 0 -127 107 -83 29 0
6 0 2 11 55 -4 0 24
-2 -2 0 -2 8 4 -6 127
0 -5 0 4 4 4 8 0
30 0 -127 11 -35 -3 0 -34
68 -18 0 16 -14 -64 8 -24
0 -95 0 92 99 -22 0 0
-127 0 -4 -109 10 -4 0 -23
-2 -68 0 -3 -5 -4 -24 -32
0 -5 0 -4 -3 -7 -50 0
42 0 -116 13 98 -80 0 -16
99 13 0 -75 -4 -127 -25 103
0 90 0 -114 -126 60 41 0
31 0 108 21 -18 -16 0 -12
29 -3 0 17 -4 90 5 -12
0 -23 0 -127 -89 -35 4 0
0 0 0 0 0 0 0 0
0 0 0 0 0 0 0 0
0 0 0 0 0 0 0 0
3 0 0 -11 -23 1 0 -25
1 14 0 1 -2 2 5 127
0 4 0 0 3 2 -1 0
18 0 14 -2 120 5 0 22
-38 -3 0 4 -31 -4 1 127
00000000: 1000 010a 1603 000e c307 0002 0b07 0f2f
00000010: 0081 00f7 0fa7 0800 1c00 810b 321f 000d
00000020: e310 0089 0642 eb47 00e7 0041 84f4 1400
00000030: 1d00 6706 47a4 000d b2fb 0040 2991 f93a
00000040: 00ab 0081 6bad 1d00 0600 020b 37fc 0018
00000050: fefe 00fe 0804 fa7f 00fb 0004 0404 0800
00000060: 1e00 810b ddfd 00de 44ee 0010 f2c0 08e8
00000070: 00a1 005c 63ea 0000 8100 fc93 0afc 00e9
00000080: febc 00fd fbfc e8e0 00fb 00fc fdf9 ce00
00000090: 2a00 8c0d 62b0 00f0 630d 00b5 fc81 e767
000000a0: 005a 008e 823c 2900 1f00 6c15 eef0 00f4
000000b0: 1dfd 0011 fc5a 05f4 00e9 0081 a7dd 0400
000000c0: 0000 0000 0000 0000 0000 0000 0000 0000
000000d0: 0000 0000 0000 0000 0300 00f5 e901 00e7
000000e0: 010e 0001 fe02 057f 0004 0000 0302 ff00
000000f0: 1200 0efe 7805 0016 dafd 0004 e1fc 017f

model/depthwise_conv2d_1/depthwise i1 [1, 3, 3, 24]
-12 -13 24 13 2 13 14 -15
0 -13 9 1 0 15 -26 7
5 0 33 34 -10 -18 -25 20
18 -69 70 -32 38 20 43 -45
0 -51 42 -31 0 44 -64 30
4 0 93 101 37 -48 -42 -49
-1 -68 38 3 57 38 56 -26
0 -33 10 -41 0 38 -39 22
-10 0 71 71 -24 -48 -60 49
-1 -33 56 -15 34 -21 30 -34
0 -19 31 -25 0 34 -44 33
-64 0 57 36 -46 -50 -51 29
127 -119 127 -112 127 -122 123 -127
0 -41 127 -120 0 127 -127 127
-27 0 127 127 127 -127 -101 -127
73 -127 82 -59 123 -127 127 -122
0 -57 72 -127 0 102 -69 119
73 0 117 95 -85 -81 -127 123
16 -24 36 3 30 24 17 -16
0 22 18 -26 0 16 -25 36
-101 0 20 -10 -36 -44 -44 15
122 -93 86 -127 98 80 86 -117
0 127 78 -115 0 57 -74 109
-32 0 69 -19 106 -105 -70 -120
89 -113 70 -45 95 105 91 -125
0 86 48 -122 0 66 -21 120
127 0 82 -24 -71 -48 -86 94
00000000: f4f3 180d 020d 0ef1 00f3 0901 000f e607
00000010: 0500 2122 f6ee e714 12bb 46e0 2614 2bd3
00000020: 00cd 2ae1 002c c01e 0400 5d65 25d0 d6cf
00000030: ffbc 2603 3926 38e6 00df 0ad7 0026 d916
00000040: f600 4747 e8d0 c431 ffdf 38f1 22eb 1ede
00000050: 00ed 1fe7 0022 d421 c000 3924 d2ce cd1d
00000060: 7f89 7f90 7f86 7b81 00d7 7f88 007f 817f
00000070: e500 7f7f 7f81 9b81 4981 52c5 7b81 7f86
00000080: 00c7 4881 0066 bb77 4900 755f abaf 817b
00000090: 10e8 2403 1e18 11f0 0016 12e6 0010 e724
000000a0: 9b00 14f6 dcd4 d40f 7aa3 5681 6250 568b
000000b0: 007f 4e8d 0039 b66d e000 45ed 6a97 ba88
000000c0: 598f 46d3 5f69 5b83 0056 3086 0042 eb78
000000d0: 7f00 52e8 b9d0 aa5e

model/conv2d_3/Conv2D i1 [24, 1, 1, 24]
-2 80 82 -1 -21 1 42 30
0 5 18 -22 0 -23 92 19
6 0 65 4 -4 127 -5 -7
-7 -26 10 -11 11 3 -8 -19
0 -2 -28 40 0 27 21 -26
-127 0 9 23 1 -18 5 -5
-81 116 -84 -127 -12 5 -35 -1
0 28 68 -115 0 32 -32 -15
29 0 -91 -102 8 42 99 -24
5 44 127 41 64 -31 -77 -59
0 4 9 61 0 62 48 -42
-126 0 107 -98 -5 22 50 -21
9 102 83 41 -4 11 64 26
0 6 16 -19 0 4 103 21
-47 0 127 35 4 69 -9 -17
9 115 38 -56 24 -4 -62 -12
0 -5 2 29 0 -20 101 -25
91 0 127 -29 -11 59 10 19
-76 32 -16 18 -127 -8 -35 120
0 -36 1 105 0 -125 7 -73
7 0 -21 -38 -4 30 -10 1
-16 5 -24 15 29 -14 -5 -43
0 -19 27 35 0 -22 1 5
16 0 -11 7 127 9 -3 -11
127 15 35 52 42 13 20 -29
0 -20 2 -18 0 -18 -17 77
3 0 -16 -32 -3 -24 -28 -11
-61 -61 41 -28 -4 -7 87 7
0 -16 -43 15 0 15 28 -31
-4 0 24 -15 -33 -31 11 127
0 0 0 0 0 0 0 0
0 0 0 0 0 0 0 0
00000000: fe50 52ff eb01 2a1e 0005 12ea 00e9 5c13
00000010: 0600 4104 fc7f fbf9 f9e6 0af5 0b03 f8ed
00000020: 00fe e428 001b 15e6 8100 0917 01ee 05fb
00000030: af74 ac81 f405 ddff 001c 448d 0020 e0f1
00000040: 1d00 a59a 082a 63e8 052c 7f29 40e1 b3c5
00000050: 0004 093d 003e 30d6 8200 6b9e fb16 32eb
00000060: 0966 5329 fc0b 401a 0006 10ed 0004 6715
00000070: d100 7f23 0445 f7ef 0973 26c8 18fc c2f4
00000080: 00fb 021d 00ec 65e7 5b00 7fe3 f53b 0a13
00000090: b420 f012 81f8 dd78 00dc 0169 0083 07b7
000000a0: 0700 ebda fc1e f601 f005 e80f 1df2 fbd5
000000b0: 00ed 1b23 00ea 0105 1000 f507 7f09 fdf5
000000c0: 7f0f 2334 2a0d 14e3 00ec 02ee 00ee ef4d
000000d0: 0300 f0e0 fde8 e4f5 c3c3 29e4 fcf9 5707
000000e0: 00f0 d50f 000f 1ce1 fc00 18f1 dfe1 0b7f
000000f0: 0000 0000 0000 0000 0000 0000 0000 0000

model/depthwise_conv2d/depthwise i1 [1, 3, 3, 24]
-2 0 32 2 -16 -16 0 -22
5 6 0 29 -3 -73 8 15
0 4 0 -18 23 -10 6 0
2 0 29 -2 3 19 0 7
-20 -1 0 44 -33 -70 -24 12
0 23 0 -72 33 -22 -5 0
-2 0 31 -5 -11 -3 0 13
24 -6 0 11 -22 -105 -20 -16
0 -45 0 -10 5 36 1 0
-8 0 50 0 -42 11 0 -127
-19 6 0 40 11 2 -22 90
0 16 0 -10 64 -24 -6 0
67 0 -35 -55 114 106 0 -11
-64 -67 0 -5 -62 -19 -121 15
0 52 0 35 22 -58 59 0
91 0 -28 -96 127 59 0 98
112 -125 0 -91 -75 -127 -112 -127
0 -127 0 66 -26 124 111 0
-10 0 69 6 -55 25 0 -127
-20 17 0 66 -17 98 -13 83
0 6 0 68 46 -12 -14 0
82 0 -110 -63 73 127 0 -36
-34 -70 0 -57 -101 114 -124 25
0 36 0 124 -55 -35 67 0
127 0 -127 -127 98 78 0 125
127 -127 0 -127 -127 -12 -127 -113
0 -89 0 127 -127 127 127 0
00000000: fe00 2002 f0f0 00ea 0506 001d fdb7 080f
00000010: 0004 00ee 17f6 0600 0200 1dfe 0313 0007
00000020: ecff 002c dfba e80c 0017 00b8 21ea fb00
00000030: fe00 1ffb f5fd 000d 18fa 000b ea97 ecf0
00000040: 00d3 00f6 0524 0100 f800 3200 d60b 0081
00000050: ed06 0028 0b02 ea5a 0010 00f6 40e8 fa00
00000060: 4300 ddc9 726a 00f5 c0bd 00fb c2ed 870f
00000070: 0034 0023 16c6 3b00 5b00 e4a0 7f3b 0062
00000080: 7083 00a5 b581 9081 0081 0042 e67c 6f00
00000090: f600 4506 c919 0081 ec11 0042 ef62 f353
000000a0: 0006 0044 2ef4 f200 5200 92c1 497f 00dc
000000b0: deba 00c7 9b72 8419 0024 007c c9dd 4300
000000c0: 7f00 8181 624e 007d 7f81 0081 81f4 818f
000000d0: 00a7 007f 817f 7f00

model/conv2d_1/Conv2D i1 [24, 1, 1, 24]
19 0 22 -6 127 -8 0 13
-5 -4 0 6 8 20 3 26
0 -24 0 -4 -39 12 17 0
-51 0 -27 -25 44 -8 0 15
-3 108 0 12 18 -13 -3 -12
0 0 0 21 13 8 -127 0
127 0 2 -5 -27 14 0 6
2 -74 0 2 -6 -2 -10 9
0 -26 0 22 5 13 -20 0
46 0 -22 -27 -127 31 0 25
34 11 0 -13 23 -5 -36 -5
0 -78 0 93 60 56 72 0
-127 0 -1 37 25 -2 0 0
5 -8 0 12 14 -19 -1 -2
0 -2 0 2 13 -1 24 0
-39 0 -16 21 -72 -59 0 15
-23 19 0 0 127 -27 -10 -7
0 2 0 -8 45 -12 -51 0
51 0 5 -127 7 -8 0 -5
-6 -28 0 0 8 1 8 7
0 2 0 -10 -6 0 22 0
-24 0 6 -12 -4 5 0 0
3 127 0 0 -2 3 -6 0
0 0 0 5 2 -1 -35 0
-127 0 0 98 16 6 0 -11
6 45 0 -1 -11 -1 -7 7
0 -2 0 6 -5 1 -77 0
-8 0 -4 58 39 -7 0 -2
2 127 0 6 -10 8 4 1
0 0 0 -5 -4 0 103 0
5 0 10 127 -4 2 0 -1
-4 -16 0 2 -6 -5 0 3
00000000: 1300 16fa 7ff8 000d fbfc 0006 0814 031a
00000010: 00e8 00fc d90c 1100 cd00 e5e7 2cf8 000f
00000020: fd6c 000c 12f3 fdf4 0000 0015 0d08 8100
00000030: 7f00 02fb e50e 0006 02b6 0002 fafe f609
00000040: 00e6 0016 050d ec00 2e00 eae5 811f 0019
00000050: 220b 00f3 17fb dcfb 00b2 005d 3c38 4800
00000060: 8100 ff25 19fe 0000 05f8 000c 0eed fffe
00000070: 00fe 0002 0dff 1800 d900 f015 b8c5 000f
00000080: e913 0000 7fe5 f6f9 0002 00f8 2df4 cd00
00000090: 3300 0581 07f8 00fb fae4 0000 0801 0807
000000a0: 0002 00f6 fa00 1600 e800 06f4 fc05 0000
000000b0: 037f 0000 fe03 fa00 0000 0005 02ff dd00
000000c0: 8100 0062 1006 00f5 062d 00ff f5ff f907
000000d0: 00fe 0006 fb01 b300 f800 fc3a 27f9 00fe
000000e0: 027f 0006 f608 0401 0000 00fb fc00 6700
000000f0: 0500 0a7f fc02 00ff fcf0 0002 fafb 0003

model/conv2d_4/Conv2D i1 [24, 1, 1, 24]
-11 -8 -83 32 -20 0 27 5
33 -16 38 -9 52 45 0 24
-8 2 -22 -127 2 35 -10 -25
-11 -13 75 -48 18 27 12 4
11 -70 127 -38 -119 40 34 -1
56 -18 28 -41 -11 -29 -38 24
-13 13 -10 8 29 -5 9 1
-87 24 41 -5 2 -4 1 17
5 -13 -4 -11 -32 2 -127 -4
65 -15 -39 52 -16 18 15 51
-4 29 -39 -89 54 -28 74 -18
57 21 24 -127 17 12 11 36
-23 -65 -49 -74 -1 -5 -63 -16
-10 24 51 6 -11 -83 -65 -60
-84 127 -31 -11 93 14 -44 -78
22 -28 1 -66 -12 0 -4 -127
17 -2 4 92 -23 29 7 -3
7 -15 -6 46 4 35 -25 2
-14 -39 -37 62 -18 -47 18 -12
52 5 -42 37 21 8 31 -19
-12 -20 -40 -127 45 -84 -33 -46
38 -26 23 -29 1 -14 -17 77
24 -43 21 -127 5 -33 -3 4
0 -15 -7 38 -1 -41 -31 -71
78 -53 -54 -60 41 127 -10 -17
-32 -11 -99 114 2 11 56 -1
-4 -49 13 15 3 -51 13 56
-18 24 1 71 3 -4 -1 -12
13 46 -44 -1 10 45 8 -127
3 -1 -1 -5 -2 26 -15 -16
16 30 46 -22 12 -127 -18 5
-21 59 6 26 -24 -12 -3 -14
00000000: f5f8 ad20 ec00 1b05 21f0 26f7 342d 0018
00000010: f802 ea81 0223 f6e7 f5f3 4bd0 121b 0c04
00000020: 0bba 7fda 8928 22ff 38ee 1cd7 f5e3 da18
00000030: f30d f608 1dfb 0901 a918 29fb 02fc 0111
00000040: 05f3 fcf5 e002 81fc 41f1 d934 f012 0f33
00000050: fc1d d9a7 36e4 4aee 3915 1881 110c 0b24
00000060: e9bf cfb6 fffb c1f0 f618 3306 f5ad bfc4
00000070: ac7f e1f5 5d0e d4b2 16e4 01be f400 fc81
00000080: 11fe 045c e91d 07fd 07f1 fa2e 0423 e702
00000090: f2d9 db3e eed1 12f4 3405 d625 1508 1fed
000000a0: f4ec d881 2dac dfd2 26e6 17e3 01f2 ef4d
000000b0: 18d5 1581 05df fd04 00f1 f926 ffd7 e1b9
000000c0: 4ecb cac4 297f f6ef e0f5 9d72 020b 38ff
000000d0: fccf 0d0f 03cd 0d38 ee18 0147 03fc fff4
000000e0: 0d2e d4ff 0a2d 0881 03ff fffb fe1a f1f0
000000f0: 101e 2eea 0c81 ee05 eb3b 061a e8f4 fdf2

model/depthwise_conv2d_2/depthwise i1 [1, 3, 3, 24]
-2 15 3 0 19 9 -4 11
7 -2 -2 0 15 3 4 0
-3 6 1 -1 7 2 0 -5
-32 127 12 77 25 -11 17 -13
22 25 -18 4 21 -18 8 40
14 5 -51 6 31 13 26 -27
-10 -10 -24 2 28 4 -10 1
12 4 -5 13 8 -5 -2 8
-9 11 3 0 21 1 4 6
7 -12 -16 16 5 -12 36 -10
32 19 -8 23 39 7 5 14
-33 13 7 10 8 -12 31 -1
127 -112 -10 -127 127 127 -127 127
-127 -127 127 14 -127 127 -127 -127
-107 -127 -127 101 118 -127 -127 127
54 -17 127 -7 15 5 25 20
9 -26 24 -127 19 50 -6 0
127 50 -4 -127 0 9 28 -56
8 7 -4 5 2 5 14 2
13 5 5 7 16 -14 5 6
5 -7 18 -2 40 9 4 -6
-8 -31 4 45 46 15 -57 18
-11 9 34 -5 -8 -112 -6 30
-3 71 8 4 127 10 28 2
13 17 9 18 17 8 16 6
13 5 12 -13 19 -44 -13 8
-3 14 11 2 19 3 7 -3
00000000: fe0f 0300 1309 fc0b 07fe fe00 0f03 0400
00000010: fd06 01ff 0702 00fb e07f 0c4d 19f5 11f3
00000020: 1619 ee04 15ee 0828 0e05 cd06 1f0d 1ae5
00000030: f6f6 e802 1c04 f601 0c04 fb0d 08fb fe08
00000040: f70b 0300 1501 0406 07f4 f010 05f4 24f6
00000050: 2013 f817 2707 050e df0d 070a 08f4 1fff
00000060: 7f90 f681 7f7f 817f 8181 7f0e 817f 8181
00000070: 9581 8165 7681 817f 36ef 7ff9 0f05 1914
00000080: 09e6 1881 1332 fa00 7f32 fc81 0009 1cc8
00000090: 0807 fc05 0205 0e02 0d05 0507 10f2 0506
000000a0: 05f9 12fe 2809 04fa f8e1 042d 2e0f c712
000000b0: f509 22fb f890 fa1e fd47 0804 7f0a 1c02
000000c0: 0d11 0912 1108 1006 0d05 0cf3 13d4 f308
000000d0: fd0e 0b02 1303 07fd

model/conv2d_5/Conv2D i1 [24, 1, 1, 24]
-33 31 53 2 -25 -22 11 -10
6 -7 -9 127 -21 -3 -99 42
83 -25 -10 -111 27 8 24 -95
28 -41 12 -31 -7 -34 -4 -16
16 -127 5 18 2 -31 9 -6
-2 -42 24 10 -2 15 -25 13
127 -5 -15 2 16 12 6 -4
-63 12 -106 19 26 -4 12 -81
13 -41 -6 2 -4 37 27 -28
106 41 8 -9 -19 -19 -2 -27
85 72 64 1 -47 -63 -30 127
24 -110 51 30 -19 37 -96 31
-1 -11 -127 6 -8 -1 6 -3
17 -8 4 -21 10 -7 -39 -9
-6 -6 4 14 -17 15 -7 -4
-6 -14 -10 -38 -1 13 -9 24
8 8 -7 -1 -4 127 -20 4
-1 13 6 -5 -1 -7 16 11
-26 29 -27 127 -71 84 -39 -87
-52 -5 43 58 -26 42 7 1
-22 -6 122 6 0 52 18 23
-19 127 36 15 6 -20 -17 -20
-20 23 -19 40 -14 -15 15 20
-15 -18 -89 7 -53 10 25 39
-26 -127 -37 30 21 -11 -35 -20
12 -64 -15 3 25 1 -24 7
0 21 -7 7 49 -3 -20 -73
20 9 51 23 80 -94 -65 -127
-46 10 -2 -41 -17 -61 20 -58
33 -127 79 19 -48 -62 -87 -39
50 -11 16 127 -70 98 82 -39
1 4 -37 -66 -7 -114 -60 -19
00000000: df1f 3502 e7ea 0bf6 06f9 f77f ebfd 9d2a
00000010: 53e7 f691 1b08 18a1 1cd7 0ce1 f9de fcf0
00000020: 1081 0512 02e1 09fa fed6 180a fe0f e70d
00000030: 7ffb f102 100c 06fc c10c 9613 1afc 0caf
00000040: 0dd7 fa02 fc25 1be4 6a29 08f7 eded fee5
00000050: 5548 4001 d1c1 e27f 1892 331e ed25 a01f
00000060: fff5 8106 f8ff 06fd 11f8 04eb 0af9 d9f7
00000070: fafa 040e ef0f f9fc faf2 f6da ff0d f718
00000080: 0808 f9ff fc7f ec04 ff0d 06fb fff9 100b
00000090: e61d e57f b954 d9a9 ccfb 2b3a e62a 0701
000000a0: eafa 7a06 0034 1217 ed7f 240f 06ec efec
000000b0: ec17 ed28 f2f1 0f14 f1ee a707 cb0a 1927
000000c0: e681 db1e 15f5 ddec 0cc0 f103 1901 e807
000000d0: 0015 f907 31fd ecb7 1409 3317 50a2 bf81
000000e0: d20a fed7 efc3 14c6 2181 4f13 d0c2 a9d9
000000f0: 32f5 107f ba62 52d9 0104 dbbe f98e c4ed

model/conv2d_6/Conv2D i1 [24, 1, 1, 24]
67 28 8 -23 -51 15 -15 7
-127 20 -74 36 -23 21 17 -17
64 7 0 10 55 -16 40 -4
3 2 -2 0 86 12 -10 10
17 -12 -37 4 50 -5 -13 16
-127 11 0 2 -89 4 2 -16
50 1 4 -6 118 4 0 -13
-7 2 9 3 -49 -5 8 0
77 -7 0 10 127 4 3 16
-25 0 3 1 -127 -4 0 -4
18 0 -12 -1 -74 3 -3 -2
31 -5 0 1 -68 2 -2 2
12 79 97 17 -23 12 -127 17
-66 -10 -40 32 -2 -7 44 -25
-3 -3 0 25 14 26 29 -7
12 -9 9 -62 -14 4 -24 -15
-9 10 -28 -3 6 8 68 -57
-3 -34 0 -84 13 24 -127 -16
-24 -56 25 -40 16 -23 -32 24
34 -1 -44 -60 -9 -50 127 25
-11 27 0 32 11 -24 -53 40
-12 -50 31 71 7 -20 -59 13
-19 7 -19 -127 -14 -103 -25 25
-25 42 0 8 -8 -101 -23 -2
-127 -7 6 3 -58 -12 -8 0
22 -1 -4 -8 -36 -3 -11 -3
38 -2 0 2 -73 6 -7 23
-127 4 -2 6 -26 5 -15 7
73 -9 -33 4 71 -4 -14 8
7 15 0 -9 -12 4 2 -22
15 21 46 70 -1 59 -23 45
-8 56 -111 10 14 -30 -31 -53
00000000: 431c 08e9 cd0f f107 8114 b624 e915 11ef
00000010: 4007 000a 37f0 28fc 0302 fe00 560c f60a
00000020: 11f4 db04 32fb f310 810b 0002 a704 02f0
00000030: 3201 04fa 7604 00f3 f902 0903 cffb 0800
00000040: 4df9 000a 7f04 0310 e700 0301 81fc 00fc
00000050: 1200 f4ff b603 fdfe 1ffb 0001 bc02 fe02
00000060: 0c4f 6111 e90c 8111 bef6 d820 fef9 2ce7
00000070: fdfd 0019 0e1a 1df9 0cf7 09c2 f204 e8f1
00000080: f70a e4fd 0608 44c7 fdde 00ac 0d18 81f0
00000090: e8c8 19d8 10e9 e018 22ff d4c4 f7ce 7f19
000000a0: f51b 0020 0be8 cb28 f4ce 1f47 07ec c50d
000000b0: ed07 ed81 f299 e719 e72a 0008 f89b e9fe
000000c0: 81f9 0603 c6f4 f800 16ff fcf8 dcfd f5fd
000000d0: 26fe 0002 b706 f917 8104 fe06 e605 f107
000000e0: 49f7 df04 47fc f208 070f 00f7 f404 02ea
000000f0: 0f15 2e46 ff3b e92d f838 910a 0ee2 e1cb

model/depthwise_conv2d_3/depthwise i1 [1, 3, 3, 24]
13 -4 8 4 26 5 5 20
9 3 -2 12 -6 -4 -6 -14
-27 -10 1 -9 -1 4 21 16
20 35 10 5 -43 10 11 80
3 37 -30 -62 26 -23 -21 -52
57 6 37 -14 47 22 -31 -17
7 -3 7 -6 -13 9 -4 7
12 7 -21 -21 12 -16 -1 -24
-22 -7 9 -16 29 12 29 -4
18 28 17 -118 -16 -6 -69 121
31 26 -29 -75 -45 -27 61 -23
-42 6 20 -21 -8 3 -7 -4
-127 -127 -127 -14 51 -61 127 127
-127 -127 -18 -105 127 127 127 -127
127 127 -127 127 127 127 -127 127
23 18 16 127 127 -127 -40 106
27 7 -54 -49 -1 6 16 -62
-90 10 -27 -7 50 -5 -35 -34
10 6 8 -4 16 3 -2 53
5 10 -10 22 -32 -16 -6 11
-17 -31 -11 -4 14 26 16 5
20 15 15 -5 -32 -10 17 103
21 16 -127 -127 29 24 -1 -28
63 37 13 -73 115 -44 -10 -13
6 6 6 9 6 -16 -1 17
5 11 -37 -51 -4 -17 0 1
-30 -3 6 -22 70 23 15 -22
00000000: 0dfc 0804 1a05 0514 0903 fe0c fafc faf2
00000010: e5f6 01f7 ff04 1510 1423 0a05 d50a 0b50
00000020: 0325 e2c2 1ae9 ebcc 3906 25f2 2f16 e1ef
00000030: 07fd 07fa f309 fc07 0c07 ebeb 0cf0 ffe8
00000040: eaf9 09f0 1d0c 1dfc 121c 118a f0fa bb79
00000050: 1f1a e3b5 d3e5 3de9 d606 14eb f803 f9fc
00000060: 8181 81f2 33c3 7f7f 8181 ee97 7f7f 7f81
00000070: 7f7f 817f 7f7f 817f 1712 107f 7f81 d86a
00000080: 1b07 cacf ff06 10c2 a60a e5f9 32fb ddde
00000090: 0a06 08fc 1003 fe35 050a f616 e0f0 fa0b
000000a0: efe1 f5fc 0e1a 1005 140f 0ffb e0f6 1167
000000b0: 1510 8181 1d18 ffe4 3f25 0db7 73d4 f6f3
000000c0: 0606 0609 06f0 ff11 050b dbcd fcef 0001
000000d0: e2fd 06ea 4617 0fea

model/conv2d_7/Conv2D i1 [24, 1, 1, 24]
127 -50 -109 15 -40 40 -48 101
-13 -94 52 35 -50 -113 -59 -25
1 -90 79 31 73 50 13 -52
-8 -127 56 2 4 -6 9 -4
44 90 -25 -11 -16 -38 -15 18
0 14 -14 4 22 -60 58 -12
-24 11 -10 4 -9 -18 9 -59
23 5 -10 72 -53 127 24 -21
-5 -86 -32 69 75 43 -1 10
-104 75 43 -9 6 -40 13 74
-50 38 9 90 -23 -75 27 127
17 -77 53 45 23 -86 -15 26
17 107 2 6 -19 1 12 -5
-71 -127 16 -18 -2 -21 -18 14
-21 23 -51 -7 7 20 100 -8
0 -1 5 8 7 -10 6 -111
-5 -17 -49 127 -77 -114 -23 -60
35 16 34 117 -34 -91 11 -14
-27 -9 -5 2 5 -40 -50 -22
10 -18 10 6 -41 -11 6 2
127 6 6 -24 -6 6 15 -53
34 -65 91 1 3 -10 11 4
63 -38 -24 27 -27 -14 -1 35
15 -16 4 -3 31 -28 127 11
32 5 -17 0 -44 -127 103 12
-16 5 48 29 58 38 52 45
-13 58 37 15 3 -23 -9 8
-5 -1 -1 -127 -3 3 -4 -7
-14 4 -10 -14 -3 10 -9 -8
-15 29 15 -2 5 -14 -4 0
-36 -12 10 -5 127 80 100 -96
17 -6 9 125 7 -20 -55 109
00000000: 7fce 930f d828 d065 f3a2 3423 ce8f c5e7
00000010: 01a6 4f1f 4932 0dcc f881 3802 04fa 09fc
00000020: 2c5a e7f5 f0da f112 000e f204 16c4 3af4
00000030: e80b f604 f7ee 09c5 1705 f648 cb7f 18eb
00000040: fbaa e045 4b2b ff0a 984b 2bf7 06d8 0d4a
00000050: ce26 095a e9b5 1b7f 11b3 352d 17aa f11a
00000060: 116b 0206 ed01 0cfb b981 10ee feeb ee0e
00000070: eb17 cdf9 0714 64f8 00ff 0508 07f6 0691
00000080: fbef cf7f b38e e9c4 2310 2275 dea5 0bf2
00000090: e5f7 fb02 05d8 ceea 0aee 0a06 d7f5 0602
000000a0: 7f06 06e8 fa06 0fcb 22bf 5b01 03f6 0b04
000000b0: 3fda e81b e5f2 ff23 0ff0 04fd 1fe4 7f0b
000000c0: 2005 ef00 d481 670c f005 301d 3a26 342d
000000d0: f33a 250f 03e9 f708 fbff ff81 fd03 fcf9
000000e0: f204 f6f2 fd0a f7f8 f11d 0ffe 05f2 fc00
000000f0: dcf4 0afb 7f50 64a0 11fa 097d 07ec c96d

model/conv2d_8/Conv2D i1 [24, 1, 1, 24]
12 24 30 7 -97 -23 -9 127
-3 46 8 33 31 0 49 -9
4 35 3 -4 -20 0 -8 27
20 -86 37 -14 65 45 3 10
-32 -34 37 54 95 0 -79 13
-18 -12 -13 41 -127 0 -90 -47
4 -16 -24 -1 -23 18 -4 0
9 7 -33 0 -125 0 -8 2
-35 8 8 2 -127 0 8 9
85 45 114 -1 11 25 17 -74
18 127 8 -34 74 0 8 15
33 -53 81 -74 68 0 -4 45
-41 26 0 3 127 36 48 -50
23 21 46 -83 -53 0 -45 -19
43 -20 -54 64 -45 0 -16 -50
13 -13 84 14 -19 28 12 -10
12 127 35 44 111 0 -16 39
103 0 -59 -110 28 0 -27 89
-1 2 3 127 0 16 3 -19
103 -12 0 3 -1 0 0 -16
4 1 -8 -10 -2 0 -17 -26
-42 3 -27 -18 17 -10 -90 -12
-43 25 71 -7 -14 0 -4 -21
-127 -1 43 31 9 0 10 -42
15 12 -1 -5 25 5 3 6
0 15 17 -15 105 0 2 4
25 5 6 -8 127 0 -4 1
6 -12 12 -22 127 -14 49 -5
13 47 38 -90 -15 0 -7 -37
-95 44 23 124 9 0 -35 -59
40 117 -13 1 -10 -59 25 112
12 127 -46 -90 1 0 120 -60
00000000: 0c18 1e07 9fe9 f77f fd2e 0821 1f00 31f7
00000010: 0423 03fc ec00 f81b 14aa 25f2 412d 030a
00000020: e0de 2536 5f00 b10d eef4 f329 8100 a6d1
00000030: 04f0 e8ff e912 fc00 0907 df00 8300 f802
00000040: dd08 0802 8100 0809 552d 72ff 0b19 11b6
00000050: 127f 08de 4a00 080f 21cb 51b6 4400 fc2d
00000060: d71a 0003 7f24 30ce 1715 2ead cb00 d3ed
00000070: 2bec ca40 d300 f0ce 0df3 540e ed1c 0cf6
00000080: 0c7f 232c 6f00 f027 6700 c592 1c00 e559
00000090: ff02 037f 0010 03ed 67f4 0003 ff00 00f0
000000a0: 0401 f8f6 fe00 efe6 d603 e5ee 11f6 a6f4
000000b0: d519 47f9 f200 fceb 81ff 2b1f 0900 0ad6
000000c0: 0f0c fffb 1905 0306 000f 11f1 6900 0204
000000d0: 1905 06f8 7f00 fc01 06f4 0cea 7ff2 31fb
000000e0: 0d2f 26a6 f100 f9db a12c 177c 0900 ddc5
000000f0: 2875 f301 f6c5 1970 0c7f d2a6 0100 78c4

model/depthwise_conv2d_4/depthwise i1 [1, 3, 3, 24]
8 4 -13 0 58 -6 -21 8
12 -16 2 8 -7 -14 -8 5
9 -9 4 -4 13 10 -40 12
-64 -99 -25 0 -127 -7 -127 40
10 -96 -67 -37 -23 -8 -16 61
21 -127 -1 -6 58 -23 104 33
4 7 18 11 -4 7 -45 13
-63 -1 -5 17 -10 -3 -6 17
10 96 0 -10 24 22 -4 -3
47 9 -18 27 1 7 19 9
-9 -31 1 71 -14 -2 -20 42
3 9 -73 20 -63 127 38 -39
-59 127 127 75 -66 102 55 100
127 127 -73 -127 127 127 -32 -127
127 121 -65 -121 -127 -112 -127 -127
-6 52 -22 -125 -26 -127 26 28
16 -44 -27 65 -9 66 127 -11
24 -101 127 21 -81 11 9 -18
-24 -30 16 -8 -22 8 8 -27
-35 -15 9 19 -11 -11 1 18
-34 -6 1 -12 21 29 0 -18
-127 -43 13 -97 -13 16 68 -127
-60 1 127 -35 -26 57 18 -60
-121 28 -2 127 20 -48 0 -24
-98 -52 -45 127 -29 -21 21 -40
50 -35 31 17 -11 -3 -25 -20
-39 -7 17 -12 27 17 -7 -33
00000000: 0804 f300 3afa eb08 0cf0 0208 f9f2 f805
00000010: 09f7 04fc 0d0a d80c c09d e700 81f9 8128
00000020: 0aa0 bddb e9f8 f03d 1581 fffa 3ae9 6821
00000030: 0407 120b fc07 d30d c1ff fb11 f6fd fa11
00000040: 0a60 00f6 1816 fcfd 2f09 ee1b 0107 1309
00000050: f7e1 0147 f2fe ec2a 0309 b714 c17f 26d9
00000060: c57f 7f4b be66 3764 7f7f b781 7f7f e081
00000070: 7f79 bf87 8190 8181 fa34 ea83 e681 1a1c
00000080: 10d4 e541 f742 7ff5 189b 7f15 af0b 09ee
00000090: e8e2 10f8 ea08 08e5 ddf1 0913 f5f5 0112
000000a0: defa 01f4 151d 00ee 81d5 0d9f f310 4481
000000b0: c401 7fdd e639 12c4 871c fe7f 14d0 00e8
000000c0: 9ecc d37f e3eb 15d8 32dd 1f11 f5fd e7ec
000000d0: d9f9 11f4 1b11 f9df

model/conv2d_9/Conv2D i1 [24, 1, 1, 24]
45 -1 -12 26 -4 -127 6 1
-11 35 0 26 -1 108 44 -26
4 -51 -20 -7 27 -65 5 -13
-72 -10 -25 -21 -1 29 -3 3
-43 0 -34 127 -8 63 -22 -7
6 20 11 5 -52 29 10 1
-8 -11 5 4 -7 -47 -10 -24
-74 127 45 12 11 -33 50 30
-6 113 5 -91 11 109 5 -33
5 1 -9 -2 -12 -4 -19 -15
-3 -4 3 -4 127 5 11 3
-9 -12 -5 13 8 13 13 -17
-11 8 -13 -9 -27 2 25 -85
-10 -3 12 -12 4 3 0 23
127 5 2 -14 -3 4 -16 58
-32 -1 91 -10 61 -53 -7 18
4 -36 58 -45 -3 -14 -127 -10
31 -2 15 4 -21 -11 -24 1
18 -52 7 26 -58 -127 -8 59
-35 -49 -16 30 3 -7 -7 -39
42 53 -15 103 25 36 84 7
-15 30 -127 -10 2 -13 0 5
59 15 -4 2 -5 -12 -36 -18
13 26 0 20 -33 11 69 50
39 -72 -9 94 -30 127 -14 88
-13 -1 -23 7 13 28 -57 -34
80 -49 43 111 -1 -75 93 -16
41 11 -54 91 9 52 -18 -2
1 20 33 25 2 45 -71 -26
-3 68 38 5 27 -92 -127 -17
25 -5 11 -13 5 48 0 1
15 18 7 -13 -4 -16 2 19
00000000: 2dff f41a fc81 0601 f523 001a ff6c 2ce6
00000010: 04cd ecf9 1bbf 05f3 b8f6 e7eb ff1d fd03
00000020: d500 de7f f83f eaf9 0614 0b05 cc1d 0a01
00000030: f8f5 0504 f9d1 f6e8 b67f 2d0c 0bdf 321e
00000040: fa71 05a5 0b6d 05df 0501 f7fe f4fc edf1
00000050: fdfc 03fc 7f05 0b03 f7f4 fb0d 080d 0def
00000060: f508 f3f7 e502 19ab f6fd 0cf4 0403 0017
00000070: 7f05 02f2 fd04 f03a e0ff 5bf6 3dcb f912
00000080: 04dc 3ad3 fdf2 81f6 1ffe 0f04 ebf5 e801
00000090: 12cc 071a c681 f83b ddcf f01e 03f9 f9d9
000000a0: 2a35 f167 1924 5407 f11e 81f6 02f3 0005
000000b0: 3b0f fc02 fbf4 dcee 0d1a 0014 df0b 4532
000000c0: 27b8 f75e e27f f258 f3ff e907 0d1c c7de
000000d0: 50cf 2b6f ffb5 5df0 290b ca5b 0934 eefe
000000e0: 0114 2119 022d b9e6 fd44 2605 1ba4 81ef
000000f0: 19fb 0bf3 0530 0001 0f12 07f3 fcf0 0213

model/conv2d_11/Conv2D i1 [48, 1, 1, 48]
-29 33 -32 20 -60 85 6 -26
-61 74 2 127 62 -86 32 -61
25 20 2 -56 -61 -53 -2 -10
107 44 -85 7 8 -11 16 12
1 -6 20 -3 -3 99 39 -11
-59 23 16 27 30 -106 48 -7
15 4 -49 3 -23 -5 75 40
-16 -45 24 14 -3 1 -46 15
28 4 -46 -12 -56 14 10 7
-12 -7 -12 -21 37 4 127 12
31 4 -15 9 17 -17 -33 -27
-21 -59 27 -13 17 -22 -21 14
28 14 -6 -10 -14 53 20 111
3 6 78 -20 -13 -5 -13 -27
32 63 27 63 40 -1 8 -49
38 17 -24 12 -12 27 -22 -35
-20 127 -16 -54 0 25 -22 0
-73 3 -68 -4 37 8 -11 14
-46 44 -6 65 19 19 -13 -26
10 77 37 -24 -26 -30 26 -6
42 42 37 3 49 -4 -127 46
8 48 39 22 -25 -6 37 7
-41 19 85 44 12 39 23 -23
-36 34 -105 8 41 -38 15 109
-4 -19 -23 -6 -127 -29 -12 -5
-9 50 -37 -4 89 -16 -27 0
-17 45 -10 5 -52 30 3 -13
9 28 -1 20 -34 27 -11 9
1 -14 -2 -49 -1 24 6 10
6 21 21 -32 -8 -24 9 -17
-14 -57 15 -10 61 -49 -1 -15
26 -25 -6 73 -23 27 0 98
00000000: e321 e014 c455 06e6 c34a 027f 3eaa 20c3
00000010: 1914 02c8 c3cb fef6 6b2c ab07 08f5 100c
00000020: 01fa 14fd fd63 27f5 c517 101b 1e96 30f9
00000030: 0f04 cf03 e9fb 4b28 f0d3 180e fd01 d20f
00000040: 1c04 d2f4 c80e 0a07 f4f9 f4eb 2504 7f0c
00000050: 1f04 f109 11ef dfe5 ebc5 1bf3 11ea eb0e
00000060: 1c0e faf6 f235 146f 0306 4eec f3fb f3e5
00000070: 203f 1b3f 28ff 08cf 2611 e80c f41b eadd
00000080: ec7f f0ca 0019 ea00 b703 bcfc 2508 f50e
00000090: d22c fa41 1313 f3e6 0a4d 25e8 e6e2 1afa
000000a0: 2a2a 2503 31fc 812e 0830 2716 e7fa 2507
000000b0: d713 552c 0c27 17e9 dc22 9708 29da 0f6d
000000c0: fced e9fa 81e3 f4fb f732 dbfc 59f0 e500
000000d0: ef2d f605 cc1e 03f3 091c ff14 de1b f509
000000e0: 01f2 fecf ff18 060a 0615 15e0 f8e8 09ef
000000f0: f2c7 0ff6 3dcf fff1 1ae7 fa49 e91b 0062

model/depthwise_conv2d_6/depthwise i1 [1, 3, 3, 48]
18 29 14 -40 34 29 38 48
69 40 -31 -18 69 -15 -27 -30
0 -31 46 -28 31 47 -29 -48
-37 28 31 -38 -37 31 26 -120
34 64 35 -25 -117 -28 48 38
-36 -27 -28 37 27 -49 -49 -46
61 66 62 -61 70 90 74 107
77 6 -79 -73 122 -80 -67 -58
0 -80 81 -68 53 76 -68 -79
-86 60 69 -76 -77 63 66 -123
74 107 57 -68 -121 -75 94 56
-67 -53 -58 64 50 -72 -81 -75
43 53 57 -54 46 60 54 107
41 -69 -51 -28 81 -82 -52 -38
0 -56 70 -52 33 32 -52 -40
-78 48 45 -55 -71 46 47 7
47 45 33 -46 -30 -59 61 51
-50 -32 -42 42 31 -28 -40 -56
49 58 64 -65 72 69 60 -55
88 85 -82 -80 57 -68 -58 -61
0 -68 67 -63 68 86 -63 -60
-78 66 61 -63 -59 70 63 -104
61 45 60 -56 -123 -62 76 63
-66 -68 -50 72 56 -59 -56 -70
127 127 127 -127 127 127 127 -7
127 30 -127 -48 127 -127 -127 -127
0 -127 127 -127 127 127 -127 -127
-127 127 127 -127 -127 127 127 -35
127 127 127 -127 -48 -127 127 127
-127 -127 -127 127 127 -127 -127 -127
95 100 112 -95 91 67 88 64
84 -127 -57 39 86 -104 -102 -87
00000000: 121d 0ed8 221d 2630 4528 e1ee 45f1 e5e2
00000010: 00e1 2ee4 1f2f e3d0 db1c 1fda db1f 1a88
00000020: 2240 23e7 8be4 3026 dce5 e425 1bcf cfd2
00000030: 3d42 3ec3 465a 4a6b 4d06 b1b7 7ab0 bdc6
00000040: 00b0 51bc 354c bcb1 aa3c 45b4 b33f 4285
00000050: 4a6b 39bc 87b5 5e38 bdcb c640 32b8 afb5
00000060: 2b35 39ca 2e3c 366b 29bb cde4 51ae ccda
00000070: 00c8 46cc 2120 ccd8 b230 2dc9 b92e 2f07
00000080: 2f2d 21d2 e2c5 3d33 cee0 d62a 1fe4 d8c8
00000090: 313a 40bf 4845 3cc9 5855 aeb0 39bc c6c3
000000a0: 00bc 43c1 4456 c1c4 b242 3dc1 c546 3f98
000000b0: 3d2d 3cc8 85c2 4c3f bebc ce48 38c5 c8ba
000000c0: 7f7f 7f81 7f7f 7ff9 7f1e 81d0 7f81 8181
000000d0: 0081 7f81 7f7f 8181 817f 7f81 817f 7fdd
000000e0: 7f7f 7f81 d081 7f7f 8181 817f 7f81 8181
000000f0: 5f64 70a1 5b43 5840 5481 c727 5698 9aa9

model/conv2d_12/Conv2D i1 [48, 1, 1, 48]
-11 -34 -29 -61 0 11 -20 0
-10 -6 5 0 -1 28 17 17
0 -34 23 65 -5 16 30 -29
-27 -16 127 16 -76 50 44 -4
6 8 39 -39 -2 -8 -43 33
-18 2 -33 -10 -33 12 17 6
26 1 -3 14 2 -18 13 16
-32 10 -3 35 8 -13 -29 -5
0 10 -19 21 7 13 -9 6
18 -21 6 -16 17 -11 28 -37
13 -40 -19 -127 -23 32 -1 10
-5 -53 28 9 -39 -5 -20 -18
47 82 -21 -86 29 32 -9 18
-45 6 -14 36 -17 78 -23 -11
0 39 -40 60 9 55 23 57
-18 15 29 12 -78 -17 -43 -32
1 50 -47 73 -24 82 -57 -38
33 17 -111 -32 127 10 41 -7
51 -1 27 13 10 -95 -3 7
4 -1 1 -6 -10 -39 3 5
0 0 4 -30 14 29 11 -17
45 -114 1 -8 17 -22 14 -8
10 -86 4 3 -14 19 10 -28
-9 -127 0 -32 19 -5 -73 10
5 -12 18 13 18 -6 -63 1
9 -2 -2 0 -23 8 -2 -98
0 16 63 19 12 7 -25 -1
4 -15 0 11 2 29 -72 2
48 0 9 6 -1 7 -6 16
-6 8 12 -15 -9 26 13 -127
-50 -17 -17 90 41 37 -21 16
27 -22 -48 3 -51 1 2 17
00000000: f5de e3c3 000b ec00 f6fa 0500 ff1c 1111
00000010: 00de 1741 fb10 1ee3 e5f0 7f10 b432 2cfc
00000020: 0608 27d9 fef8 d521 ee02 dff6 df0c 1106
00000030: 1a01 fd0e 02ee 0d10 e00a fd23 08f3 e3fb
00000040: 000a ed15 070d f706 12eb 06f0 11f5 1cdb
00000050: 0dd8 ed81 e920 ff0a fbcb 1c09 d9fb ecee
00000060: 2f52 ebaa 1d20 f712 d306 f224 ef4e e9f5
00000070: 0027 d83c 0937 1739 ee0f 1d0c b2ef d5e0
00000080: 0132 d149 e852 c7da 2111 91e0 7f0a 29f9
00000090: 33ff 1b0d 0aa1 fd07 04ff 01fa f6d9 0305
000000a0: 0000 04e2 0e1d 0bef 2d8e 01f8 11ea 0ef8
000000b0: 0aaa 0403 f213 0ae4 f781 00e0 13fb b70a
000000c0: 05f4 120d 12fa c101 09fe fe00 e908 fe9e
000000d0: 0010 3f13 0c07 e7ff 04f1 000b 021d b802
000000e0: 3000 0906 ff07 fa10 fa08 0cf1 f71a 0d81
000000f0: ceef ef5a 2925 eb10 1bea d003 cd01 0211

model/conv2d_38/Conv2D i1 [96, 1, 1, 48]
0 -17 8 85 34 -46 -74 41
-15 15 -74 12 -64 13 -22 -77
51 -79 -18 127 -41 -62 -93 1
23 -22 -56 48 -13 53 -19 -59
81 -70 -37 22 42 -56 -14 8
-48 -86 -15 -68 -53 -77 30 -14
83 -9 94 10 -30 -30 73 9
6 31 67 -25 15 -41 -14 -69
-40 -14 3 -68 -40 -40 6 -24
-5 -57 -2 -127 -18 -57 0 -49
0 -1 -29 -14 -49 -44 -42 15
-73 -17 -15 -42 -37 41 -39 -39
65 -43 -60 55 -13 -118 -17 2
-35 14 -32 -13 -16 -13 -51 -21
-46 78 -24 127 -56 -64 7 -40
16 -22 -9 82 -9 30 -6 3
74 38 53 36 -29 4 -36 14
16 -2 -83 41 -5 -1 -31 15
-1 -6 17 5 35 91 26 3
-19 -127 51 -10 -88 -51 -54 49
7 -43 -17 40 -81 124 0 5
-7 -48 -2 -7 10 -105 -36 48
6 79 51 -37 29 25 32 -87
-122 -29 71 99 -20 -40 35 18
4 -10 3 -127 3 41 -8 -29
-11 67 85 -52 6 -17 9 43
37 -1 -18 -12 78 15 96 74
-18 -48 45 22 23 105 3 24
-12 0 11 44 -22 1 -17 46
12 -25 73 -23 7 36 -16 5
-13 -7 21 -14 -22 -8 31 3
-18 37 29 10 49 -7 64 58
00000000: 00ef 0855 22d2 b629 f10f b60c c00d eab3
00000010: 33b1 ee7f d7c2 a301 17ea c830 f335 edc5
00000020: 51ba db16 2ac8 f208 d0aa f1bc cbb3 1ef2
00000030: 53f7 5e0a e2e2 4909 061f 43e7 0fd7 f2bb
00000040: d8f2 03bc d8d8 06e8 fbc7 fe81 eec7 00cf
00000050: 00ff e3f2 cfd4 d60f b7ef f1d6 db29 d9d9
00000060: 41d5 c437 f38a ef02 dd0e e0f3 f0f3 cdeb
00000070: d24e e87f c8c0 07d8 10ea f752 f71e fa03
00000080: 4a26 3524 e304 dc0e 10fe ad29 fbff e10f
00000090: fffa 1105 235b 1a03 ed81 33f6 a8cd ca31
000000a0: 07d5 ef28 af7c 0005 f9d0 fef9 0a97 dc30
000000b0: 064f 33db 1d19 20a9 86e3 4763 ecd8 2312
000000c0: 04f6 0381 0329 f8e3 f543 55cc 06ef 092b
000000d0: 25ff eef4 4e0f 604a eed0 2d16 1769 0318
000000e0: f400 0b2c ea01 ef2e 0ce7 49e9 0724 f005
000000f0: f3f9 15f2 eaf8 1f03 ee25 1d0a 31f9 403a

model/depthwise_conv2d_5/depthwise i1 [1, 3, 3, 48]
-19 32 18 27 21 -31 26 36
10 -22 -30 5 33 27 27 -15
37 29 -36 30 -35 -26 22 -20
-20 4 -29 27 -32 36 2 36
23 41 -31 -21 -39 33 -7 27
4 -19 -26 21 -15 -27 -7 -23
-44 66 37 56 73 -63 51 35
-48 -57 -63 23 68 64 44 -47
116 60 -59 74 -73 -66 46 -56
-55 41 -69 75 -67 78 30 68
53 83 -44 -65 -66 62 -54 60
36 -50 -58 54 -65 -72 -43 -72
-27 46 35 34 58 -35 42 7
-125 -42 -53 19 56 44 34 -45
59 30 -62 64 -56 -27 41 -37
-39 41 -52 53 -45 54 46 34
-13 54 -22 -47 -31 33 -34 34
47 -34 -48 58 -49 -43 -35 -62
-55 52 17 68 53 -49 57 127
61 -62 -65 52 59 62 53 -35
64 67 -36 54 -50 -70 53 -55
-42 34 -55 43 -53 70 10 64
117 67 -65 -53 -82 61 -43 70
23 -53 -57 45 -26 -65 -56 -52
-127 127 127 127 127 -127 127 45
-89 -127 -127 127 127 127 127 -127
3 127 -122 127 -127 -127 127 -127
-127 127 -127 127 -127 127 124 127
6 127 -127 -127 -127 127 -127 127
125 -127 -127 127 -127 -127 -127 -127
-88 90 107 71 94 -96 83 -78
-122 -97 -98 85 109 89 99 -95
00000000: ed20 121b 15e1 1a24 0aea e205 211b 1bf1
00000010: 251d dc1e dde6 16ec ec04 e31b e024 0224
00000020: 1729 e1eb d921 f91b 04ed e615 f1e5 f9e9
00000030: d442 2538 49c1 3323 d0c7 c117 4440 2cd1
00000040: 743c c54a b7be 2ec8 c929 bb4b bd4e 1e44
00000050: 3553 d4bf be3e ca3c 24ce c636 bfb8 d5b8
00000060: e52e 2322 3add 2a07 83d6 cb13 382c 22d3
00000070: 3b1e c240 c8e5 29db d929 cc35 d336 2e22
00000080: f336 ead1 e121 de22 2fde d03a cfd5 ddc2
00000090: c934 1144 35cf 397f 3dc2 bf34 3b3e 35dd
000000a0: 4043 dc36 ceba 35c9 d622 c92b cb46 0a40
000000b0: 7543 bfcb ae3d d546 17cb c72d e6bf c8cc
000000c0: 817f 7f7f 7f81 7f2d a781 817f 7f7f 7f81
000000d0: 037f 867f 8181 7f81 817f 817f 817f 7c7f
000000e0: 067f 8181 817f 817f 7d81 817f 8181 8181
000000f0: a85a 6b47 5ea0 53b2 869f 9e55 6d59 63a1

model/conv2d_10/Conv2D i1 [48, 1, 1, 48]
25 44 24 -74 4 -17 -127 0
38 8 -112 -33 -11 58 -65 -33
-10 64 -67 85 -64 -50 -48 -60
11 -41 -3 51 11 -37 -47 22
1 -10 -92 -36 23 90 -5 -62
-6 51 41 55 -35 49 -3 -56
41 -14 -46 8 10 -11 18 0
5 24 -105 4 10 11 -37 -11
-3 -18 -36 1 49 67 -127 17
1 -16 4 -61 17 99 5 -1
-10 9 4 27 -21 3 -23 -42
-47 21 39 -69 -8 14 -27 -1
-25 14 -29 -34 -7 23 48 -43
4 -74 -64 -16 63 -17 52 -58
10 20 -15 51 29 14 42 -127
-19 -43 -9 -34 -5 -33 31 85
-3 92 -16 67 -45 51 -7 20
123 11 61 -13 -50 12 2 -48
0 -12 16 -19 -16 41 7 8
4 -39 -18 -70 37 -7 22 26
7 33 -10 -15 -33 -5 -85 -82
32 15 -17 28 -30 59 15 -17
2 65 -27 -37 0 -33 -8 -16
64 -4 1 20 -63 17 -17 -127
14 -97 12 -127 -10 -65 4 -8
4 -38 -41 23 -7 75 6 -98
7 38 12 70 44 29 18 -22
-19 29 69 13 22 42 8 90
-9 36 95 -41 13 96 -9 -34
29 -6 -54 -31 47 63 -3 43
-13 48 -8 92 20 -19 -21 -21
2 -38 -25 26 -22 10 -24 -52
00000000: 192c 18b6 04ef 8100 2608 90df f53a bfdf
00000010: f640 bd55 c0ce d0c4 0bd7 fd33 0bdb d116
00000020: 01f6 a4dc 175a fbc2 fa33 2937 dd31 fdc8
00000030: 29f2 d208 0af5 1200 0518 9704 0a0b dbf5
00000040: fdee dc01 3143 8111 01f0 04c3 1163 05ff
00000050: f609 041b eb03 e9d6 d115 27bb f80e e5ff
00000060: e70e e3de f917 30d5 04b6 c0f0 3fef 34c6
00000070: 0a14 f133 1d0e 2a81 edd5 f7de fbdf 1f55
00000080: fd5c f043 d333 f914 7b0b 3df3 ce0c 02d0
00000090: 00f4 10ed f029 0708 04d9 eeba 25f9 161a
000000a0: 0721 f6f1 dffb abae 200f ef1c e23b 0fef
000000b0: 0241 e5db 00df f8f0 40fc 0114 c111 ef81
000000c0: 0e9f 0c81 f6bf 04f8 04da d717 f94b 069e
000000d0: 0726 0c46 2c1d 12ea ed1d 450d 162a 085a
000000e0: f724 5fd7 0d60 f7de 1dfa cae1 2f3f fd2b
000000f0: f330 f85c 14ed ebeb 02da e71a ea0a e8cc

model/conv2d_13/Conv2D i1 [48, 1, 1, 48]
-42 -34 -5 127 8 5 17 43
63 -12 4 -119 3 -39 21 -6
12 -4 7 25 -31 47 13 5
6 8 -5 -1 9 32 -8 -1
-16 31 3 -7 -12 25 -22 -9
3 1 -6 47 -37 -10 -22 -92
-25 -75 81 62 -37 15 28 -97
50 59 63 -119 9 -42 -15 -24
-25 0 -55 8 -8 -33 -4 17
-5 -21 -46 -15 17 -26 8 -64
-19 98 -11 -44 -5 -48 15 -10
-25 -30 -4 107 -61 -21 60 -127
10 1 -6 3 -35 -31 -75 -42
-69 -26 -56 -32 22 -2 122 -27
5 -33 -28 29 -52 -56 -32 -46
-14 -16 -11 84 -70 18 54 -14
39 51 72 38 19 86 62 6
-41 21 -127 7 -11 -42 -4 87
-18 6 -68 25 14 -3 0 -24
30 -18 -19 -10 -16 -31 5 -41
103 -1 -19 14 -4 127 -20 -21
-29 -21 -93 -39 39 -35 33 15
-73 -108 33 9 20 20 -37 -70
38 -2 -23 43 9 -41 8 -35
-56 -64 -46 -27 -42 17 -21 -21
-31 -21 23 -46 -7 -28 0 -17
-16 72 -13 -67 -64 28 67 -63
36 -34 26 -16 -127 39 -5 44
-6 -47 -35 -38 -52 -15 6 -57
-48 -66 39 -59 -46 10 -23 -65
17 21 19 17 -32 -7 4 17
3 -10 -8 9 12 -15 3 -1
00000000: d6de fb7f 0805 112b 3ff4 0489 03d9 15fa
00000010: 0cfc 0719 e12f 0d05 0608 fbff 0920 f8ff
00000020: f01f 03f9 f419 eaf7 0301 fa2f dbf6 eaa4
00000030: e7b5 513e db0f 1c9f 323b 3f89 09d6 f1e8
00000040: e700 c908 f8df fc11 fbeb d2f1 11e6 08c0
00000050: ed62 f5d4 fbd0 0ff6 e7e2 fc6b c3eb 3c81
00000060: 0a01 fa03 dde1 b5d6 bbe6 c8e0 16fe 7ae5
00000070: 05df e41d ccc8 e0d2 f2f0 f554 ba12 36f2
00000080: 2733 4826 1356 3e06 d715 8107 f5d6 fc57
00000090: ee06 bc19 0efd 00e8 1eee edf6 f0e1 05d7
000000a0: 67ff ed0e fc7f eceb e3eb a3d9 27dd 210f
000000b0: b794 2109 1414 dbba 26fe e92b 09d7 08dd
000000c0: c8c0 d2e5 d611 ebeb e1eb 17d2 f9e4 00ef
000000d0: f048 f3bd c01c 43c1 24de 1af0 8127 fb2c
000000e0: fad1 ddda ccf1 06c7 d0be 27c5 d20a e9bf
000000f0: 1115 1311 e0f9 0411 03f6 f809 0cf1 03ff

model/depthwise_conv2d_7/depthwise i1 [1, 3, 3, 48]
14 -10 0 17 8 -17 20 -51
3 10 10 -7 -5 16 -5 21
46 -2 -2 -1 -2 -6 7 19
-29 9 -6 -15 14 17 -1 0
-14 37 -15 -8 -22 -15 28 -13
-1 -10 -15 -21 13 11 24 -6
-8 -12 56 32 7 4 17 2
36 -13 33 -14 -25 15 -122 -72
117 -31 2 28 20 -1 -89 0
-97 71 72 -27 31 -1 -75 -23
-91 35 -45 -22 99 -88 13 -52
-28 5 27 -36 15 -1 -40 97
-14 -30 13 42 8 5 25 78
-12 9 22 -1 15 8 -14 -5
72 -4 0 7 -6 7 -3 -4
127 20 22 -5 4 -17 -23 3
-13 48 -8 3 17 -10 29 -24
-33 7 -34 -20 17 17 -22 -16
-22 -29 28 27 12 -121 41 -14
16 -6 32 -78 -8 20 -4 -54
51 -16 -127 30 8 -111 16 2
-11 37 54 -45 26 120 -38 -45
21 17 102 -9 7 28 36 -18
-81 -115 -21 -44 15 30 108 -12
-78 -85 67 109 127 -16 -127 -27
127 -127 127 127 -107 -127 -3 -127
109 127 4 127 -127 -26 -127 127
-25 127 127 -127 -127 12 127 -127
-52 -127 -36 127 127 127 -127 -127
-127 -13 -75 -127 -127 -127 -13 -127
127 -127 67 127 54 127 45 39
33 -35 39 -34 127 9 -8 9
00000000: 0ef6 0011 08ef 14cd 030a 0af9 fb10 fb15
00000010: 2efe feff fefa 0713 e309 faf1 0e11 ff00
00000020: f225 f1f8 eaf1 1cf3 fff6 f1eb 0d0b 18fa
00000030: f8f4 3820 0704 1102 24f3 21f2 e70f 86b8
00000040: 75e1 021c 14ff a700 9f47 48e5 1fff b5e9
00000050: a523 d3ea 63a8 0dcc e405 1bdc 0fff d861
00000060: f2e2 0d2a 0805 194e f409 16ff 0f08 f2fb
00000070: 48fc 0007 fa07 fdfc 7f14 16fb 04ef e903
00000080: f330 f803 11f6 1de8 df07 deec 1111 eaf0
00000090: eae3 1c1b 0c87 29f2 10fa 20b2 f814 fcca
000000a0: 33f0 811e 0891 1002 f525 36d3 1a78 dad3
000000b0: 1511 66f7 071c 24ee af8d ebd4 0f1e 6cf4
000000c0: b2ab 436d 7ff0 81e5 7f81 7f7f 9581 fd81
000000d0: 6d7f 047f 81e6 817f e77f 7f81 810c 7f81
000000e0: cc81 dc7f 7f7f 8181 81f3 b581 8181 f381
000000f0: 7f81 437f 367f 2d27 21dd 27de 7f09 f809

model/conv2d_14/Conv2D i1 [48, 1, 1, 48]
5 -30 -14 32 24 -9 14 -3
21 -107 35 11 -4 -35 20 -36
-39 7 -2 -127 5 0 54 -10
-15 28 51 -17 -37 0 101 -62
5 30 -13 49 17 34 -73 -93
11 -2 -42 -40 44 15 -14 24
-27 -32 -8 28 32 -11 14 45
-21 31 -14 30 11 -12 -7 16
-4 27 1 -42 22 -3 -24 127
-6 12 41 -36 15 0 34 -13
0 -21 2 23 10 13 2 79
20 -1 -1 8 31 5 -2 19
27 14 -2 -3 -13 -4 -1 -11
9 11 8 4 15 8 27 -8
1 0 -5 -3 -19 -4 -127 -36
-10 2 18 17 34 1 -8 -22
35 -17 1 -7 -35 -26 6 27
16 -2 -18 -8 22 26 -2 -21
-11 -29 0 23 45 -7 -83 2
14 39 7 8 4 7 -37 -74
0 -8 7 -39 -1 -2 -21 -13
-15 23 21 -5 -47 -23 3 -35
-18 55 -35 -8 -15 53 -19 -75
24 10 -28 127 19 4 -45 -22
4 13 2 3 29 1 -27 -11
-13 -10 -22 -30 6 5 5 -16
-31 -60 10 59 2 -7 7 -23
2 -12 11 6 13 -12 -8 -23
1 -57 11 -9 -16 0 -27 34
43 4 0 -62 -127 -42 -32 -12
15 11 -22 11 -26 8 -49 -37
-32 14 -33 1 2 35 3 -15
00000000: 05e2 f220 18f7 0efd 1595 230b fcdd 14dc
00000010: d907 fe81 0500 36f6 f11c 33ef db00 65c2
00000020: 051e f331 1122 b7a3 0bfe d6d8 2c0f f218
00000030: e5e0 f81c 20f5 0e2d eb1f f21e 0bf4 f910
00000040: fc1b 01d6 16fd e87f fa0c 29dc 0f00 22f3
00000050: 00eb 0217 0a0d 024f 14ff ff08 1f05 fe13
00000060: 1b0e fefd f3fc fff5 090b 0804 0f08 1bf8
00000070: 0100 fbfd edfc 81dc f602 1211 2201 f8ea
00000080: 23ef 01f9 dde6 061b 10fe eef8 161a feeb
00000090: f5e3 0017 2df9 ad02 0e27 0708 0407 dbb6
000000a0: 00f8 07d9 fffe ebf3 f117 15fb d1e9 03dd
000000b0: ee37 ddf8 f135 edb5 180a e47f 1304 d3ea
000000c0: 040d 0203 1d01 e5f5 f3f6 eae2 0605 05f0
000000d0: e1c4 0a3b 02f9 07e9 02f4 0b06 0df4 f8e9
000000e0: 01c7 0bf7 f000 e522 2b04 00c2 81d6 e0f4
000000f0: 0f0b ea0b e608 cfdb e00e df01 0223 03f1

model/conv2d_15/Conv2D i1 [48, 1, 1, 48]
0 18 64 -6 52 105 -75 -86
-27 -103 27 -71 18 23 43 -10
-36 42 -54 -34 -74 -22 71 21
-58 -24 -56 5 -60 -68 -85 21
-60 -4 7 127 2 53 -42 4
-41 -83 -104 14 106 50 -103 25
0 0 0 0 0 0 0 0
0 0 0 0 0 0 0 0
0 0 0 0 0 0 0 0
0 0 0 0 0 0 0 0
0 0 0 0 0 0 0 0
0 0 0 0 0 0 0 0
58 8 -24 0 63 -55 -64 -69
14 -5 4 -39 78 21 -38 22
77 35 68 -75 15 39 -46 -1
-6 -36 -8 -86 18 48 -26 22
-89 40 127 -77 -3 31 -8 21
18 39 13 31 6 -13 -48 13
26 8 -6 14 -3 0 26 -9
2 29 -29 -8 26 -10 55 -7
127 17 -8 24 21 -9 28 -2
11 14 1 -47 16 -8 22 5
39 -10 9 4 13 21 -5 -7
6 -3 4 -4 30 -13 19 -5
27 -127 29 -1 -51 -1 3 33
9 17 -49 40 -29 34 -20 8
49 17 17 -12 0 8 -2 5
27 -10 -28 3 10 -32 15 -117
-1 17 -42 -10 -32 21 -27 7
0 -14 -32 11 54 -2 -2 27
106 5 37 23 -127 -2 9 29
59 -34 23 33 30 -14 35 9
00000000: 0012 40fa 3469 b5aa e599 1bb9 1217 2bf6
00000010: dc2a cade b6ea 4715 c6e8 c805 c4bc ab15
00000020: c4fc 077f 0235 d604 d7ad 980e 6a32 9919
00000030: 0000 0000 0000 0000 0000 0000 0000 0000
00000040: 0000 0000 0000 0000 0000 0000 0000 0000
00000050: 0000 0000 0000 0000 0000 0000 0000 0000
00000060: 3a08 e800 3fc9 c0bb 0efb 04d9 4e15 da16
00000070: 4d23 44b5 0f27 d2ff fadc f8aa 1230 e616
00000080: a728 7fb3 fd1f f815 1227 0d1f 06f3 d00d
00000090: 1a08 fa0e fd00 1af7 021d e3f8 1af6 37f9
000000a0: 7f11 f818 15f7 1cfe 0b0e 01d1 10f8 1605
000000b0: 27f6 0904 0d15 fbf9 06fd 04fc 1ef3 13fb
000000c0: 1b81 1dff cdff 0321 0911 cf28 e322 ec08
000000d0: 3111 11f4 0008 fe05 1bf6 e403 0ae0 0f8b
000000e0: ff11 d6f6 e015 e507 00f2 e00b 36fe fe1b
000000f0: 6a05 2517 81fe 091d 3bde 1721 1ef2 2309

model/depthwise_conv2d_8/depthwise i1 [1, 3, 3, 48]
-40 0 49 8 2 45 3 -74
-32 -27 -32 -42 -9 -2 -13 -21
1 -13 -12 -22 37 -75 5 35
5 -9 5 2 5 -15 21 11
7 4 -22 -5 12 -17 -4 24
-10 -10 -29 17 12 3 -4 -12
-60 0 127 98 -2 127 35 45
-10 -127 -7 -58 25 53 -22 -11
3 -50 -75 -28 127 -66 -30 38
8 23 25 5 -24 -47 -92 -19
-27 44 -8 -5 45 -39 48 -2
-18 -44 32 24 24 4 -21 -13
-46 0 59 30 7 66 5 -86
5 -35 -46 -64 3 -18 6 -6
4 -23 -20 -8 47 -85 3 30
8 8 0 3 1 -7 18 7
3 10 9 18 17 -28 5 -21
-4 -13 -6 21 17 1 -7 -12
-28 0 -26 -11 -20 -8 39 -33
-95 -10 -31 -56 23 -55 109 -63
18 -71 -14 1 33 -63 -18 -108
7 -13 14 -4 29 -17 -70 10
33 -5 -93 -95 81 -26 56 99
25 2 79 32 37 10 -11 -55
-78 0 -76 38 127 -126 -127 -127
1 84 -127 -111 127 56 127 -127
-127 -127 127 -60 -51 -127 -127 -127
-127 -127 87 127 127 -127 -127 -127
-127 127 -46 -30 127 -127 127 9
127 127 116 -127 127 -85 -127 127
-38 0 -25 8 -10 -44 38 -52
127 23 -67 -76 45 98 27 31
00000000: d800 3108 022d 03b6 e0e5 e0d6 f7fe f3eb
00000010: 01f3 f4ea 25b5 0523 05f7 0502 05f1 150b
00000020: 0704 eafb 0cef fc18 f6f6 e311 0c03 fcf4
00000030: c400 7f62 fe7f 232d f681 f9c6 1935 eaf5
00000040: 03ce b5e4 7fbe e226 0817 1905 e8d1 a4ed
00000050: e52c f8fb 2dd9 30fe eed4 2018 1804 ebf3
00000060: d200 3b1e 0742 05aa 05dd d2c0 03ee 06fa
00000070: 04e9 ecf8 2fab 031e 0808 0003 01f9 1207
00000080: 030a 0912 11e4 05eb fcf3 fa15 1101 f9f4
00000090: e400 e6f5 ecf8 27df a1f6 e1c8 17c9 6dc1
000000a0: 12b9 f201 21c1 ee94 07f3 0efc 1def ba0a
000000b0: 21fb a3a1 51e6 3863 1902 4f20 250a f5c9
000000c0: b200 b426 7f82 8181 0154 8191 7f38 7f81
000000d0: 8181 7fc4 cd81 8181 8181 577f 7f81 8181
000000e0: 817f d2e2 7f81 7f09 7f7f 7481 7fab 817f
000000f0: da00 e708 f6d4 26cc 7f17 bdb4 2d62 1b1f

model/conv2d_16/Conv2D i1 [48, 1, 1, 48]
-29 0 -16 19 -27 -6 -47 24
13 23 -28 -19 15 8 16 -2
30 100 59 -28 -22 -9 -17 -26
78 -22 33 14 33 20 -12 -27
-127 40 -2 9 24 -2 10 18
8 18 21 -5 -7 -34 119 -6
-61 0 8 -54 -84 92 -34 -65
46 -62 115 -25 12 0 7 23
18 -86 -78 -30 -3 -30 -5 5
90 -57 -45 2 -43 -45 53 -51
2 35 24 127 42 18 -28 52
-21 -52 -15 39 31 -9 -6 54
-6 0 22 6 -30 -65 15 38
112 -123 -2 35 29 -16 -5 -2
-127 -12 -2 -3 -123 -4 9 20
20 -1 -7 -11 6 -4 17 -5
-24 26 -11 -56 11 -15 -3 112
16 19 -36 -41 -27 -13 -13 -4
27 0 55 -28 14 -1 57 -76
-80 -24 -14 28 127 -21 29 -6
-63 126 113 14 110 93 9 0
-96 -7 -75 -44 27 22 80 -41
20 89 -6 -67 56 16 9 -77
-11 -69 -2 -16 -6 22 -73 18
-38 0 13 -23 -4 1 -53 51
0 -15 23 -8 -7 17 -29 5
-41 2 -30 0 3 5 127 39
-37 1 -12 14 -30 0 -21 -56
18 49 0 9 59 -54 16 -15
-6 20 1 18 10 13 23 -16
80 0 -16 -32 -15 78 61 9
-5 23 -30 11 49 -38 43 20
00000000: e300 f013 e5fa d118 0d17 e4ed 0f08 10fe
00000010: 1e64 3be4 eaf7 efe6 4eea 210e 2114 f4e5
00000020: 8128 fe09 18fe 0a12 0812 15fb f9de 77fa
00000030: c300 08ca ac5c debf 2ec2 73e7 0c00 0717
00000040: 12aa b2e2 fde2 fb05 5ac7 d302 d5d3 35cd
00000050: 0223 187f 2a12 e434 ebcc f127 1ff7 fa36
00000060: fa00 1606 e2bf 0f26 7085 fe23 1df0 fbfe
00000070: 81f4 fefd 85fc 0914 14ff f9f5 06fc 11fb
00000080: e81a f5c8 0bf1 fd70 1013 dcd7 e5f3 f3fc
00000090: 1b00 37e4 0eff 39b4 b0e8 f21c 7feb 1dfa
000000a0: c17e 710e 6e5d 0900 a0f9 b5d4 1b16 50d7
000000b0: 1459 fabd 3810 09b3 f5bb fef0 fa16 b712
000000c0: da00 0de9 fc01 cb33 00f1 17f8 f911 e305
000000d0: d702 e200 0305 7f27 db01 f40e e200 ebc8
000000e0: 1231 0009 3bca 10f1 fa14 0112 0a0d 17f0
000000f0: 5000 f0e0 f14e 3d09 fb17 e20b 31da 2b14

model/conv2d_17/Conv2D i1 [48, 1, 1, 48]
127 11 -21 -32 3 10 4 -34
30 -42 -4 -31 -10 -59 64 44
83 -39 40 5 -17 -40 -3 -68
81 -49 -27 -56 -48 -74 -17 43
-27 -16 -30 -1 -10 2 21 79
-32 -23 -18 29 13 -8 -23 -5
66 -12 -3 -6 -9 14 15 9
50 15 -8 24 30 -20 24 -9
-14 21 4 12 -5 -18 11 25
23 -19 -7 14 3 -5 30 10
-5 -45 13 -13 -17 32 4 9
127 -10 -26 -21 0 -24 4 2
74 13 3 -32 0 20 -8 -8
72 17 29 14 45 11 5 41
127 84 32 3 44 37 -2 44
45 -37 -30 34 -14 -29 -35 38
-7 -58 -16 31 4 -1 15 14
-117 18 -23 20 51 35 -9 21
-11 1 -11 -5 -59 -6 44 4
45 -70 -51 17 -24 3 -35 -19
-6 -16 -22 -35 -92 -33 36 -38
127 8 7 1 -6 13 -79 -57
-1 -14 -41 9 3 115 -26 -3
0 -35 -19 -2 -30 10 -3 40
14 -2 -3 13 -27 -30 -3 5
-1 10 -40 -5 19 -63 0 -5
-21 -13 -60 15 -1 -11 -13 -22
10 -2 18 27 -16 -127 -16 -38
1 -35 -22 24 -26 16 -55 9
-9 -42 -34 -50 13 -32 21 31
28 37 -24 -4 21 -8 127 -4
20 -44 10 -48 114 -28 78 5
00000000: 7f0b ebe0 030a 04de 1ed6 fce1 f6c5 402c
00000010: 53d9 2805 efd8 fdbc 51cf e5c8 d0b6 ef2b
00000020: e5f0 e2ff f602 154f e0e9 ee1d 0df8 e9fb
00000030: 42f4 fdfa f70e 0f09 320f f818 1eec 18f7
00000040: f215 040c fbee 0b19 17ed f90e 03fb 1e0a
00000050: fbd3 0df3 ef20 0409 7ff6 e6eb 00e8 0402
00000060: 4a0d 03e0 0014 f8f8 4811 1d0e 2d0b 0529
00000070: 7f54 2003 2c25 fe2c 2ddb e222 f2e3 dd26
00000080: f9c6 f01f 04ff 0f0e 8b12 e914 3323 f715
00000090: f501 f5fb c5fa 2c04 2dba cd11 e803 dded
000000a0: faf0 eadd a4df 24da 7f08 0701 fa0d b1c7
000000b0: fff2 d709 0373 e6fd 00dd edfe e20a fd28
000000c0: 0efe fd0d e5e2 fd05 ff0a d8fb 13c1 00fb
000000d0: ebf3 c40f fff5 f3ea 0afe 121b f081 f0da
000000e0: 01dd ea18 e610 c909 f7d6 dece 0de0 151f
000000f0: 1c25 e8fc 15f8 7ffc 14d4 0ad0 72e4 4e05

model/depthwise_conv2d_9/depthwise i1 [1, 3, 3, 48]
41 15 6 27 -78 -19 -4 -11
0 0 -12 -17 -1 -3 -2 -1
-8 -36 -22 13 -2 21 17 12
-41 -10 -10 8 15 -7 -5 2
8 0 -5 47 -85 2 1 -18
-7 6 106 16 -4 -22 -45 -15
65 127 -107 38 109 4 -23 -29
-22 -5 -74 -127 -127 -15 -16 -22
-25 18 -55 49 -127 22 6 -3
-9 29 1 -14 -13 -2 -6 127
-127 8 45 -43 -68 16 15 42
21 -49 -4 4 18 -67 -84 -41
28 15 -25 21 -63 30 -4 11
-13 3 31 1 6 -8 -2 8
-23 -35 -30 -59 -11 3 -24 -9
17 -14 -10 -19 15 -2 -33 48
-61 -1 31 18 114 -18 6 0
1 4 -62 -15 -1 -2 -13 -13
40 -2 30 -78 43 -13 -2 63
-24 -115 127 17 3 -31 51 9
-8 1 1 127 1 32 -20 117
-127 -47 -20 -7 -2 -82 127 8
84 -39 22 50 -66 -14 35 -24
-11 -25 117 5 -11 -127 11 24
35 17 -127 -20 127 -124 127 127
127 -13 -51 8 13 127 -127 127
-127 127 -52 -33 37 127 127 -127
-11 127 -127 127 -127 -21 5 -53
-45 127 -127 107 -21 -127 127 119
46 -25 -3 -127 127 30 7 127
23 -4 15 13 35 127 -40 49
-45 127 -80 4 1 -18 51 14
00000000: 290f 061b b2ed fcf5 0000 f4ef fffd feff
00000010: f8dc ea0d fe15 110c d7f6 f608 0ff9 fb02
00000020: 0800 fb2f ab02 01ee f906 6a10 fcea d3f1
00000030: 417f 9526 6d04 e9e3 eafb b681 81f1 f0ea
00000040: e712 c931 8116 06fd f71d 01f2 f3fe fa7f
00000050: 8108 2dd5 bc10 0f2a 15cf fc04 12bd acd7
00000060: 1c0f e715 c11e fc0b f303 1f01 06f8 fe08
00000070: e9dd e2c5 f503 e8f7 11f2 f6ed 0ffe df30
00000080: c3ff 1f12 72ee 0600 0104 c2f1 fffe f3f3
00000090: 28fe 1eb2 2bf3 fe3f e88d 7f11 03e1 3309
000000a0: f801 017f 0120 ec75 81d1 ecf9 feae 7f08
000000b0: 54d9 1632 bef2 23e8 f5e7 7505 f581 0b18
000000c0: 2311 81ec 7f84 7f7f 7ff3 cd08 0d7f 817f
000000d0: 817f ccdf 257f 7f81 f57f 817f 81eb 05cb
000000e0: d37f 816b eb81 7f77 2ee7 fd81 7f1e 077f
000000f0: 17fc 0f0d 237f d831 d37f b004 01ee 330e

model/conv2d_18/Conv2D i1 [48, 1, 1, 48]
23 21 4 -28 -36 -16 64 -5
26 -11 86 -6 -49 23 1 38
-18 30 -15 -55 10 -25 -52 24
-127 -27 -24 -6 -31 89 -56 -40
-98 -4 -39 11 -5 28 -2 -4
-100 -32 1 2 -18 88 -66 17
1 20 5 -4 -19 13 -10 0
0 -10 -9 7 -3 13 2 8
-31 -7 -13 -8 -11 -92 15 -9
-5 9 -4 -13 51 8 -7 1
-4 13 -127 3 -4 -14 65 1
0 -2 -2 -20 -8 -11 -3 -1
37 3 -122 21 -127 11 -15 2
-14 -2 -21 17 -2 35 20 77
-26 113 -18 23 -23 0 -16 14
7 43 5 -6 -42 15 11 11
-14 90 25 45 -4 -7 -25 20
4 26 -8 10 27 -29 -13 -25
76 10 -24 5 74 1 14 -56
-23 4 -33 -16 -6 4 -48 -42
41 -5 13 14 29 -20 9 26
4 50 -6 -32 108 -8 33 -20
-19 -59 -41 -53 -7 29 32 -127
-28 11 -17 15 58 -49 -21 97
24 -8 7 3 26 4 -15 -4
-9 8 -17 27 -8 -7 -27 -36
127 42 -36 -17 -18 75 36 -4
-39 24 -75 8 -10 -43 -3 -39
-10 -34 103 16 5 -25 -1 55
-27 -14 -4 -43 10 -14 -4 15
-57 22 -34 -28 127 37 6 64
29 -1 44 -33 -64 -23 33 17
00000000: 1715 04e4 dcf0 40fb 1af5 56fa cf17 0126
00000010: ee1e f1c9 0ae7 cc18 81e5 e8fa e159 c8d8
00000020: 9efc d90b fb1c fefc 9ce0 0102 ee58 be11
00000030: 0114 05fc ed0d f600 00f6 f707 fd0d 0208
00000040: e1f9 f3f8 f5a4 0ff7 fb09 fcf3 3308 f901
00000050: fc0d 8103 fcf2 4101 00fe feec f8f5 fdff
00000060: 2503 8615 810b f102 f2fe eb11 fe23 144d
00000070: e671 ee17 e900 f00e 072b 05fa d60f 0b0b
00000080: f25a 192d fcf9 e714 041a f80a 1be3 f3e7
00000090: 4c0a e805 4a01 0ec8 e904 dff0 fa04 d0d6
000000a0: 29fb 0d0e 1dec 091a 0432 fae0 6cf8 21ec
000000b0: edc5 d7cb f91d 2081 e40b ef0f 3acf eb61
000000c0: 18f8 0703 1a04 f1fc f708 ef1b f8f9 e5dc
000000d0: 7f2a dcef ee4b 24fc d918 b508 f6d5 fdd9
000000e0: f6de 6710 05e7 ff37 e5f2 fcd5 0af2 fc0f
000000f0: c716 dee4 7f25 0640 1dff 2cdf c0e9 2111

model/conv2d_19/Conv2D i1 [48, 1, 1, 48]
-85 127 -60 -49 17 -51 39 -31
5 7 -12 12 -80 -75 -18 -16
-6 -25 -29 45 -23 -27 17 69
-7 11 -50 -22 25 -21 -7 -23
47 -17 -10 6 55 119 -25 -8
43 -35 -71 -48 -36 -36 32 -2
-127 94 -33 4 -6 1 -13 9
17 -18 4 -94 9 -23 -23 31
57 -27 -40 37 -14 8 40 30
-5 13 -5 40 -6 27 44 -9
29 -19 59 10 66 -44 -52 -3
0 -65 -2 -30 -51 29 -13 -44
46 73 -28 -71 60 46 -4 -55
3 -44 127 -54 -6 7 -10 -27
30 -48 -50 -113 18 -22 -10 -61
-11 -45 49 -72 -15 -47 16 -54
40 -75 15 -33 -15 -12 33 -30
-77 -33 10 54 4 -83 46 -17
-77 87 -2 -8 48 -36 38 46
-64 -4 28 8 -21 1 4 91
-9 -66 -37 6 -31 -31 4 -34
-18 108 18 -108 -20 40 -41 -16
29 127 -13 -58 89 23 -58 91
13 -11 -103 -67 28 -98 -9 12
-47 7 -26 -1 59 73 -25 -38
127 53 -15 -4 -35 -1 -10 -64
-15 1 1 -49 16 -15 -20 0
2 -6 -21 51 23 -15 -39 13
-2 7 -2 47 5 -56 -23 -75
-15 -29 -8 -81 -5 3 -31 -56
-4 8 -2 0 -8 1 -13 1
4 3 3 -6 -2 1 1 2
00000000: ab7f c4cf 11cd 27e1 0507 f40c b0b5 eef0
00000010: fae7 e32d e9e5 1145 f90b ceea 19eb f9e9
00000020: 2fef f606 3777 e7f8 2bdd b9d0 dcdc 20fe
00000030: 815e df04 fa01 f309 11ee 04a2 09e9 e91f
00000040: 39e5 d825 f208 281e fb0d fb28 fa1b 2cf7
00000050: 1ded 3b0a 42d4 ccfd 00bf fee2 cd1d f3d4
00000060: 2e49 e4b9 3c2e fcc9 03d4 7fca fa07 f6e5
00000070: 1ed0 ce8f 12ea f6c3 f5d3 31b8 f1d1 10ca
00000080: 28b5 0fdf f1f4 21e2 b3df 0a36 04ad 2eef
00000090: b357 fef8 30dc 262e c0fc 1c08 eb01 045b
000000a0: f7be db06 e1e1 04de ee6c 1294 ec28 d7f0
000000b0: 1d7f f3c6 5917 c65b 0df5 99bd 1c9e f70c
000000c0: d107 e6ff 3b49 e7da 7f35 f1fc ddff f6c0
000000d0: f101 01cf 10f1 ec00 02fa eb33 17f1 d90d
000000e0: fe07 fe2f 05c8 e9b5 f1e3 f8af fb03 e1c8
000000f0: fc08 fe00 f801 f301 0403 03fa fe01 0102
